aapl_sept12_delta_model.pth (torch, 868322 bytes, 26 tensors)

lstm.weight_ih_l0 f4 [256, 8]
00000000: ebba b7bb 99a7 9d3d 6abe 39bd 43ad afbd
00000010: f57e 213d 6523 e83d 6dd1 8e3d 9cac 12be
00000020: 49b8 f3bb 232a d63d a4e0 153d 86ab 373d
00000030: c933 b03d e227 e3bd c9ed f9bd 80e5 92bc
00000040: 4227 cabd 5be1 fa3b f1fa afbd 4396 48bd
00000050: 3380 22bd d0b5 1bbb 8b9e 953d ec86 76bc
00000060: 16b2 063d b42e 19bd 4dfb c7bc 5815 73bd
00000070: a9fa 04bd 1c38 9f3d 0847 bfbd c917 0c3e
00000080: 76e5 a1bd 761c f63d 557e c73d 15cd 59bd
00000090: 9353 9cbd b2bd a73d 5fd9 973c 1fa3 ab3a
000000a0: 211b ff3c 3d8c 8bbd 8627 d83d 527b 943c
000000b0: 0fa3 88bd cb53 bcbd 4282 903d 2ced 36bd
000000c0: 88eb c9bc 8bd1 c53d 6390 d53d 4b82 193d
000000d0: f16c 3bbb cf0b d53d 2730 fbbd 3681 f03c
000000e0: 0fdb c73b 5904 16bc 92e4 4a3d 3c4d b5bd
000000f0: 8550 10be c36a 07be f6ad 6d3d e108 3d3d
00000100: b682 c83d f650 a23d 6d3d 29bd e04f c2bd
00000110: 2998 edbd 0850 b6bd 3a9a 95bd cd78 c53d
00000120: f136 bb3d b020 a33d 1dc9 8dbd ac9e f13d
00000130: c11a 893d 0706 2b3d 8815 6abc 9f15 d73d
00000140: da11 cfbd 0b91 71bd 6de9 cb3d 9272 da3d
00000150: 7f92 923d eefe 79bd 4f78 8c3c 9d49 ffbc
00000160: db3e f63d 0b79 173d 02f4 a1bd 2cd0 90bd
00000170: 47dc 8f3d 627b a1bd daa5 603d bbea edbd
00000180: c11c d33d 68c7 6d3d 36c3 d6bd 2976 cc3d
00000190: cce2 08bd f31a 9cbb b500 a9bd 970f bb3d
000001a0: 7bae b93d e14f dcbd efd1 bd3d 423c eebc
000001b0: ea68 dc3d 03c4 25bb 919c afbd 15ef 72bd
000001c0: d0ea f63d 433f e53c d064 c5bd e903 e7bc
000001d0: 8520 a6bd aa1f 413d 8990 bbbd 25a9 c93d
000001e0: 0614 463d 1474 f9bd 3bb7 ecbc b48c 7c3c
000001f0: aaf3 52bd 30e0 b93d dd14 e73d a7f3 973d
00000200: c33d c53d 7b6d a4bd dcf1 2d3d 725e bebd
00000210: be21 bebd 1cf8 5c3c dd6f 9c3d 60e3 a6bd
00000220: c841 893d aeb3 0f3d ec9a 42bc 1545 f2bd
00000230: 27a2 e2bd 649b ed3d 0308 3cbd c8fe e6bd
00000240: 653b 943c b11f b3bd 2292 bc3d e4d9 98bd
00000250: 5312 d13d f2a1 80bd c7c4 c43d d07f b3bb
00000260: 6301 cf3d 02b9 9b3d 8241 36bd 3558 85bc
00000270: 6f7c 183c 13da 023e 9dd6 e7bc 6700 363b
00000280: 65e6 b73c 4c67 16bc 56da d2bd 8282 ebbd
00000290: a222 a7bd 3278 47bc 5bbe 393d 7791 cc3d
000002a0: 3246 f83c e5e5 c2bb ac64 543d 43d1 aebc
000002b0: aa6e 87bd 4de3 5d3d fab6 91bd f0f6 ef3d
000002c0: 3d4d 923d 439c cd3d 45f5 bcbc d176 8dbd
000002d0: 642a bbbd 5129 d5bc 5e6d c4bd 30bc 16bd
000002e0: ab4e eabc eade 9ebd 0aea edbd 9c8a ebbd
000002f0: dc66 20bd 558c a6bd 98b3 1c3d 523a a33c
00000300: 39fd 90bd d8bb 81bc 0ec9 75bd a20a 9abd
00000310: 9b0e 9a3d febc b6bd 4c19 e1bb 9207 0ebd
00000320: b51e ba3d 0f79 00be 473c f6bc 46d5 fdbc
00000330: b3f4 a5bd bc59 9b3d cba6 90bd 1038 d23d
00000340: 7798 053e 9d43 a33d 8102 d6bd 46a8 133c
00000350: c255 d5bd 6be8 8fbb edb2 3b3b c729 703d
00000360: 2917 2f3d 23c0 f8bd ade5 ffbb 637c b93d
00000370: cad0 833d 3506 a0bc e8a8 cc3d 8bb0 053d
00000380: 3b36 4bbd 725d aa3c c287 883d 9daf 933d
00000390: 1998 a53a 8710 ccba 136d 08bd a1f1 20bd
000003a0: 5079 473d 8c4e f33c c35f 94bc 2690 5cbd
000003b0: ce83 0b3d 6937 463d e110 c4bd 36f5 7abd
000003c0: e741 c4bd 65e4 db3b 37cf 023e 46db 273d
000003d0: 7568 32bd 1b7d 50bd 69f6 1b3d 4a0a 803c
000003e0: d20b 92bd 6e2f 46bd eb6c fd3d ac3c 18bd
000003f0: ee99 15be 3434 b83d 84f7 a63d c911 d53d
-0.005606999 0.07697982 -0.04534761 -0.08577969 0.039427716 0.11334876 0.069735385 -0.14323658
-0.00743774 0.10457256 0.036591187 0.044841312 0.08603627 -0.110915914 -0.12203557 -0.0179317
-0.09870769 0.007656259 -0.08592785 -0.048971426 -0.03967304 -0.0023759492 0.0730563 -0.015046816
0.03288468 -0.037398055 -0.024411822 -0.059346527 -0.03246561 0.07774374 -0.0933972 0.13680948
-0.07905094 0.12017147 0.09740893 -0.053174097 -0.07633128 0.081904784 0.018536268 0.0013094879
0.031140866 -0.06813858 0.105544135 0.01812521 -0.06671726 -0.0919567 0.07056095 -0.04465978
-0.024648443 0.09659108 0.1042793 0.037477773 -0.002859887 0.10402643 -0.12265044 0.029358488
0.006099112 -0.00915631 0.049534388 -0.08852622 -0.14093216 -0.1322432 0.05802723 0.046151046
0.09790556 0.07925598 -0.041318346 -0.09487891 -0.11601288 -0.089019835 -0.07304807 0.096421815
0.091413386 0.07965219 -0.06923125 0.117978424 0.06694556 0.041753795 -0.01428736 0.10502171
-0.10110827 -0.058976214 0.09956632 0.10666384 0.07156848 -0.061034136 0.017147211 -0.031163031
0.120237075 0.03698067 -0.07907869 -0.07070956 0.070244364 -0.078848615 0.05484567 -0.11617037
0.10308219 0.058051497 -0.10486452 0.09983475 -0.033419415 -0.004763955 -0.08252088 0.09133833
0.09066483 -0.10757423 0.09268557 -0.029081468 0.10762198 -0.0025293834 -0.085747845 -0.059310038
0.12056506 0.027984267 -0.09638369 -0.028200107 -0.08111671 0.047149338 -0.09158427 0.09846715
0.04835894 -0.12180343 -0.028895965 0.015414406 -0.051501907 0.090759635 0.11283276 0.0741952
0.09630921 -0.08028694 0.042466983 -0.09295358 -0.092837796 0.013486888 0.07638524 -0.08148837
0.06702 0.035083465 -0.011877757 -0.118295826 -0.11066084 0.11601904 -0.045906078 -0.112790644
0.018094728 -0.08746279 0.0920756 -0.07463434 0.10208573 -0.062808886 0.09607845 -0.005477883
0.10107686 0.07603647 -0.044496067 -0.016277412 0.009307011 0.12778501 -0.028300578 0.0027771236
0.022448728 -0.009179901 -0.102955505 -0.11499502 -0.081609026 -0.012174653 0.045347553 0.09988683
0.03030691 -0.0059478157 0.05185382 -0.021340018 -0.06612904 0.05417185 -0.07114978 0.117170215
0.07143638 0.1003957 -0.023066172 -0.06907428 -0.09138945 -0.026020678 -0.09591173 -0.036800563
-0.028601965 -0.07757361 -0.11616905 -0.11501047 -0.039160594 -0.08132235 0.03825721 0.01992527
-0.070795484 -0.015836641 -0.060006194 -0.07521559 0.07522317 -0.08922766 -0.0068694707 -0.03467519
0.09087888 -0.1254618 -0.03005804 -0.030985486 -0.08103313 0.07585475 -0.07063063 0.10264599
0.13046442 0.079718806 -0.10449696 0.0090122875 -0.10416748 -0.00439172 0.0028640584 0.058633592
0.042746697 -0.12146022 -0.007809362 0.09056928 0.06436308 -0.01953421 0.09993154 0.032639068
-0.049612265 0.020796511 0.06666519 0.0721123 0.001263383 -0.001556889 -0.033307146 -0.039292935
0.048699677 0.02970054 -0.018112069 -0.05384841 0.034061246 0.048392687 -0.09573532 -0.061269008
-0.095828824 0.0067105764 0.12774359 0.0409806 -0.04355665 -0.05090056 0.038076792 0.015629906
-0.07131161 -0.048385076 0.1237429 -0.037167236 -0.14609501 0.08994332 0.081526786 0.10403783

lstm.weight_hh_l0 f4 [256, 64]
00000000: cc63 93bd d42c adbd 5243 4bbd d43c 06be
00000010: 04ae 99bd abc2 49bd 700c f6bc fcab f5bd
00000020: 7286 4abd a450 4dbd fafd 98bd 6429 7b3d
00000030: 1140 d8bd 6a0c 763d fdd3 843c 1d81 953d
00000040: f849 a6bc 0736 88bd e11b c2bc 8f01 40bd
00000050: dd74 a93c d544 dd3d dda2 0bbe 2627 18bd
00000060: 473a ce3b b7b6 e8bc c7f5 023e 16ce da3d
00000070: 90a6 86bd 7a18 febc 6431 df3d b8ef 3bbc
00000080: b3eb ebbb 7b63 923d 03dd c1bc c8be bd3d
00000090: 3042 22bc 6f78 91bd e6c1 d5bd 2b87 9ebc
000000a0: f036 d83d a8f3 323d 5ac5 00bc ace8 aa3d
000000b0: aec7 afba a842 a1bc 7566 93bd e30d ab3d
000000c0: 3404 433d 05ea 1bbd 0eb1 083e 2b57 f1bd
000000d0: d91a fe3c 558c b4bd 98b0 60bd 6022 a63d
000000e0: d115 5fbd 5e84 00bd f086 a13b f27a 9f3d
000000f0: 53b7 943d 4667 e63d 00fd b4bd 2609 68bd
00000100: 540d c5bd f8fc c4bd 0bd2 9e3d 498d 9cbd
00000110: d4cf b6bc 13c7 323c 0143 08bd a7ce cb3c
00000120: f544 6e3d f350 383c 77ed bb3d a24a cabd
00000130: 725c 9abd adf5 4a3c 8847 c1bd a862 90bd
00000140: 92d8 8dbd 8c32 0abd 43b7 a13d b472 e53c
00000150: e1ac 253c 1a3f ae3d f224 e7bd 1dee cbbd
00000160: 0e56 a0bd fc1a ecbd c8ba 193d 8282 5bbd
00000170: 9a86 b73d 41cf 233d ed5c f93d 7caa 073e
00000180: b524 ecbd a554 c0bd 020b 94bd 337d dcbd
00000190: e4bb 623d 2192 cc3d 8307 403d c85a 193d
000001a0: a25d 9f3c 5121 8e3d 8f8e ff3d d711 613c
000001b0: 2d43 163b 8815 75bc 7465 c33d fa75 60bd
000001c0: 06ce 8bbd 640a 8e3d 1afd 21bc 59fc 84bd
000001d0: c90b a6bd b544 a23d 49a2 b2bd 6cb5 453d
000001e0: 34da 89bd 6c51 a53d 009e 8c3d 73bc e53d
000001f0: bc2d c5bd fc53 3b3d 3b5d a0bd 6117 de3d
00000200: c675 093e 1fc8 b83d 0283 fbbb fafb 513d
00000210: 6c2b b3bd 8716 843c 2f61 893b 446b a13d
00000220: 2dd3 023d dd06 f93c f99c dc3d 9637 053e
00000230: 5b59 503d f6a7 c33a 1159 c2bc 4265 81bd
00000240: 350e ab3c 666f a03d 1ac8 e3bd 9f86 10be
00000250: ee29 7b3d 6750 1f3d 5a99 20bd 4327 6ebc
00000260: 94d9 c5bc 7c89 a0bd ea6a c4bd ee6a c7bd
00000270: 3887 9ebc 7c94 32bd d874 ed3d e189 5ebd
00000280: 5062 ef3c cb85 c8bd fb84 02be 1983 8abd
00000290: 4211 ccbb 4e76 eabd b830 013e 52a5 9dbd
000002a0: 8656 c6bd 2d6f cdbd 6d27 f03d 88cc 2c3d
000002b0: 7f7a 16bd 3c6d d2bd 8a34 4c3d a3e0 643b
000002c0: 85e1 a93d e77f 8cbc 3c57 c2bd 6fee be3d
000002d0: c7eb 45bd ec83 ea3d 5b6c dd3c d921 903d
000002e0: 9a5c c4bd 4000 09bd 5d3c 63bc ca6f 5a3d
000002f0: 3122 f63b 720c 153d e0e1 033d 9f77 0c3d
00000300: 7e12 3a3d 8599 2e3d ebb3 debd c69a cebd
00000310: e8af 573d f580 b7bb 16cc 273d 172f a53d
00000320: c05c 4e3d f8e2 793d 32f2 f53d c4cd f63c
00000330: cc8e c13d 2d81 b93d 81de 5b3d aae6 283d
00000340: 1d64 74bc 2b7e a73d b36d a6bd 2271 a3bc
00000350: f7e3 6ebd 900b abbd a6d0 513c bef5 d5bd
00000360: dd5d bfbd 60ab b53d 728d 413b 5c9a 31bd
00000370: 91df 793c 7fe1 9ebd 53a8 adbd 45d3 883d
00000380: f3fd 8abd 6c87 40bd b592 e4bc 6869 07be
00000390: 56d4 623d 98d6 c83d 1684 d93d c2cd 2f3d
000003a0: 2696 0d3e 66c1 233d eb35 d83c 6f11 65bd
000003b0: 1e7a 95ba 0877 e13d 722b 23bd 63be 11be
000003c0: 0645 87bd ccee c7bd 15d2 b33d f54a 2ebd
000003d0: 5e68 033d 7142 a03d 96ff b53d c488 943c
000003e0: 5115 e4bd fc32 043d edf9 37bd 693b bbbc
000003f0: 8703 fc3c 11a1 debc c4c8 8a3d ee05 4e3d
-0.07196769 -0.08455816 -0.04962475 -0.13109142 -0.07503894 -0.049257915 -0.030035228 -0.11995694
-0.049444623 -0.050125733 -0.07470317 0.06131877 -0.10559095 0.060070433 0.016214365 0.07300017
-0.020298943 -0.0665093 -0.023694934 -0.046876486 0.020685608 0.10804144 -0.13636346 -0.03714671
0.0062935683 -0.028407438 0.12789069 0.10683839 -0.06574738 -0.03101753 0.108980924 -0.011470728
-0.0071997284 0.07147881 -0.023664957 0.09264904 -0.009903476 -0.07103049 -0.10437374 -0.019351562
0.105573535 0.0436894 -0.007859552 0.0834516 -0.001341095 -0.019685104 -0.071972765 0.08352258
0.04761143 -0.038064975 0.13348791 -0.11784204 0.031018661 -0.08815829 -0.054855913 0.08112025
-0.054464165 -0.031376235 0.004929416 0.07787122 0.07261529 0.112501666 -0.088373184 -0.05664935
-0.09621683 -0.096185625 0.07754906 -0.076441355 -0.022315897 0.010911721 -0.033267025 0.024878813
0.05817123 0.011249769 0.09176152 -0.09877516 -0.07537164 0.012387675 -0.09437472 -0.07050067
-0.06926073 -0.03373961 0.078962825 0.028008796 0.010112018 0.085081294 -0.11286344 -0.09957526
-0.07828914 -0.11528584 0.037531644 -0.05359126 0.0896122 0.039992575 0.12175927 0.13248628
-0.11530439 -0.09391145 -0.07228662 -0.10766067 0.055354968 0.099888094 0.046882164 0.03744009
0.019453827 0.06939948 0.12478363 0.0137371635 0.0022928223 -0.014958747 0.09540835 -0.05480001
-0.06826405 0.069355756 -0.009887004 -0.06493444 -0.081077166 0.07923261 -0.0872236 0.04826872
-0.06731072 0.080721706 0.068660736 0.112175845 -0.09627864 0.04573439 -0.07830282 0.10844303
0.13423833 0.09022545 -0.0076755295 0.051265694 -0.087485164 0.016124023 0.0041924934 0.078817874
0.031939674 0.03039878 0.10772128 0.13009486 0.050866466 0.0014927376 -0.02372411 -0.063181415
0.020880798 0.078337476 -0.11122151 -0.14113854 0.061319284 0.038895037 -0.039208747 -0.014535728
-0.0241516 -0.07838723 -0.09590705 -0.09737192 -0.019351587 -0.043598637 0.11594552 -0.05433071
0.029221684 -0.09791144 -0.1274604 -0.06763286 -0.006227643 -0.11448346 0.12616241 -0.07697548
-0.09684472 -0.10030971 0.1172627 0.042187244 -0.036737915 -0.10274741 0.049854793 0.0034923933
0.082949676 -0.017150832 -0.09489295 0.09322821 -0.048320558 0.11450943 0.027029207 0.07037706
-0.09587975 -0.033447504 -0.013869372 0.053329267 0.0075114 0.036388822 0.032197833 0.034293767
0.04542779 0.042626876 -0.108741604 -0.100881144 0.05265799 -0.0056000897 0.040966116 0.08065622
0.050381422 0.06100747 0.12009086 0.030127414 0.094510645 0.090578414 0.053678993 0.041235603
-0.014916447 0.081783615 -0.08126392 -0.019951407 -0.058322873 -0.08351815 0.012806093 -0.10447262
-0.09344075 0.08870578 0.002953377 -0.0433601 0.015251056 -0.07757854 -0.08479371 0.066809215
-0.06786718 -0.04700415 -0.027901987 -0.13223803 0.05537828 0.098065555 0.106208965 0.042920835
0.13826808 0.03997936 0.026392898 -0.05592483 -0.0011404192 0.110090315 -0.039836355 -0.14232783
-0.06604962 -0.09762344 0.08780304 -0.042551953 0.032081954 0.07825173 0.0888664 0.018131621
-0.11136878 0.032275185 -0.044916082 -0.022855477 0.0307634 -0.027176412 0.06776574 0.050298624

lstm.bias_ih_l0 f4 [256]
00000000: ca21 c53d da73 313d 3393 a5bd 418f 3ebd
00000010: 36c0 28bd 9fbc e93c 94e0 763d 1fa7 9a3d
00000020: 5286 ad3d 98a1 723c 9b56 4c3c f9e8 7bbd
00000030: 63e1 9e3d e02c c2bc e316 debd 7259 043e
00000040: 69af cebd ad25 b83d 61b5 bbbd 208a c3bd
00000050: 9d76 5c3d 858c eabd 64d3 c13d e77e 0bbd
00000060: 8736 a03c 09ed eeba 4697 dc3d 2567 fcbd
00000070: 592f 89bd 22b8 8e3b efbf 67bd c883 e33d
00000080: 3c46 2ebd 41fc e5bc 1139 b73d 97d2 e5bd
00000090: 786e 8cbd a78d 4abd ae23 d7bd 3c5c ba3d
000000a0: da35 e63d 3521 c93d e35d c4bd 2daa 9c3d
000000b0: 7524 4abd e514 433d fbb6 14bd ac57 92bd
000000c0: c2f2 6b3d 5a56 c93d b3f4 cf3c 87e7 b5bd
000000d0: b2f8 63bd cc22 2e3d 4ca0 c43d 44e7 eb3d
000000e0: 6db4 513c f630 5d3d 2165 a6bd 2d61 0c3b
000000f0: 7243 fb3c b917 88bd 4b8f df3d c1ca 893d
00000100: 8ef8 c8bd 153f c33d b6ec 77bd 0fa6 6ebd
00000110: 6cee 60bd 2add 80bd 216a c53d 814f d83d
00000120: 4b3e 4fbd 1502 c7bd aa3d f33d 9b10 ca3d
00000130: ce47 45bd 2ae1 993d fa5b 79bd 55ad 42bd
00000140: dd32 9f3d 873f 823c 8113 2fbd ca3c 623d
00000150: 906d 813d c3ef 883d 58bf e83d 7a84 be3d
00000160: 1ba0 dcbd 388d a6ba 45da 51bd 7c78 313d
00000170: 48a5 2bbd 224b eebc bdad 743c 38da 7cbc
00000180: 2281 cabd b1b7 fa3d 21ac 8c3d 9592 6e3b
00000190: bdf0 65bd ba6e 033e 738f 4dbd 579c 7a3d
000001a0: 4ec4 4abc 747c 46bd 202b e53c 7d1a dd3d
000001b0: d872 3bbc 64b4 d0bd cbfc d93d 319b a7bd
000001c0: 0ce7 173d d741 94bd 53b7 9bbd 24f5 db3c
000001d0: 935f c8bd 22ee 88bd 6a1c 58bd 3695 f8bd
000001e0: ed60 b1bc f7ef 2f3d 930d a0bd db0c 8cbd
000001f0: acba 57b8 ee24 853d ec94 9b3c c4e3 d2bc
00000200: 2da8 5d3d 64f9 733d f1e6 863d 07bb 91bc
00000210: a794 9cbc 547e 6abc 70cc c4bc 21ae ec3d
00000220: 007d b53d 6eac 783d 1260 d6bb 3dd2 993d
00000230: d4b8 843c 5cc6 e13d da15 643d 7daa 8ebd
00000240: d610 e7b8 8966 fbbd 766b debd 0c43 07be
00000250: 0d98 a83a 2a3e e5bd f298 f3bd e6d5 9dbd
00000260: 714e 4b3c fef9 ebbd b5fd ba3d 0b69 e23d
00000270: b441 32bc 26f2 cdbd 36c2 a5bd 56fa c43c
00000280: cb70 d8bd 8548 503d 7599 bb3c 3d54 bbbb
00000290: 8511 893c 4a86 63bd 3b1d 86bc 22ac d43d
000002a0: fb48 a83d a127 e73c fb63 e3bc d287 ec3c
000002b0: 734f 3b3d 04df b53d 6108 78bd d14b e7bd
000002c0: 381e a6bd c911 c5bc 83c1 433c 269f 973d
000002d0: e9af 063c 2353 49bd 728a a1bd 2796 91bd
000002e0: 9aff 77bd 1344 8fbc f570 eb3d 06c6 b73d
000002f0: 6c03 5bb9 27bb ff39 a301 6ebd f13c 543d
00000300: 12c3 963d 90dc a9bb 36a5 a8ba e957 f33d
00000310: 49fa 9d3d facb 12bd 972d b93c 9d9e aa3d
00000320: e098 0a3d 1fb8 7dbd 05cb 0d3e 1f1a 97bd
00000330: e228 0e3e 7d20 f43c d169 f2bc 2e65 803d
00000340: b9f8 a53d 2fac 013c 94af 043e 0f45 153b
00000350: dc7d 41bd 1010 02be c6a8 72bd 98c2 dcbc
00000360: 70cf b53d bb0a cbbd f125 443d c4cd b43d
00000370: d6c3 78bd c914 e0bd 4733 bf3d 6f5c 06bc
00000380: 8832 003d d3ff 943c d02d e03d fb02 ec3d
00000390: aa49 b13d 2801 2b3d 7b8e 903d f30a 153c
000003a0: 88d4 77bd b31d 493d 0dec 033d 90f5 013d
000003b0: 45b1 50bd 3e2f 51bd 970b b3bd 2ddb dd3d
000003c0: 3658 82bd fad7 ddbd cb72 d43c 9ebe f5bb
000003d0: c898 0abe 60db c63d ef5d c2bb dfb4 52bd
000003e0: 4af2 463c 3881 6fbd b296 dfbd 54bd f2bb
000003f0: fc75 6ebd de3e a83d af35 073e 3a04 77bd
0.096255854 0.043323375 -0.08084717 -0.046523336 -0.04119893 0.028532324 0.06027277 0.07551407
0.08472885 0.014809035 0.01247182 -0.061501477 0.07757833 -0.023703039 -0.10844209 0.12924746
-0.100920506 0.08991561 -0.09165455 -0.0954783 0.053824056 -0.11452583 0.09464148 -0.03405657
0.01955725 -0.0018228601 0.107710406 -0.12324361 -0.06698484 0.0043554464 -0.056579527 0.1110912
-0.04254745 -0.028074386 0.089464314 -0.112218075 -0.06857008 -0.049451496 -0.10504852 0.090996236
0.1124074 0.09820787 -0.0958822 0.07649646 -0.049351174 0.04762735 -0.036307316 -0.07145628
0.05760456 0.098309234 0.025385236 -0.08882051 -0.055657096 0.042513654 0.09600887 0.1151872
0.0127993645 0.05400177 -0.081247576 0.0021420226 0.030671809 -0.0664515 0.10916003 0.06728125
-0.09813033 0.09533516 -0.06052848 -0.058263835 -0.054914877 -0.06292184 0.09639383 0.10562039
-0.050596517 -0.09717194 0.11876996 0.098664485 -0.04816418 0.0751365 -0.06087873 -0.047528584
0.07773373 0.015899433 -0.04274321 0.055233754 0.063197255 0.06686356 0.11364621 0.09302612
-0.10772725 -0.0012706881 -0.05123355 0.043327793 -0.04190567 -0.02908856 0.014934001 -0.015432887
-0.098879114 0.122420676 0.068687685 0.0036403288 -0.05613779 0.12835208 -0.050185632 0.061184254
-0.012375904 -0.04845853 0.027974665 0.10796068 -0.011440955 -0.10190657 0.106439196 -0.08183897
0.037085578 -0.072391205 -0.07603326 0.02685029 -0.09783854 -0.06686045 -0.052761473 -0.12137835
-0.021652663 0.042953458 -0.07815089 -0.068383895 -5.1433846e-05 0.065011844 0.01899191 -0.025743373
0.054115463 0.05956401 0.06587017 -0.017789377 -0.019113852 -0.014312346 -0.024023265 0.1155665
0.088617325 0.060711317 -0.006542214 0.07510803 0.016201414 0.11024162 0.0556849 -0.06966112
-0.00011018074 -0.122754164 -0.1086034 -0.1320917 0.0012862697 -0.111934975 -0.118944064 -0.077068135
0.012408839 -0.115222916 0.09130422 0.110551916 -0.010879923 -0.10055952 -0.080936834 0.02404515
-0.105683886 0.05085041 0.022900322 -0.005716829 0.016731987 -0.05554799 -0.01637136 0.10384394
0.08217045 0.028217139 -0.027757635 0.028873358 0.045730066 0.088804275 -0.060554866 -0.11293758
-0.081112325 -0.024056332 0.011947992 0.07403402 0.008220651 -0.04915155 -0.078877345 -0.071087174
-0.060546495 -0.017488515 0.11496154 0.08973317 -0.00020886742 0.0004877683 -0.05810703 0.05181593
0.073614255 -0.005183764 -0.001286662 0.11882002 0.07713754 -0.03583906 0.022604747 0.08331034
0.0338372 -0.06194317 0.13846977 -0.07378029 0.13882783 0.029800648 -0.029591473 0.062692985
0.08104081 0.007914587 0.12957603 0.0022776758 -0.04723917 -0.1270144 -0.059242986 -0.026948258
0.08877456 -0.09914156 0.047887746 0.08828309 -0.06073364 -0.109414645 0.09335952 -0.008200749
0.03129819 0.018188393 0.10946238 0.11524006 0.086566284 0.04174915 0.07058426 0.009096849
-0.06050542 0.04910059 0.032207537 0.031728327 -0.050950307 -0.051070444 -0.08742445 0.1083282
-0.06364481 -0.1083221 0.025933644 -0.00749953 -0.13534844 0.09709811 -0.005931608 -0.051442023
0.012142727 -0.058472842 -0.10917415 -0.0074078236 -0.058217987 0.08215116 0.13204072 -0.060306765

lstm.bias_hh_l0 f4 [256]
00000000: 4118 47bc 7e61 613c cda7 cfbd 0a6a 963d
00000010: 187e a1bc cc1a dd3b 5345 ce3d a3d0 123c
00000020: a8f9 6bbc 7785 debd c24d 99bc 2cc6 053e
00000030: 0202 06bd 05bb 2c3d 5c17 173d 8016 233d
00000040: 803a cd3c e062 263d 1478 c1bc d30a d1bb
00000050: 0d94 14bd 677d fd3c c3a9 5e3d 2534 dcbc
00000060: d452 21bd 20e1 913c 38db 4f3d 580b 123c
00000070: 5c21 85bd f6be e9bd 320b c4bd e205 a7bd
00000080: e79c 0b3d 7d2f 07bd f528 af3d 3eab 96bd
00000090: 2a4b 283d ad3c d6bb a954 a53d 5ec9 953d
000000a0: 61d1 b93d 5045 9ebd cf58 c6bd 4006 863d
000000b0: bb41 be3d ae45 55bd 7931 c73d 2110 04bd
000000c0: 2271 f83d 85ee b5bd b7d1 dd3a 13a7 463d
000000d0: 659f 903c 4f85 c13d b957 e33d 3db0 463d
000000e0: d91e b63d 5229 91bd a95f 66bd f925 a43c
000000f0: 3c04 0bbd 70d1 ac3d 7ee4 cd3d 023f 523b
00000100: 38ea d83a 0bc5 d5bd 6ed8 09bd 39bc dfba
00000110: 9d1c ddbd 13b5 5fbd 5eff 933d 598d 2f3d
00000120: 858e 00bd 2cfe 05bd 8024 8f3d 994c 173d
00000130: 1b70 cabd c3ae 65bd 5499 95bd 2158 c43d
00000140: c183 c53d c950 8fbd 7436 283a 6d30 ccbd
00000150: 31c4 203c 7014 ca3d e792 4d3d 8d64 b73d
00000160: 820f f7bd 5d1c c9bb 3dfa b83d 5634 babd
00000170: 8045 803d 8a18 a63d 3418 c1bd 307d b1bd
00000180: e7c8 94bd 4ad2 3bbc 1df5 953d 8540 dcbd
00000190: 971e f33d 3c4f fa3c bb24 0abc d120 693d
000001a0: aa6d 85bd 562e 123d 8050 9fbd 8831 e03d
000001b0: 0100 923d 1de0 95bd b403 803d 94bc 3c3d
000001c0: 96c6 3cbd 4114 a53d 8844 a9bc 8a6f 5fbd
000001d0: 26da c7bd 5ac8 833a 643e 4d3d 3555 ccbd
000001e0: 5371 ef3d 76e0 bfbd ec59 e4bd bd75 c7bd
000001f0: 5cd8 cabd 5f0c f83d 629a 033e bf71 4dbd
00000200: acf4 043d cb86 7abd 3f33 663d 24d6 a9bd
00000210: 4856 92bd 7d5f fc3d fed4 6abc 1cb7 8d3d
00000220: 59b2 be3d 8f98 023d 14b9 f3bd 9dcf 8b3d
00000230: 2836 233d 5e3f cabd 2769 d03d c690 f93d
00000240: f592 04bd 4cfd 95bc 7627 04be df21 c53d
00000250: 2be0 103d 4c40 663d 4f89 513d 4c52 e8bc
00000260: 1f23 7f3d 5f9b e33d ee5b 6a3d fe47 e53d
00000270: 3e03 483d 0a82 32bd 2f2d d13d 22cf 133d
00000280: e023 88bb aab3 d3bd d061 b3bd 7a59 c539
00000290: e38c 57bd 667e 853d 343c 433d f3f8 8c3d
000002a0: 9de7 8e3d 19fb fe3b 2452 973a 86d0 a43d
000002b0: 1376 5abd 2db8 80bd bcc9 943c 26e1 8ebd
000002c0: 85a0 9b3d 55c8 2abd f473 eabc bfbf e43d
000002d0: edbf 0d3d a55a 623d b3d5 723d 1421 f13d
000002e0: 9a53 debd abd4 84bd ce49 b9bd 0cfb b5bd
000002f0: 7326 d13d e275 b2bd f835 ef3d 0489 fdbd
00000300: a2f6 913c 3af2 903d bd7b f13d 878d c83d
00000310: 5167 3c3d 3fd5 06bd 186c f93c b560 00bd
00000320: a8bf bf3d e512 e83c 89d6 3abd 3d87 6cbd
00000330: 729d 59bd 8b37 9a3d 3830 3b3d 7ea0 0ebd
00000340: 3afe bbbc 19e3 ad3c 9356 f93d 3de6 a73d
00000350: cec9 dfba 681a 7f3d 0471 673d 3e66 833d
00000360: 72f9 ce3c 06ba b5bd cb11 8c3d ed73 cc3d
00000370: 1ff6 bd3c 2cc2 b4bd 7d98 983d 5dd1 8d3d
00000380: 601c 4d3d ebcd b3bc f624 613d 001f 84bd
00000390: 1bbe 083e 4f5b c1bd ca65 313c 8724 a4bd
000003a0: 2428 4a3d 7f31 aebd b666 083e e4f1 d2bd
000003b0: 1a6d ff3c 5df0 d7bd b461 c23d d496 a03d
000003c0: a346 bbbd e36d 833d 6542 3ebc bdd5 7f3d
000003d0: 598d 25bd ab90 bcbd 90cb 11bd 5e7a 2d3d
000003e0: 0f07 a0bd 6669 4d3d f879 cd3d c580 76bd
000003f0: d2c7 e1bd fbc0 a7bd f188 67bd cb3b 293c
-0.012151779 0.013756154 -0.10139427 0.07344444 -0.019713446 0.006747579 0.10071816 0.008960876
-0.014402784 -0.108653 -0.018713836 0.13063878 -0.03271676 0.042170543 0.03688751 0.03981638
0.025052309 0.04062164 -0.023616828 -0.006379464 -0.036274005 0.030943586 0.054361116 -0.026880333
-0.03938563 0.017807543 0.050746173 0.008913837 -0.065005034 -0.11413376 -0.09572448 -0.08155419
0.03408518 -0.033004273 0.08552734 -0.073568806 0.041087307 -0.006537995 0.08072788 0.07313798
0.09073139 -0.07728064 -0.09684908 0.06544161 0.09289881 -0.052068405 0.09726233 -0.032241944
0.12130953 -0.088833846 0.0016923462 0.04849918 0.01765413 0.09449255 0.11100716 0.048507918
0.088926025 -0.07087959 -0.056243572 0.020037638 -0.033939585 0.084383845 0.10053347 0.0032081013
0.0016549295 -0.104379736 -0.03365367 -0.0017069645 -0.10796473 -0.054616045 0.07226442 0.04285941
-0.031385917 -0.0327131 0.06989384 0.036938284 -0.09884664 -0.05607487 -0.07304636 0.09587122
0.09644271 -0.069978304 0.00064168056 -0.09970174 0.009812401 0.098671794 0.050188925 0.089547254
-0.12063505 -0.0061374144 0.09032104 -0.090920135 0.06263256 0.08110149 -0.094284445 -0.08666456
-0.072648816 -0.011463711 0.07322142 -0.107544936 0.11871069 0.03055536 -0.008431609 0.05691606
-0.065150574 0.03568872 -0.07779026 0.10946947 0.07128907 -0.07318137 0.06250706 0.04607828
-0.046087824 0.08060504 -0.020662561 -0.05454973 -0.097584054 0.0010054216 0.05010833 -0.099771895
0.11691537 -0.093689844 -0.11149964 -0.09739254 -0.099045485 0.121117346 0.12851861 -0.050157305
0.0324599 -0.061163705 0.056201216 -0.08292797 -0.07145363 0.123229004 -0.014333008 0.06919691
0.09311361 0.031883772 -0.11900535 0.068267085 0.03984657 -0.098753676 0.10176306 0.121858165
-0.03236671 -0.018309258 -0.12905678 0.09625601 0.035370033 0.056213662 0.05115634 -0.028359555
0.062289353 0.11113619 0.057216577 0.11195372 0.048831217 -0.043581046 0.10213696 0.03608621
-0.0041546673 -0.103370026 -0.08758891 0.00037641433 -0.052624594 0.06518249 0.047664836 0.06883421
0.069777705 0.007781398 0.0011544866 0.08047585 -0.05333526 -0.06285129 0.0181626 -0.069765374
0.07598976 -0.041694958 -0.028619744 0.11169385 0.034606863 0.055262227 0.05928583 0.11773887
-0.108557895 -0.06485876 -0.0904728 -0.08885774 0.10212412 -0.087138906 0.116802156 -0.12379649
0.017817799 0.07077451 0.11791179 0.09792619 0.045996968 -0.03291821 0.03044705 -0.031342227
0.093627274 0.028329322 -0.045614753 -0.05774616 -0.053128667 0.07530125 0.04570028 -0.034821026
-0.022948373 0.021226453 0.12174716 0.08198211 -0.0017073692 0.062281042 0.056504264 0.064159855
0.02526543 -0.08873372 0.06839331 0.099830486 0.023188649 -0.08826098 0.0745096 0.069246985
0.05007589 -0.021948775 0.05496689 -0.06451225 0.1335377 -0.09441244 0.010827491 -0.080147795
0.049354687 -0.085055344 0.13320431 -0.10300043 0.031179953 -0.105438925 0.09491292 0.07841268
-0.09144332 0.064174436 -0.011612509 0.062459696 -0.040418003 -0.09207281 -0.035594523 0.042353027
-0.07813846 0.050149344 0.10033029 -0.060181398 -0.11024441 -0.08191105 -0.056527082 0.010329197

lstm.weight_ih_l0_reverse f4 [256, 8]
00000000: 264e 463d 7bac 8cbc d2f0 e439 a2ad ae3d
00000010: e1f6 123d 7a7e 033e 5228 813d 26f3 d93c
00000020: 57ac 00be 666e be3d a0f2 7ebd b585 96bc
00000030: 1f98 bcbd d304 44bd cf31 2fbc 1c4f 1c3d
00000040: 1d96 403c df32 90bd 702c cabd 4a62 fcbc
00000050: afb9 a4bd c36d b63d 8254 3b3d 842e 10bd
00000060: bd6d 1e3c 601b 083e dcbb 693d 95e7 f9bd
00000070: 7ae4 34bd ed26 7d3d e307 bcbd fac7 c63c
00000080: f4ed fcbc 2fa8 e9bd 4b58 bb3d 8cee b23d
00000090: bcd8 aeba c8c7 213d d4dd 5f3d 6f47 d93d
000000a0: 9068 933d c88d 2c3d 66e2 f13d aac9 b4bd
000000b0: dd11 51bd 7472 473d 481c d73c 3d7a 4ebc
000000c0: 33e5 4ebd b585 cdbd d83c 9bbd ea64 7b3d
000000d0: ec4c fc3c 89bf fa3c e202 78bd bd02 f6bd
000000e0: 7a7e 09bd a0ae f5bd 873b 683d 68aa a33c
000000f0: 1d47 61bd 34b2 853d b98d f3bd 5e5c 0c3d
00000100: ff16 ab3c 22b5 353d d89e 1c3d 0ecb d43d
00000110: 7c47 5fbd ce1d f03d 5c17 adbd ce09 05be
00000120: ad37 073d 9aae 093c 4af1 9abc bbe8 ef3d
00000130: 6cbc 00be f1eb f23c bf77 a8bd 890a 88bd
00000140: 1655 8d3d 939f e2bd 4526 013e 17cc a9bc
00000150: 2732 ad3d 97a0 09bb 93fe 533d b5fb 123b
00000160: c090 a23d 2f37 53bd 704d 083e 7252 913d
00000170: 1cd3 9abd d5d9 8c3c 1f53 5a3c 55dc 13be
00000180: 32e9 ef3d d520 eabb c02c cdbc d421 023d
00000190: ff2b d93d dcda 6abd 96ae 8abd 96bb 8139
000001a0: 13eb 6fbd c07f aebc e5c2 4dbd c531 3a3d
000001b0: 6b50 853d 0950 24bd 9636 173a 76e2 e43d
000001c0: 5ef1 a13d 0014 40bc 23b3 e83d 2867 05bd
000001d0: 6ca9 de3d 24ad adbd cb9d d4bd a9a6 a43d
000001e0: 1844 e63a 13a3 4abd d7aa 5bbc 90f9 3bbc
000001f0: 85c7 ed3d a529 1ebc 97a0 d1bc ad66 c03d
00000200: 250d e23d 8b23 91bc 87b6 ccbd 0f21 dbbd
00000210: b923 f4ba a1b9 74bd 2817 0ebd 75ca 35bc
00000220: e081 02be 8a31 bf3d d664 813d ba37 c03d
00000230: 3fbb babd df79 93bd 3bba 953d 2043 29bd
00000240: 5abd 913d 25da dc3d 1924 943c 6d8e 2bbc
00000250: 4986 d43b b593 be3c a2d0 b73d 6dd8 823d
00000260: 05b5 eabd 9957 28bd 99e4 94bd de50 9abd
00000270: 74a5 04be 17b5 48bd 7231 bc3d a8fd 91bd
00000280: 6f9f 87bc 199f 82bd 6067 e43d 3ff3 a23c
00000290: ce6e 0abd 7b43 7f3d 091c d73c 3582 c1bd
000002a0: f52a 973c 16a2 29bc b6e7 adbd e258 933d
000002b0: fdab 5bbd 5157 e63c 8a3d e33d d2ab 203d
000002c0: 1f64 b7bd 410d e4bd fc2f 153c 9b73 b7bb
000002d0: 4e7b 673c f0f7 7abd aa93 c73d af59 e53d
000002e0: 6322 cd3d 5d60 9dbd 2fc6 363d fa6a 413c
000002f0: 8881 d3bd 1d6f 48bd 008f 5f3c 9190 dfbd
00000300: e4a2 7dbc 3f54 7d3d 2a09 a3bc 09e1 38bd
00000310: dca8 bbbb 89bc 173e 5ca2 07bd 6181 6cbd
00000320: ab8d 0f3e 2d33 9f3d cfd7 673d 08af 833d
00000330: a65f a8bc 99ec 7e3d 94b7 5c3d 90e9 b6bc
00000340: 2c9f 3bbd 677e 013e 8939 bd3c b691 c83d
00000350: 32ab 69bd a62f 833d 1847 e33b 1264 e0bc
00000360: 6b7a d9bd e663 f23d 2d28 0c3c e725 d9bd
00000370: 71b7 d93d 8dd6 b4bd 048d 093c a3d3 ad3b
00000380: b489 51bc 6b55 56bc 45c2 76bc 7db6 9f3d
00000390: 382e eabd d2d1 6bbd c977 f43d 8a47 ecbd
000003a0: c053 8cbc af0e d93c c266 22bd 77e7 be3d
000003b0: 98d9 37bd 814f 6fbd 4d44 4f3d d7ae 02bd
000003c0: 83b3 17bb 0f47 dbbd 244f d53d 47f7 f3bc
000003d0: 80f6 e83d 0f5d e1bc 6a14 213d a296 48bd
000003e0: ee13 8d3d 6880 a9bd 89e4 6f3d 3961 fd3d
000003f0: 0d47 663d 1c22 0a3e 95d9 c73d b0f5 a0bd
0.048414372 -0.017172089 0.00043666974 0.085292116 0.035879973 0.12841216 0.063065186 0.0266052
-0.12565742 0.092984006 -0.062243104 -0.018374303 -0.09208702 -0.047856163 -0.010693028 0.038161382
0.01175454 -0.07040953 -0.09871757 -0.030808587 -0.08043229 0.08907654 0.04573489 -0.03520061
0.009669718 0.13291693 0.057063922 -0.12202374 -0.044163205 0.0618047 -0.09181192 0.024265278
-0.030875184 -0.114090316 0.091477 0.087369055 -0.0013339738 0.039497167 0.05465491 0.10609328
0.07197678 0.0421274 0.1181076 -0.08827527 -0.051042426 0.048693135 0.026258603 -0.012602386
-0.05051155 -0.10035268 -0.075799644 0.061375536 0.030798398 0.03060891 -0.060549624 -0.12012241
-0.033567883 -0.11996198 0.056697395 0.019978717 -0.05499946 0.0652813 -0.11892266 0.034267776
0.020884989 0.044362195 0.038237423 0.10390292 -0.054511532 0.11724435 -0.08451721 -0.12992021
0.03301208 0.008403445 -0.018913884 0.11714312 -0.12571877 0.029653521 -0.08225965 -0.066426344
0.069009945 -0.110655926 0.12612255 -0.0207272 0.084568314 -0.002100026 0.051756453 0.002242786
0.07937765 -0.0515663 0.1331079 0.07095803 -0.07559797 0.017193714 0.013325482 -0.14439519
0.117144 -0.007145027 -0.025045753 0.031770542 0.10604095 -0.057337627 -0.06771581 0.0002474456
-0.058573794 -0.02130115 -0.050234694 0.04545762 0.06509479 -0.04011539 0.0005768327 0.111760065
0.07907365 -0.011723518 0.113622926 -0.03256908 0.108721584 -0.084802896 -0.10381659 0.080396004
0.0017567901 -0.049471926 -0.013407431 -0.011473075 0.11610321 -0.0096534835 -0.02558927 0.09394584
0.11037663 -0.017717144 -0.09995752 -0.10699665 -0.0018626369 -0.059747342 -0.034690052 -0.011095633
-0.12744856 0.09335621 0.06318061 0.09385629 -0.091177456 -0.072009794 0.07310911 -0.04132378
0.07116194 0.10783795 0.018083619 -0.010470969 0.0064857346 0.023263792 0.089753404 0.06388936
-0.11460308 -0.041099165 -0.07270164 -0.075349554 -0.1295374 -0.049000826 0.091891184 -0.07128459
-0.016555516 -0.06378002 0.1115253 0.01989138 -0.033797078 0.062320214 0.026258485 -0.09448663
0.0184531 -0.010353586 -0.08491461 0.071946874 -0.053630818 0.028117808 0.11095722 0.03922636
-0.089546435 -0.111353405 0.009105679 -0.005598498 0.014128519 -0.061271608 0.097449616 0.111987464
0.10016324 -0.076843955 0.044622596 0.01180529 -0.103274405 -0.04893409 0.013644934 -0.10916246
-0.015480731 0.06184792 -0.01990183 -0.045136485 -0.0057269167 0.14818014 -0.033113822 -0.057740573
0.14018886 0.07773433 0.056602295 0.06429869 -0.020553421 0.062237356 0.05388601 -0.022328168
-0.045806095 0.12645875 0.023098724 0.09793417 -0.05704803 0.064055726 0.0069359653 -0.027391467
-0.106190525 0.1183546 0.0085545005 -0.106029324 0.10630692 -0.08829985 0.008395437 0.00530477
-0.012789179 -0.013081889 -0.015060966 0.07798479 -0.11434597 -0.057573147 0.1193691 -0.115370825
-0.017129779 0.02649626 -0.03964878 0.09321492 -0.044885248 -0.05842543 0.050602246 -0.03190502
-0.0023147769 -0.10706913 0.104154855 -0.029780997 0.11375141 -0.027510194 0.03932611 -0.04897178
0.06888567 -0.08276445 0.058567557 0.123720594 0.056220103 0.13489574 0.09758297 -0.07859361

lstm.weight_hh_l0_reverse f4 [256, 64]
00000000: 2ec9 fb3c 0e4f 27bd 17be df3d c0af 823d
00000010: e5d8 333d 7872 a6bd 05df bfbd c6f7 0c3e
00000020: b0db eb3d b57a c3bc 8467 df3d 9257 aa3d
00000030: dfd5 d6bd 5be4 b5bd 4e9e dbbc 645f a4bd
00000040: b7fa 15bd 778e bd3c 840a c2bd 2cd5 ff3c
00000050: 313b ec3d e84c e2bb eb0d f3bd 02e5 66bd
00000060: cea5 103d 4c4e d0bb 7366 523d 602c a5bd
00000070: b570 55bd 63b6 f5bc 29b3 363d 3385 c83c
00000080: 33a0 2abd 9aa4 363d 0483 103d 2a47 b33d
00000090: 3e7d 213d 926c 73bd ee09 013e 45c2 9b3c
000000a0: 064b 0dbd 0690 cc3d a95f f83d df91 093d
000000b0: e995 593d 6ec7 22bd e373 11bd 586c 0d3d
000000c0: 282d bcbd db08 f9bc 2760 ff3d 0089 193d
000000d0: fdda 73bd e2a7 663d 0346 c4bd d790 f7bd
000000e0: a6c8 88bd 49a7 92bd 1d10 dbbd 71c5 acbd
000000f0: 1a5a d53d ba03 7e3d 8c4a a0bb 0efd 8bbd
00000100: 3a4a 5c3d bd8b 9b3d 717d 5e3d ad94 ccbb
00000110: b3f2 25bd 124b c6bd c458 8c3d 3c00 23bd
00000120: 8f9e 98bd fa31 d53d 7a5f a9bc 31ff 0a3d
00000130: 86fc 383d 1f8f 76bc 5027 d83c d169 b7bd
00000140: bb9d 82bd cf00 8c3d fe82 9a3c 4d89 f7bd
00000150: 5ed8 e6bd 5184 89bd c2b7 d0bc cf67 da3c
00000160: 6e10 8e3c 01df b7bd 8573 943d ec1b c83d
00000170: 9cb5 49bd 31b8 da3d cd82 1bbc d768 0c3d
00000180: f89e 8fbd ea7d d9bb 71b3 b63c 8354 98bc
00000190: 27d4 353d 6965 93bb 1f5d fbbd 9f93 cf3d
000001a0: 6970 a03d bcef b1bd bf92 523c b3c9 693d
000001b0: 0107 9aba a355 473d 14b7 45bd 31ef d9bd
000001c0: 1324 7e3d 260e 313d 5ce3 d6bd 453e b93c
000001d0: cc83 873d bdd0 7ebd f8db 02bd ca53 bdbd
000001e0: 5dbd 8bbd 774a 7a3d 40df 81bc fac3 5e3d
000001f0: d125 2c3b 123a b1b9 b7e9 53bc b0bd 9f3d
00000200: 9c02 a9bd 1d26 9fbd 5216 873d 1917 703d
00000210: e11d 0d3d aea4 f0bd 13e1 4fbd 90f0 ddbc
00000220: 8591 c0ba f0a7 4c3d 2f1f 91bd 8431 713d
00000230: dc01 c8bd 189e 553d 894a 9a3d ab1f eb3c
00000240: 5386 363c 7a67 b13d c136 913d d125 193d
00000250: 4363 20bd 6e6b a8bb 43f9 f53d 9e56 4dbd
00000260: 3e64 e93d 2dcb 593d 7e10 babd 55cc 93bd
00000270: 6e00 083d 53f1 063d 1a37 933c 4434 be3d
00000280: e5ce 583d edbc 72bd afb0 2cbd c5e5 593d
00000290: b553 a93c 4676 25bd 2a65 dcbc b274 063d
000002a0: ceba 953d 73c2 85bd 052f e0bd 33d2 e1bd
000002b0: d6bb fa3d ded8 0e3e 5db4 75bc d681 b33c
000002c0: e59f bc3d 0338 4abb 601d 9bbd 7d4a 5f3d
000002d0: 7c52 9bbc ca21 443a d1db de3d 29af 46bd
000002e0: 1124 d13d 534e 923b 7538 05bd 9757 c5bd
000002f0: 0648 0fbe bf39 febc 1e85 bcbd c2bc c6bd
00000300: f299 3a3c 1ff8 66bd ec2c 593d 5ec0 083c
00000310: b090 9c3d 0e36 5ebd 883a b03d 8564 b7bc
00000320: 098e 0b3e 66e9 87bc 90b0 983d 1068 193a
00000330: 319c af3c 0aca 5e3d acc4 ae3d 2193 f03c
00000340: e69c a5bd 536b 133b 7c42 e53c 752a b53d
00000350: b747 69bd 50be e8bc 1969 1fbd 3ee7 3c3d
00000360: 7429 b5bd 0d70 b3bd 5ccf 69bd 8b4d b93c
00000370: 88c4 66bd f1d0 b43c 6fc1 e1bd f99a 9ebd
00000380: d279 d03d ff48 963c 59ee 09be 3480 acbd
00000390: 867c 43bd 4e71 e2bd 30e1 92bd 1475 05bd
000003a0: 2d04 80bd 6d51 00be 3751 843d 788a 8a3c
000003b0: cae5 e6bb c15f 4e3d cc4d 7b3d 363c 723d
000003c0: e18b 66bc 5654 003e f00a bbbd fecb 9f3d
000003d0: 42ce e43b f13d f23d 8839 033d 974b ef3d
000003e0: 8400 1bbb ae7c b73d 99d6 f4bc e63a 213d
000003f0: 0ebc 583d 5052 9abd fbfd 043e 5b3c 5ebd
0.030735578 -0.040846877 0.10924929 0.06381178 0.04390802 -0.08127302 -0.093687095 0.13766393
0.115165114 -0.023862222 0.10908416 0.08317484 -0.104900114 -0.08881446 -0.026808884 -0.08026007
-0.036616053 0.023139222 -0.09474662 0.031229578 0.11534727 -0.0069061406 -0.11867889 -0.056370743
0.035314374 -0.00635699 0.051367234 -0.080651045 -0.05210944 -0.029994195 0.044604454 0.024477577
-0.041656684 0.04459057 0.035281196 0.08753808 0.03942608 -0.059429713 0.12601444 0.019013533
-0.034495376 0.09988408 0.12127621 0.03358638 0.05312148 -0.039740972 -0.03551091 0.034527153
-0.091883 -0.03039973 0.124695115 0.03748417 -0.059535015 0.05631245 -0.09583666 -0.12088173
-0.06678896 -0.07160813 -0.10696433 -0.084360965 0.10417576 0.062015273 -0.004891699 -0.06835376
0.053781725 0.07595012 0.05431885 -0.0062433095 -0.04051466 -0.09682287 0.06852868 -0.039795145
-0.07452118 0.10409923 -0.02067541 0.033934776 0.0451627 -0.015048771 0.026385933 -0.0895573
-0.06377741 0.06836092 0.01886129 -0.12086735 -0.112717375 -0.067146905 -0.025478248 0.026660828
0.017341819 -0.089780815 0.07248596 0.09770951 -0.04924546 0.10679663 -0.009491635 0.03427967
-0.07012743 -0.0066373246 0.022302361 -0.018594986 0.044391777 -0.004498173 -0.12273621 0.10135578
0.078339405 -0.08688304 0.01285237 0.05707712 -0.0011751355 0.048665654 -0.0482703 -0.10641325
0.06204612 0.043226384 -0.10492584 0.0226127 0.06616935 -0.062210787 -0.03194806 -0.09244497
-0.068232276 0.06110617 -0.015853524 0.054386117 0.0026267658 -0.00033803337 -0.01293414 0.07799852
-0.08252451 -0.077709414 0.06596054 0.058615778 0.034452323 -0.1175016 -0.050751757 -0.027092248
-0.0014691806 0.049964845 -0.07086026 0.058885112 -0.0976598 0.052152723 0.07533748 0.028701624
0.011140424 0.08662315 0.070905216 0.03738958 -0.039157163 -0.0051397597 0.120104335 -0.050131433
0.11396073 0.05317228 -0.09085177 -0.072167076 0.033203535 0.03294499 0.01797061 0.092873126
0.052931685 -0.059262205 -0.042160686 0.05319764 0.020669797 -0.040395997 -0.026903708 0.032826133
0.07311021 -0.06531229 -0.10946468 -0.110264204 0.12242858 0.13949916 -0.014996615 0.021912497
0.09210185 -0.003085614 -0.07573962 0.054514397 -0.01896023 0.00074818416 0.108817704 -0.04850689
0.10211957 0.0044649034 -0.032524545 -0.09635847 -0.13992319 -0.031033395 -0.092050776 -0.097039714
0.0113892425 -0.05638897 0.053021356 0.008346645 0.076447845 -0.05425077 0.08604914 -0.022386799
0.13628401 -0.016590785 0.074555516 0.00058519933 0.021436783 0.0543919 0.08533606 0.029367032
-0.080865666 0.002249439 0.027985804 0.08845989 -0.05695316 -0.02841106 -0.03891859 0.046118967
-0.08845797 -0.08761606 -0.05708252 0.022619983 -0.05633977 0.022072287 -0.11023223 -0.077444024
0.101794854 0.018345354 -0.13469829 -0.0842289 -0.047726177 -0.110567674 -0.07171857 -0.032582358
-0.062507965 -0.12531061 0.06460803 0.01691173 -0.007046436 0.050384287 0.06135349 0.059139453
-0.014071436 0.12532172 -0.091329455 0.0780258 0.0069825957 0.11828221 0.032037288 0.116843395
-0.002365143 0.08959328 -0.029887484 0.03936281 0.052913718 -0.07535231 0.12987511 -0.05425678

lstm.bias_ih_l0_reverse f4 [256]
00000000: 5170 cb3c a52f 16bd 4c53 ac3d efa3 f33d
00000010: c775 1fbd a277 403c 9919 ce3d 01e1 883d
00000020: 7776 b5bd 1666 823c f5e4 ccbd 23f7 ea3d
00000030: 0599 883d 5a3e 963d 5e6e c8ba a4e1 b2bc
00000040: 3efd 9b3c 8013 b43c 0006 5fbd 0a86 a2bd
00000050: bfca 9abd bf54 87bc 8ef0 ccbd a160 c2bd
00000060: c33e 8f3d 493d b0bc 4515 063e 0d17 d5bd
00000070: f42a 6b3d 83a9 b4bd 349c f53d 8012 9cbd
00000080: f08d aa3d 7c4f bcbc 6e2e afbd 9a04 9abd
00000090: 5271 6dbc a34a 4ebc b178 ac3d d9c8 0b3c
000000a0: 769a d63b ba48 62bc 207d 9d3d 8ebd 9cbd
000000b0: c869 b6bd 9779 a0bd 5757 34bd 0493 32bd
000000c0: efde 933c 6433 f4bd 9f5f 5e3d 52ae be3d
000000d0: bfff 053d 18ee 96bd 6901 933c 21cf 8abc
000000e0: f805 043e 5006 0d3e 8d37 743d 4b28 003e
000000f0: 2b53 bebd 31ad a6bd 4297 8f3d e066 a4bd
00000100: 44ab 933d 9c26 493c 3b81 993d bc0c bfbd
00000110: 1287 d53b bab1 da3a 9208 01bc 2b5c cc3d
00000120: 4168 0abd 1688 203d 400e a73d 133d bebd
00000130: 36c5 11bc aebc 8fbd 0376 743d 23e0 9dbd
00000140: 7539 d6bc e834 a6bd 6300 bbbd fdbe 98bd
00000150: d7ae ae3d f6c9 94bd f1f2 8dbd a2bf fbbc
00000160: e250 ffbc 3a60 b8bd 5563 633d 5266 a63d
00000170: 2b7c 823d 4f17 d03d c2c8 dfbb 88a4 243c
00000180: e493 313d f942 bdbc 95e0 95bd 8d15 673d
00000190: a148 1abc f05a a53d 399a c1bc f773 27bd
000001a0: f353 143d e3d1 a7bd 18d6 a53d df20 5dbd
000001b0: 0b8c f4bd aa7d ad3d bfb1 583d bb3c fa3d
000001c0: 30ee 70ba a6b7 97bd 334f e2bd 8352 bfbb
000001d0: 94e4 123d 21d3 b1bd 680b 6cbd 240d 9dbd
000001e0: ad3a 30bd 2159 24bd 4cd3 523d 892d 083e
000001f0: 6ac5 953c cab1 1e3d 212b d63d f53e e9bd
00000200: 839f 903d 69d4 b63d 8f64 f4ba 8b46 d7bd
00000210: 8d11 3ebb 4c31 a93d d831 00be 1fe0 4dbd
00000220: 1547 ddbd 487f d23d b057 f7bd 0cd9 df3d
00000230: dab4 e4bd 3976 a43d c93c 39bd 6f28 edbd
00000240: a1fd 94bc c34e edbd 73c7 f2bd a436 953b
00000250: e54f 4ebc 7105 963b 35cf d03d e2ff d33d
00000260: bc07 d73d 09ee 9d3d 71e7 e9bc fccb 7e3d
00000270: d1eb c5bc 3c3c d43d 7923 42bd ea42 8abd
00000280: 518d fb3d 1ebc b93b 0d65 ddbd d62b 893b
00000290: 4f38 aebd ff72 5c3b 640e 80b9 57eb b4bd
000002a0: bb2e 90bd 45d8 8a3d d6fa b3bd 513e 90bd
000002b0: 190b 763d 6fa0 aa3d 4e4a cabd 9e0d f0bd
000002c0: 4061 91bd a95f a6bd 34b3 c33d b162 1d3d
000002d0: 047e 523d 2629 e23d 16cd d33d 5361 da3d
000002e0: 70b3 57bd 924d cdbd 9043 d6bd bf5c 2ebd
000002f0: 3a12 27bd d9b9 3bbd 46c8 153c f30f fa3d
00000300: 36c5 3b3c c0ee d83d 4950 9b3d 99a3 81bd
00000310: 7a0d a0bd b69c 723c b18a d53d d24e 39bd
00000320: 3196 7bbd 4fc1 8b3d 414a a63b bb41 8a3d
00000330: 46d9 f1bd e194 f03c bc3c c7bd 24b8 7dbd
00000340: 0c89 f43d da17 ed3d 839d acbd fed7 913d
00000350: 45c7 34bd 1cc4 6a3d ada8 47bc 060a 11bd
00000360: c5ad dbbd c779 bfbb ee1f c6bc c9e1 53bd
00000370: fb22 cf3d 77d8 1ebd 4192 c1bd fc58 c6bd
00000380: 7f3d fb3d de17 e73d 26e3 8a3d 55e5 4e3a
00000390: 97de fd3d 8beb 353d da89 e23d e3cc 3c3d
000003a0: b7c8 77b9 30f7 f43d f9ec bbbd b7f3 c2bc
000003b0: 2768 fe3d 3204 4fbd 46e1 b73d 365b a0bd
000003c0: 4de2 44bd ad86 95bd def6 533d 17e4 9abd
000003d0: b85b 023c 1d3c 043e d12a 8dbb 72e8 bfbd
000003e0: 11c9 d53d ff66 043e 6adb 09bd ed07 b8bd
000003f0: ac7a 7cbb 17b9 d13c 08b4 8abd 6b3f a13d
0.02483383 -0.03666653 0.08414325 0.11896502 -0.03893068 0.011747273 0.10063476 0.06683541
-0.08860486 0.015917819 -0.100046076 0.11472919 0.06669811 0.07336111 -0.0015291681 -0.02183611
0.019041654 0.021981955 -0.05444908 -0.07935722 -0.07558202 -0.016519902 -0.1000682 -0.09491087
0.06994393 -0.021513598 0.13094051 -0.10404787 0.05741401 -0.08821394 0.11992684 -0.07620716
0.08327854 -0.02298712 -0.08553778 -0.07520409 -0.01449235 -0.012591037 0.084214576 0.0085317725
0.006549175 -0.013811285 0.07689881 -0.07653342 -0.08906895 -0.078356914 -0.044028606 -0.043597236
0.018050639 -0.119238645 0.05429041 0.09310593 0.0327146 -0.073696315 0.017945008 -0.01694447
0.12892902 0.1377194 0.05962329 0.1251537 -0.09293207 -0.081385024 0.07011272 -0.08027434
0.07210401 0.012277272 0.07495352 -0.09328601 0.006516346 0.0016685047 -0.0078755785 0.09978517
-0.03379083 0.03919228 0.08157015 -0.09288993 -0.008897116 -0.0701841 0.059682857 -0.07708766
-0.026150445 -0.0811556 -0.09130933 -0.07458303 0.08529442 -0.072650835 -0.06931103 -0.030731026
-0.031166498 -0.09002729 0.055514652 0.08124985 0.063713394 0.10160696 -0.006829352 0.010048993
0.04335393 -0.023103224 -0.07318226 0.056417037 -0.00941673 0.080739856 -0.02363311 -0.040882077
0.036212873 -0.081943296 0.08097476 -0.053986426 -0.119407736 0.08471234 0.052903887 0.12218615
-0.0009190766 -0.07408075 -0.11050262 -0.0058386936 0.03586252 -0.08682848 -0.057628065 -0.07668522
-0.043024708 -0.040124062 0.05147104 0.1329862 0.01828261 0.03874377 0.10457445 -0.11388961
0.070616744 0.08927233 -0.0018645691 -0.10511502 -0.002900216 0.08261356 -0.12519014 -0.050262567
-0.108045734 0.10278183 -0.12077272 0.1093007 -0.11167307 0.08030362 -0.045223985 -0.11579978
-0.018187346 -0.11587288 -0.11854448 0.004553633 -0.0125922905 0.0045782854 0.101957716 0.1035154
0.10499522 0.07711417 -0.028552743 0.062206253 -0.024160298 0.10363051 -0.04739711 -0.06751044
0.12282813 0.0056681773 -0.108102895 0.004186134 -0.08506834 0.003363788 -0.00024424784 -0.0883395
-0.07040163 0.067795314 -0.087880775 -0.07043136 0.060069177 0.083313815 -0.09877454 -0.11721347
-0.07098627 -0.081237145 0.09555665 0.038424198 0.05138971 0.11043005 0.103418514 0.10663094
-0.05266136 -0.10024561 -0.10462105 -0.04256892 -0.040788867 -0.045831535 0.009141987 0.12210073
0.011460593 0.10592413 0.075836726 -0.06330032 -0.078150705 0.014807871 0.10426844 -0.045241185
-0.06142253 0.0682398 0.0050747697 0.06750818 -0.1180902 0.029367866 -0.09728381 -0.06194319
0.11940202 0.11576815 -0.084284805 0.07121275 -0.04413535 0.05731593 -0.0121862115 -0.03540995
-0.10726503 -0.0058433744 -0.024185147 -0.051728997 0.10114094 -0.038780656 -0.09451724 -0.09684941
0.12267589 0.11283849 0.067816064 0.00078924495 0.12395971 0.044414084 0.11061449 0.046093833
-0.00023630528 0.1196121 -0.09176058 -0.023797853 0.12422209 -0.05054111 0.089785144 -0.07829897
-0.04806738 -0.07301078 0.051749103 -0.07563036 0.007956438 0.12913556 -0.0043080826 -0.09370507
0.10438741 0.12929915 -0.033656515 -0.08985887 -0.0038525267 0.025600953 -0.067726195 0.07873424
