AAPL_movement_model.pth (torch, 61399 bytes, 11 tensors)

lstm.weight_ih_l0 f4 [128, 6]
0	0x3d8d1f84	0.06890777
1	0x3d2262ec	0.03964512
2	0x3de33d88	0.110957205
3	0x3dc92415	0.09821335
4	0x3dc07115	0.09396569
5	0x3e63a5e1	0.22231247
6	0xbe173a85	-0.14768417
7	0x3e244958	0.16043603
8	0x3d1b24fa	0.03787706
9	0x3d1fb319	0.03898916
10	0x3ddd00c8	0.10791165
11	0x3e0fb1ee	0.14032719
12	0x3e065708	0.13119137
13	0x3c76a3e3	0.015053722
14	0x3e364d3c	0.178029
15	0x3e1821f9	0.1485671
16	0xbd60e779	-0.05490825
17	0xbdb2775e	-0.08714174
18	0xbbb8432e	-0.005623243
19	0xbdbe4f72	-0.09292497
20	0x3cf0d9af	0.029400675
21	0x3e131c92	0.14366367
22	0x3e68e6d0	0.22744298
23	0x3dd5333e	0.10410164
24	0xbe3fa56a	-0.18715444
25	0xbd54d897	-0.05196437
26	0xbd188e0e	-0.03724485
27	0xbdde7d5a	-0.10863753
28	0x3c5254c9	0.012837597
29	0x3cb940af	0.022613851
30	0xbda55ade	-0.08073972
31	0x3e0e2ee7	0.1388508
32	0x3d974ede	0.073880896
33	0x3c547c60	0.012969106
34	0xbd4e0120	-0.05029404
35	0x3d9eca45	0.077534236
36	0x3ea3b175	0.31971326
37	0x3e20c44f	0.15699886
38	0xbdbdca08	-0.0926705
39	0x3e0a410b	0.13501374
40	0xbc922db7	-0.017844064
41	0x3e1bc0a6	0.15210208
42	0xbd904909	-0.0704518
43	0x3caa1c8a	0.020765562
44	0x3d699e10	0.057035506
45	0xbd9b590c	-0.07585344
46	0x3e450373	0.19239597
47	0xbe5afc5c	-0.2138533
48	0x3e58c5eb	0.2116925
49	0xbe17f09a	-0.14837876
50	0x3cab34a1	0.020899119
51	0x3e28de2c	0.16491002
52	0x3dc28270	0.09497535
53	0xbe1ced4a	-0.15324894
54	0x3e82dae6	0.2555763
55	0x3e4addce	0.19811174
56	0xbdf3cd67	-0.11904412
57	0x3d2cba65	0.042169947
58	0x3cfa142b	0.030527195
59	0xbd299c74	-0.04140897
60	0x3d8a0cf0	0.06740749
61	0x3da4ca15	0.080463566
62	0x3c9e6afb	0.019338122
63	0x3ca4123e	0.02002823
64	0xbe35bb9a	-0.17747346
65	0x3e026ab0	0.1273601
66	0x3e8e03b7	0.2773721
67	0xbe055f15	-0.13024552
68	0x3bfa3b24	0.0076364446
69	0x3e0c2d8a	0.13689247
70	0xbd693a35	-0.056940276
71	0xbd21fcc9	-0.039547715
72	0xbde00198	-0.10937804
73	0x3dfe428c	0.124150366
74	0x3d099a62	0.033594497
75	0x3e47ce23	0.19512229
76	0xbe0d87f4	-0.13821393
77	0x3e32749d	0.17427297
78	0x3e8b13eb	0.27163634
79	0x3e7a3ea8	0.24437964
80	0x3d8c3e61	0.06847835
81	0x3e8bf091	0.27331975
82	0x3d9b2f0f	0.07577335
83	0xbcde0fea	-0.027107198
84	0x3e0ef953	0.13962297
85	0xbdbad6f0	-0.09123027
86	0x3d190c70	0.037365377
87	0x3e1c5c03	0.15269475
88	0x3c77d912	0.015127437
89	0xbe5128aa	-0.20425668
90	0x3e176dfb	0.14788048
91	0xbd94a1ed	-0.072574474
92	0x3e24918d	0.16071148
93	0x3e22986b	0.15878455
94	0x3d83630d	0.06415377
95	0x3c87f2b1	0.016595216
96	0x3e23ce24	0.15996605
97	0x3e0f1a4e	0.13974878
98	0x3daff15f	0.0859096
99	0xbd778f65	-0.060439486
100	0xbe73bc58	-0.23802316
101	0xbe1f085b	-0.15530531
102	0x3c0b81ed	0.008514863
103	0x3dfe310f	0.12411701
104	0x3e4220ba	0.18957797
105	0x3e24a29e	0.16077659
106	0x3bec3716	0.007208715
107	0x3c0da899	0.008646154
108	0x3d256839	0.040382598
109	0x3e7e32c5	0.24824055
110	0x3dd9e05c	0.10638496
111	0x3e098edf	0.13433407
112	0x3b1244b0	0.0022318773
113	0x3d61c257	0.055116978
114	0x3e77e77f	0.24209403
115	0xbd005d94	-0.031339243
116	0xbcf83cbb	-0.030302396
117	0x3e2d3f8e	0.16918775
118	0xbced9c3c	-0.029005162
119	0x3d61031f	0.054934617
120	0x3d416d86	0.04722359
121	0x3e028748	0.12746918
122	0x3dcad445	0.099037685
123	0x3e5403f4	0.20704633
124	0xbd2712c4	-0.04078938
125	0xbada4c5a	-0.0016654835
126	0xbe6eb265	-0.2331024
127	0x3dac2957	0.084063224
128	0xbe8615d1	-0.2618852
129	0x3d8677a9	0.06565792
130	0x3a0f3be9	0.00054639444
131	0x3dbe076c	0.09278759
132	0xbb5ef4a4	-0.003402033
133	0xbccc86df	-0.024966655
134	0x3e208048	0.15673935
135	0x3de20604	0.11036304
136	0x3e2f07ae	0.17092773
137	0xbe516615	-0.20449097
138	0xbd2522ed	-0.04031651
139	0x3e080193	0.1328185
140	0x3dbb4788	0.09144503
141	0x3da57fac	0.08080992
142	0xbdbb33af	-0.09140717
143	0x3e0a96d4	0.13534099
144	0xbde63752	-0.1124102
145	0xbcf4fd99	-0.029906081
146	0xbdb285de	-0.087169394
147	0x3dd0c552	0.10193886
148	0xbe549799	-0.20760955
149	0x3e4f567a	0.20247832
150	0x3d5c1772	0.053733297
151	0x3e2ab64a	0.166711
152	0xbdf0b7c3	-0.117538
153	0x3e70575b	0.23470823
154	0x3d488108	0.04895118
155	0xbe0ec4f1	-0.13942315
156	0x3d7bd632	0.06148357
157	0x3c3b3527	0.011426247
158	0x3e12fe34	0.14354783
159	0x3e21e33f	0.15809344
160	0xbd9da4de	-0.076974615
161	0x3dbe759f	0.09299778
162	0x3e777d6e	0.24168941
163	0x3dc6b184	0.09701827
164	0x3d63144b	0.055439275
165	0x3db4030e	0.08789645
166	0xbc5cb0d9	-0.013469898
167	0x3e249c4b	0.16075246
168	0x3e46288d	0.19351406
169	0xbd1aee1a	-0.037824728
170	0xbdf20e39	-0.11819119
171	0x3e10234c	0.14075965
172	0xbc078c9b	-0.008273269
173	0xbde9aa94	-0.11409488
174	0x3df997f2	0.121871844
175	0xbd36d328	-0.044634968
176	0x3ddc7f62	0.10766484
177	0x3e6db0e1	0.23212005
178	0x3e4b5d86	0.19859895
179	0xbe742bee	-0.23844883
180	0x3e95e4ee	0.29276222
181	0x3b691984	0.0035568187
182	0x3e3dc914	0.18533736
183	0x3df9cd9b	0.12197419
184	0x3e66efc8	0.22552407
185	0x3daac6bb	0.08338686
186	0x3e3f9769	0.18710102
187	0xbcc6c624	-0.024264403
188	0x3ddc4805	0.10755924
189	0x3d7b2f75	0.061324555
190	0x3d930cb8	0.0718016
191	0xbe1081f0	-0.14112067
192	0x3ea325bc	0.31864727
193	0x3da53383	0.08066466
194	0xbd7aa744	-0.061194673
195	0x3e519e78	0.20470607
196	0x3c54fa62	0.012999149
197	0xbdc5ca61	-0.09657741
198	0xbdcc1d32	-0.09966506
199	0x3e2eafbf	0.1705923
200	0xbe008f60	-0.12554693
201	0xbda7dc9a	-0.08196373
202	0xbe168fb6	-0.14703259
203	0x3e248f3f	0.16070269
204	0xbe28d767	-0.1648842
205	0xbcf6a496	-0.030107778
206	0xbe03d122	-0.12872747
207	0xbd2114cb	-0.03932647
208	0xbd0d1d46	-0.034451745
209	0x3df97015	0.12179581
210	0x3e339ccd	0.17540284
211	0x3e89d0e2	0.26917177
212	0xbdedeb6e	-0.1161717
213	0x3dcd1af0	0.100149035
214	0xbde10a0b	-0.10988244
215	0x3d21e8f1	0.03952879
216	0xbd48913d	-0.048966635
217	0x3b6fcd06	0.003659071
218	0xbe2bede7	-0.16789971
219	0x3d0268cb	0.03183822
220	0xbcea871d	-0.02862888
221	0x3c52d118	0.012867235
222	0xbc3c181e	-0.011480359
223	0x3e083360	0.13300848
224	0x3b8da910	0.0043231323
225	0x3da9c582	0.08289625
226	0x3cdb13be	0.026742812
227	0xbda9d0fb	-0.08291813
228	0x3d8863c0	0.06659651
229	0x3cc75926	0.024334501
230	0x3d96f846	0.07371573
231	0x3e57a21c	0.21057934
232	0xbe80f5e1	-0.2518759
233	0x3e166f50	0.146909
234	0xbd9b7879	-0.07591338
235	0xbb81bf6e	-0.003959588
236	0x3d9a1083	0.075226806
237	0x3dd90e41	0.10598422
238	0x3b564dbe	0.0032700147
239	0x3e6ddd78	0.23229015
240	0x3ea71722	0.32634836
241	0x3dfdc191	0.123904355
242	0x3de2bdbb	0.110713445
243	0xbd2d94dd	-0.042378295
244	0x3dc32aae	0.09529625
245	0xbe698125	-0.22803171
246	0xb936c4e0	-0.00017430214
247	0x3e4377d7	0.19088684
248	0x3d973e59	0.07384939
249	0x3e46d05b	0.19415419
250	0xbdbc8d54	-0.09206644
251	0xbc640b6e	-0.013918741
252	0x3db4b944	0.08824399
253	0xbbcb1e5b	-0.006198687
254	0x3d4f8716	0.050665937
255	0x3e0a53e3	0.13508563

lstm.weight_hh_l0 f4 [128, 32]
0	0x3bb412ee	0.0054954207
1	0x3d7b9f17	0.061431017
2	0x3b3eae78	0.002909569
3	0x3e268850	0.16262937
4	0x3d8860d3	0.06659093
5	0x3d1145ac	0.035466835
6	0xbcec1105	-0.02881671
7	0xbe925397	-0.285794
8	0x3da6cb50	0.081442475
9	0xbdd03cf3	-0.10167875
10	0x3e1f1380	0.15534782
11	0x3de2b83f	0.110702984
12	0x3bf22078	0.0073891245
13	0x3c9ee5cf	0.01939669
14	0xbce7893b	-0.028263679
15	0xbd1b983f	-0.03798699
16	0xbd9311c6	-0.071811244
17	0x3d33b028	0.043869168
18	0xbd9b596b	-0.075854145
19	0x3c5634de	0.013074128
20	0x3d4862ee	0.04892247
21	0x3daffdd5	0.085933365
22	0x3e001d41	0.1251116
23	0x3cdb7d4a	0.02679314
24	0x3e186e90	0.14885926
25	0x3e599c34	0.21250993
26	0xbdce11b9	-0.10061974
27	0xbd4f8456	-0.050663315
28	0xbd061baf	-0.032741245
29	0x3d109121	0.035294656
30	0x3e025d58	0.1273092
31	0x3d217c1a	0.039424993
32	0xbd588547	-0.05286148
33	0x3d4a4d7f	0.049390312
34	0xbd43cf85	-0.047805328
35	0x3b656704	0.003500403
36	0xbdaae53c	-0.08344504
37	0x3e264765	0.16238172
38	0x3d252066	0.0403141
39	0x3dccc30b	0.09998139
40	0x3df9d8c9	0.121995516
41	0xbe2abc7f	-0.16673468
42	0x3e3ca428	0.18421996
43	0x3ddb8d34	0.10720292
44	0xbdb1a54d	-0.08674107
45	0x3dcbe892	0.09956469
46	0x3dfa1ef3	0.12212934
47	0xbdd564c8	-0.10419613
48	0xbe411623	-0.188561
49	0xbe14c26b	-0.1452729
50	0xbdef7d3c	-0.116938084
51	0xbc2a30f5	-0.010387649
52	0xbdf62b1a	-0.1201994
53	0x3e32d813	0.17465238
54	0x3def4d10	0.116846204
55	0x3dd74051	0.10510314
56	0x3c9b9141	0.01899016
57	0xbc993b80	-0.01870513
58	0xbe664d45	-0.22490413
59	0xbd3af0eb	-0.045639914
60	0xbd42048e	-0.047367625
61	0x3b3ae776	0.002851931
62	0x3d9e47f2	0.07728566
63	0xbdf02837	-0.117264204
64	0xbdf82856	-0.121170685
65	0xbcc66f3e	-0.024222966
66	0x3ce12929	0.027485447
67	0x3d2ff2a8	0.042956024
68	0xbe016d8d	-0.12639447
69	0x3d514cfa	0.0510988
70	0x3e4c86fb	0.19973366
71	0xbdb2fa50	-0.087391496
72	0x3e3d1c1b	0.18467753
73	0xbce5b036	-0.028038125
74	0x3dec3819	0.11534137
75	0x3dd13f4a	0.102171496
76	0xbe15b78a	-0.14620796
77	0x3e30151b	0.17195551
78	0x3dd5e058	0.10443181
79	0xbcd69440	-0.026193738
80	0xbdf84d3a	-0.12124105
81	0xbd2d74d1	-0.042347733
82	0xbe0762a9	-0.1322123
83	0xbdf7917d	-0.120882966
84	0xbc4263c3	-0.011864605
85	0x3dc5e1d6	0.096622154
86	0x3e46fefc	0.19433206
87	0x3e21743d	0.15766998
88	0x3de0fcb0	0.10985696
89	0x3db6f0f4	0.08932677
90	0xbdb79290	-0.089635015
91	0xbe1e7180	-0.15472984
92	0xbda64879	-0.08119292
93	0x3d23202c	0.039825603
94	0x3e32b791	0.17452838
95	0xbe374996	-0.17899165
96	0xbdd3677c	-0.103224725
97	0x3d91533b	0.07095953
98	0x3daa7c90	0.0832454
99	0x3db0e3a1	0.08637167
100	0xbdf0d9d5	-0.11760298
101	0x3e3664f8	0.17811954
102	0x3e257602	0.16158298
103	0x3dcf36df	0.10117888
104	0x3e1a1035	0.15045245
105	0xbe385edb	-0.18004934
106	0x3e1e03a0	0.1543107
107	0x3dc0489b	0.093888484
108	0xbe39a567	-0.18129502
109	0x3e3842d1	0.17994238
110	0x3e6e24fc	0.23256296
111	0xbe63338d	-0.22187634
112	0xbe449630	-0.19197917
113	0xbe6d980d	-0.23202534
114	0xbdae327d	-0.085057236
115	0xbd9f38c8	-0.07774502
116	0xbdbb8d4f	-0.09157812
117	0x3e0f5aa0	0.13999414
118	0x3e80499b	0.25056157
119	0x3cf12869	0.029438214
120	0x3e40beaf	0.1882274
121	0x3dcad04a	0.09903009
122	0xbdc7813c	-0.097414464
123	0xbd1f2d82	-0.03886176
124	0xbd7323aa	-0.059360184
125	0x3db74763	0.08949163
126	0x3e2de6d7	0.1698259
127	0xbe131bbf	-0.14366053
128	0xbd8902ad	-0.066899635
129	0xbcfbbf76	-0.030730944
130	0x3d73deaa	0.05953852
131	0x3d9a86db	0.07545253
132	0xbe0e8e5f	-0.13921498
133	0x3d701172	0.058610387
134	0xbb17314d	-0.0023070157
135	0xb9a49cb8	-0.00031397282
136	0x3e117698	0.14205396
137	0x3c3f04f8	0.0116588995
138	0x3dfb5784	0.12272552
139	0x3e1b6965	0.15176924
140	0xbe070d6d	-0.13188715
141	0x3d04dfb4	0.032439902
142	0x3d85fedb	0.065427504
143	0xbdedef6f	-0.11617934
144	0xbdb0d5e8	-0.086345494
145	0xbd31770d	-0.043326426
146	0xbe1b856c	-0.15187615
147	0xbc20013f	-0.009765922
148	0xbdd744b1	-0.10511149
149	0x3cce1572	0.02515671
150	0xbca64a82	-0.0202992
151	0x3e211dee	0.15734074
152	0xbc0cc970	-0.008592948
153	0xbcf220c3	-0.029556638
154	0xbde32486	-0.11090951
155	0xbde6b10d	-0.112642385
156	0xbde5fc79	-0.11229796
157	0x3dcb9d07	0.0994206
158	0x3d53c27c	0.051699147
159	0xbdb93ed7	-0.09045189
160	0xbdab57a0	-0.083663225
161	0xbd2bb9af	-0.04192513
162	0xbc85c58b	-0.016329547
163	0x3c8a28fc	0.016865246
164	0xbcb3284b	-0.0218698
165	0x3dc6f701	0.09715081
166	0x3c9e469a	0.019320775
167	0xbda9e9fb	-0.08296581
168	0xbd96ad6a	-0.07357295
169	0xbc7b945c	-0.015355196
170	0x3d815ae2	0.06316163
171	0xbd243312	-0.040087767
172	0xbde3b430	-0.111183524
173	0x3ddf9aa5	0.10918168
174	0x3d979f2e	0.07403408
175	0x3c4f05d3	0.012635666
176	0x3d640eeb	0.05567829
177	0xbcd703de	-0.026246961
178	0xbd209268	-0.039202124
179	0xbd6ac732	-0.057318874
180	0x3c958f70	0.018256873
181	0xbc68bb79	-0.014204853
182	0x3d234746	0.039862894
183	0xbca64077	-0.020294411
184	0x3d9066bf	0.07050847
185	0x3d964434	0.073372275
186	0x3d9b8398	0.07593459
187	0xbcd8b223	-0.02645213
188	0x3d2771c4	0.04087998
189	0x3d5e04fa	0.054203965
190	0x3da1b8d6	0.07896583
191	0xbcffd17c	-0.03122782
192	0xbd7a6918	-0.06113538
193	0xbddc7c1e	-0.10765861
194	0x3e010065	0.12597807
195	0x3d5cfd2a	0.053952374
196	0x3d36c633	0.04462261
197	0xbb9a3e68	-0.0047071464
198	0x3dd9612a	0.10614236
199	0xbe008ddb	-0.12554114
200	0xbc5503c3	-0.013001385
201	0xbdffa8e7	-0.124833874
202	0x3ca7d333	0.02048645
203	0x3d10e99f	0.03537905
204	0xbdf410f1	-0.11917294
205	0x3c6a5500	0.014302492
206	0xbc95d574	-0.018290259
207	0xbc0c02c5	-0.008545582
208	0xbdb0f68d	-0.08640776
209	0x3c858584	0.016299017
210	0xbe03721b	-0.12836497
211	0x3d1d61c7	0.038423326
212	0xbe0705a4	-0.13185745
213	0x3dcc72e3	0.099828504
214	0xbcc45743	-0.02396739
215	0x3dba490c	0.09095964
216	0xbb93f392	-0.00451512
217	0x3dc3ea59	0.09566183
218	0x3ceebc6e	0.029142585
219	0xbd4741f4	-0.048646882
220	0xbd3799a8	-0.044824272
221	0x3c149f24	0.009071145
222	0x3e0f8644	0.14016062
223	0xbda0d724	-0.07853535
224	0xbdd5207e	-0.10406588
225	0xbd3fdbfb	-0.04684065
226	0x3d37a685	0.04483654
227	0x3e895e05	0.26829544
228	0xbd014049	-0.031555448
229	0x3e2ca615	0.1686023
230	0x3e38b846	0.18039045
231	0xbd25e17e	-0.04049825
232	0x3debd058	0.11514348
233	0xbda174fa	-0.0788364
234	0x3c7d3ffa	0.015457148
235	0x3db3c594	0.087779194
236	0xbe56ab80	-0.2096386
237	0x3e027acf	0.1274216
238	0x3d4fc6d2	0.05072672
239	0xbd45bf2c	-0.04827802
240	0xbdcd1322	-0.10013415
241	0xbe2502c8	-0.16114342
242	0xbd5a9d3c	-0.053372607
243	0xbe5861ee	-0.21131107
244	0xbe72eaf9	-0.23722447
245	0x3d30a072	0.043121763
246	0x3e8d4bd7	0.27596924
247	0x3e2c4eee	0.16826984
248	0xbd979615	-0.07401673
249	0x3bff8a8d	0.007798499
250	0xbdfbdbe6	-0.12297802
251	0xbdb5790b	-0.08860978
252	0xbe0b43bd	-0.13600059
253	0x3e768b9c	0.24076694
254	0x3e6b0e1c	0.22954601
255	0xbe953c9d	-0.29147807

lstm.bias_ih_l0 f4 [128]
0	0x3d84b9a4	0.06480721
1	0x3d632181	0.055451874
2	0x3e19004a	0.14941517
3	0x3e7c4487	0.24635516
4	0x3df7b862	0.12095715
5	0x3c992839	0.018695937
6	0xbc8c9bb7	-0.017164094
7	0x3e1a1b44	0.15049464
8	0xbc4ddb25	-0.012564455
9	0x3e0cd54f	0.13753246
10	0x3e2e8dd6	0.17046294
11	0x3d7fa9db	0.062417846
12	0x3db4d4b3	0.08829632
13	0xbcc33295	-0.02382783
14	0x3d38870a	0.04505066
15	0xbb8b95bc	-0.004259793
16	0xbcd57ca1	-0.026060404
17	0x3e804a6f	0.25056788
18	0x3e2fc6ec	0.17165726
19	0x3e5df6b7	0.21676145
20	0x3dc837fc	0.09776303
21	0x3d80e8e4	0.0629442
22	0x3e50b42b	0.20381229
23	0x3ea2499a	0.3169678
24	0x3e03a637	0.12856375
25	0x3d1d4fe4	0.038406268
26	0xbdcebcf1	-0.100946315
27	0x3e29f528	0.16597426
28	0x3e850c96	0.25986165
29	0x3c311bff	0.010809897
30	0xbd83a746	-0.06428389
31	0x3d0a7032	0.033798404
32	0x3cdcbd6e	0.026945796
33	0xbcadf335	-0.021234134
34	0x3daf2c4f	0.08553373
35	0x3dad8168	0.08471948
36	0xbc803947	-0.015652312
37	0x3e0005f0	0.12502265
38	0xbdd1af0d	-0.102384664
39	0x3e306cb0	0.17228961
40	0x3e462381	0.19349481
41	0xbd9d7f53	-0.07690301
42	0x3dc2b0e8	0.095063984
43	0xbc864760	-0.016391456
44	0x3de5d85d	0.11222909
45	0x3dc5d8dd	0.09660504
46	0xbe0caf82	-0.13738826
47	0xbce9b048	-0.02852644
48	0xbd9499e4	-0.07255915
49	0xbd9db0c4	-0.07699731
50	0x3e23d742	0.16000083
51	0x3d435316	0.04768666
52	0x3e21c7b9	0.15798844
53	0x3e304176	0.17212471
54	0xbe05dcb3	-0.13072471
55	0x3e060f9d	0.13091893
56	0x3d593b21	0.053034905
57	0x3e2f5942	0.17123893
58	0x3df35f02	0.11883356
59	0x3dd962c7	0.106145434
60	0xbdfd45a2	-0.12366797
61	0x3df4abd4	0.11946836
62	0xbc71f42a	-0.014767686
63	0x3d7feec3	0.06248356
64	0x3d97de5a	0.07415457
65	0x3e1e1884	0.1543904
66	0x3dc8a9d8	0.0979802
67	0xbdb2d966	-0.08732872
68	0x3d74aade	0.059733264
69	0x3d8c9199	0.06863708
70	0xbd823eca	-0.06359632
71	0xbe0498cf	-0.12948917
72	0x3e3d53d6	0.18489012
73	0xbe20b01e	-0.15692183
74	0x3de34198	0.110964954
75	0x3dd7b3d4	0.10532346
76	0xbd843238	-0.06454891
77	0xbc188224	-0.009308372
78	0x3d80f19e	0.06296085
79	0xbe3ff076	-0.18744072
80	0xbe251207	-0.16120158
81	0xbe2367dd	-0.1595759
82	0x3dffa704	0.124830276
83	0xbd0f7a7d	-0.035028923
84	0xbe15cdf7	-0.1462935
85	0xbe1008ef	-0.14065908
86	0x3dfbf62e	0.123028144
87	0x3d2b1e13	0.041776728
88	0x3e3c3502	0.18379596
89	0x3e3c074a	0.18362156
90	0xbe5a9408	-0.21345532
91	0x3dca198c	0.09868154
92	0xbe3898b8	-0.18027008
93	0x3e0c8bd7	0.1372522
94	0x3d557bfd	0.052120198
95	0xbd3c3320	-0.045947194
96	0x3e7ca481	0.24672128
97	0x3cfe04a7	0.031008078
98	0xbd52bfb4	-0.051452354
99	0x3dedcc32	0.11611213
100	0xbc77639f	-0.015099435
101	0x3bdf9332	0.006822967
102	0x3e47dba8	0.19517386
103	0x3c343bbd	0.011000571
104	0x3e44f5b4	0.19234353
105	0x3e7056ea	0.23470655
106	0x3de67d00	0.112543106
107	0xbcfb6b22	-0.030690733
108	0xbd069a16	-0.03286179
109	0x3be70ed3	0.0070513277
110	0x3c984773	0.018588757
111	0x3ce6149c	0.028086
112	0xbd8f0399	-0.06983108
113	0x3e93b862	0.2885161
114	0x3e60172b	0.21883838
115	0x3cdc7cb6	0.026914936
116	0x3d9752f8	0.07388872
117	0x3ccf51e8	0.02530761
118	0x3e6f823d	0.23389526
119	0x3e83e58b	0.25761065
120	0xbb09ef5e	-0.0021047215
121	0x3dc08561	0.0940044
122	0x3e696327	0.2279173
123	0x3d316a66	0.04331436
124	0x3e5bc1e6	0.21460685
125	0xbd93087c	-0.07179353
126	0x3d9cfefd	0.07665823
127	0x3d6607a6	0.056159638

lstm.bias_hh_l0 f4 [128]
0	0x3e6a6912	0.22891644
1	0x3d9fb234	0.077976614
2	0xbcb6d929	-0.022320347
3	0x3e7e0800	0.2480774
4	0xbd9a3f64	-0.07531622
5	0x3d765b91	0.06014592
6	0xbbd75e8e	-0.006572551
7	0x3c0f5f32	0.008750724
8	0x3e637fe7	0.2221676
9	0x3db973d4	0.090552956
10	0xbcf5e733	-0.030017471
11	0x3e0be81b	0.1366276
12	0xbe0d763d	-0.13814636
13	0x3e7624ad	0.24037428
14	0x3d6c24bf	0.05765223
15	0x3d3fac8a	0.046795405
16	0x3d8b6992	0.06807245
17	0x3dc2cb36	0.09511416
18	0x3e515a84	0.20444685
19	0x3df1c286	0.118046805
20	0x3e097488	0.1342336
21	0x3e2f1447	0.17097579
22	0x3d6e3951	0.05816013
23	0x3e9c6140	0.30542946
24	0xbd2099a6	-0.03920903
25	0x3e24abc4	0.16081148
26	0x3e16524e	0.14679834
27	0x3e334290	0.1750586
28	0x3d99f649	0.07517678
29	0x3e1b4e68	0.15166628
30	0x3daa6f32	0.0832199
31	0x3dea3f36	0.11437838
32	0x3db03aaf	0.08604943
33	0x3e29607f	0.16540717
34	0x3e09940e	0.13435385
35	0x3de1e216	0.110294506
36	0x3baf1e4d	0.0053441883
37	0xbdbcc8e1	-0.09218002
38	0x3d488117	0.048951235
39	0x3dbf5281	0.09341908
40	0xbd9856f1	-0.07438458
41	0x3d7d62f8	0.061861962
42	0x3e323fc3	0.17407136
43	0x3cee019d	0.029053504
44	0x3e1b8444	0.15187174
45	0x3db13524	0.08652714
46	0xbe13ce83	-0.14434247
47	0xbd9181b8	-0.0710482
48	0xbd91b1fb	-0.07114025
49	0x3bdd5edb	0.0067556924
50	0xbc87eb9c	-0.01659184
51	0xbc72d035	-0.014820148
52	0x3d79bbd7	0.060970154
53	0x3d8b8b77	0.0681371
54	0x3d58267b	0.052771073
55	0x3e263364	0.16230541
56	0xbdd51bd4	-0.104056984
57	0x3e67fe82	0.22655681
58	0x3e0e68fe	0.13907239
59	0xbda30e3f	-0.079617016
60	0xbdc6f767	-0.09715157
61	0xbe027148	-0.12738526
62	0x3e4b9a01	0.19882967
63	0xbc90d280	-0.0176785
64	0xbe514051	-0.20434691
65	0xbd5daf6c	-0.054122373
66	0x3cfecaf1	0.03110263
67	0x3e420549	0.18947329
68	0x3de4e263	0.11175992
69	0x3d2034b4	0.03911276
70	0x3e1ab2da	0.15107289
71	0x3d3da9ef	0.04630464
72	0x3e44505b	0.19171278
73	0xbdea72c2	-0.114476696
74	0x3dda6075	0.10662929
75	0xbc8a5df2	-0.0168905
76	0x3d780bb8	0.06055805
77	0xbd058f91	-0.03260762
78	0x3dde97f5	0.10868827
79	0x3d5dbc81	0.05413485
80	0xbdaccedf	-0.08437895
81	0x3ca9279c	0.02064877
82	0xbe468ab8	-0.19388855
83	0xbdc686ca	-0.09693678
84	0xbd1d1f4c	-0.038359925
85	0x3e3213c3	0.17390351
86	0x3dd692e6	0.104772374
87	0x3dc09d14	0.0940496
88	0x3db93909	0.09044082
89	0x3dd1926b	0.10233005
90	0xbddbdae7	-0.10735112
91	0xbe1e9da4	-0.15489823
92	0x3d7d14b6	0.06178733
93	0x3e379680	0.17928505
94	0x3df35506	0.11881451
95	0xbd8c31c9	-0.06845433
96	0x3d1f03dc	0.03882204
97	0x3e642752	0.22280625
98	0xbd763896	-0.06011256
99	0x3e7dcb9a	0.24784699
100	0x3d1dbc01	0.038509373
101	0x3cd75757	0.026286764
102	0x3d69aef4	0.057051614
103	0x3e33a1a3	0.17542128
104	0x3d95dc8e	0.07317458
105	0x3e042215	0.12903626
106	0x3d7bbc59	0.06145892
107	0x3da6bc32	0.08141364
108	0x3b8cc852	0.004296341
109	0x3d9db55d	0.07700608
110	0xbd324018	-0.043518156
111	0x3e2aa0d8	0.1666292
112	0x3d9fb319	0.07797832
113	0x3ddcb19c	0.10776064
114	0x3e8266fb	0.25469193
115	0x3dfd5ba2	0.12370993
116	0xbd4cf4e3	-0.05003823
117	0x3d07ab07	0.03312209
118	0x3e4c148b	0.19929712
119	0x3cea6768	0.028613761
120	0xbd59ee38	-0.0532057
121	0xbb0ac7be	-0.0021176185
122	0x3d88bedc	0.066770285
123	0xbcdf2553	-0.027239477
124	0x3e2492dc	0.16071647
125	0x3e6de0e5	0.23230322
126	0x3b968eed	0.004594675
127	0xbda8e34b	-0.08246478

lstm.weight_ih_l1 f4 [128, 32]
0	0xbccbe8da	-0.024891306
1	0xbd789bab	-0.06069533
2	0xbc011b5a	-0.007880056
3	0xbd48157b	-0.04884861
4	0xbcdb3016	-0.026756328
5	0x3cf27fca	0.02960195
6	0x3dbf7597	0.093486
7	0xbd853eb1	-0.06506098
8	0x3e0f97a8	0.14022696
9	0xbdc763f4	-0.097358614
10	0x3c53ba2d	0.012922806
11	0xbbe48c91	-0.0069747646
12	0xbc327adf	-0.010893553
13	0x3d22b50c	0.03972344
14	0x3de2c4b0	0.110726714
15	0xbdb5127a	-0.08841415
16	0xbde549eb	-0.11195739
17	0x3c93a683	0.018023735
18	0xbc8c144c	-0.017099522
19	0xbe309e4b	-0.17247884
20	0x3c84dc24	0.016218252
21	0xbd3e59a7	-0.046472218
22	0x3e4bda25	0.19907434
23	0x3e173ce8	0.14769328
24	0x3dc9dd2c	0.09856638
25	0x3cf54a02	0.029942516
26	0xbe132472	-0.14369372
27	0x3c2f6c74	0.01070701
28	0x3c9c687f	0.019092796
29	0xbd4722a0	-0.048617005
30	0x3e44ca30	0.19217753
31	0xbe305fd2	-0.17224053
32	0xbd9eb89c	-0.07750055
33	0x3dcc8bcc	0.09987602
34	0x3e2961fc	0.16541284
35	0x3d40ae1e	0.04704105
36	0xbddea468	-0.10871202
37	0x3e12ca3d	0.1433496
38	0x3e82034b	0.25393137
39	0xbcf9e48a	-0.030504484
40	0x3dd16e47	0.10226112
41	0xbe9a0726	-0.3008358
42	0x3e27018e	0.16309187
43	0xbbc51ad3	-0.0060151606
44	0xbe194791	-0.14968707
45	0xbbc8fe0c	-0.0061338004
46	0x3ca2730a	0.019830246
47	0xbd80b88a	-0.06285198
48	0xbdbb0656	-0.09132068
49	0xbdf55584	-0.119792014
50	0xbde206fe	-0.1103649
51	0x3d3227fa	0.043495156
52	0xbda47dcd	-0.08031807
53	0x3dc6a0c5	0.09698633
54	0x3e0dd8c2	0.13852218
55	0xbc41a98b	-0.011820207
56	0x3e3c8927	0.18411694
57	0x3dd5b489	0.10434825
58	0xbe9676fe	-0.2938766
59	0xbdd0f312	-0.10202612
60	0x3d5217b0	0.05129212
61	0x3e0b9cb0	0.1363399
62	0x3e7b8380	0.24561882
63	0xbe3f933d	-0.1870851
64	0x3c412b6c	0.011790138
65	0xbd451795	-0.048118193
66	0x3e0ea61e	0.13930556
67	0x3d21ad36	0.039471827
68	0xbe4775e4	-0.19478565
69	0x3bc05d34	0.0058704857
70	0x3e5c9a80	0.21543312
71	0xbd3fbd18	-0.046811193
72	0x3dd75739	0.10514683
73	0xbe2b9bdd	-0.16758676
74	0xbc80bdfe	-0.015715595
75	0x3e1abf81	0.15112115
76	0xbde57870	-0.11204612
77	0x3e29601b	0.16540568
78	0xbc802f7d	-0.015647644
79	0x3cb9c253	0.022675669
80	0xbdb2c913	-0.08729758
81	0xbe3d5732	-0.18490294
82	0x3d004e41	0.03132463
83	0xbdb17ead	-0.086667396
84	0xbd97be57	-0.07409351
85	0x3e26daad	0.16294356
86	0x3d807503	0.06272318
87	0x3d19169a	0.03737507
88	0x3cdecb1a	0.027196456
89	0x3ba0727d	0.0048964606
90	0xbdd81305	-0.10550503
91	0xbda5078b	-0.08058079
92	0xbdd8819c	-0.10571596
93	0x3d9bb194	0.0760223
94	0x3e0b86ee	0.1362569
95	0xbe61652e	-0.22011253
96	0xbde954c5	-0.11393122
97	0xbd5968bc	-0.053078398
98	0x3dcb6e81	0.09933186
99	0x3dd278c1	0.10276938
100	0x3c1245bd	0.00892776
101	0xbd4674b0	-0.048451126
102	0xbd214162	-0.039368995
103	0xbd41be0c	-0.047300383
104	0x3d9a6e00	0.07540512
105	0xbe38b123	-0.18036322
106	0x3d9be289	0.076115675
107	0x3e125050	0.1428845
108	0xbd336754	-0.043799713
109	0x3e2b02fd	0.16700359
110	0x3dc75929	0.09733803
111	0xbd21deee	-0.039519243
112	0x3d73b788	0.0595012
113	0xbe145cfe	-0.14488599
114	0x3c515a9f	0.012777953
115	0x3c23e699	0.010003709
116	0xbd32bf54	-0.043639496
117	0x3d977ae7	0.07396489
118	0x3e20771f	0.15670441
119	0x3e5b5671	0.21419694
120	0x3e3ec54e	0.18629953
121	0x3d62f7e6	0.055412196
122	0xbc5dd234	-0.013538886
123	0xbde263e4	-0.11054209
124	0x3d3d5f0d	0.046233226
125	0x3e44abcd	0.19206162
126	0x3dab4706	0.08363156
127	0x3d65bf92	0.0560909
128	0xbc4f5226	-0.012653863
129	0x3d793bcc	0.060848042
130	0x3d384c0b	0.044994395
131	0x3e581b34	0.21104127
132	0x3de5d7fe	0.11222838
133	0x3cedda4d	0.029034758
134	0x3e4db106	0.2008706
135	0xbdf30bff	-0.118675224
136	0x3d4c3055	0.04985078
137	0xbd99b283	-0.075047515
138	0x3a27b85a	0.0006398015
139	0x3dbf3130	0.09335554
140	0x3cb2c796	0.021823686
141	0x3e274251	0.16333891
142	0x3dfb7c98	0.12279624
143	0x3ce9e3e5	0.028551051
144	0xbe3fb9f1	-0.18723275
145	0xbce15fc0	-0.027511477
146	0xbe4748eb	-0.1946141
147	0xbe42c2c4	-0.1901961
148	0xbdd41a88	-0.10356623
149	0x3e219fb6	0.15783581
150	0x3d274858	0.040840477
151	0x3de12e65	0.10995177
152	0x3e14315d	0.14471956
153	0x3b4c2850	0.0031151958
154	0xbe103b53	-0.1408513
155	0xbe1e6c50	-0.15471005
156	0xbe0b4938	-0.1360215
157	0x3d38753a	0.04503367
158	0x3d95201a	0.072815135
159	0x3d0cbe04	0.0343609
160	0xbdd9e5f2	-0.10639562
161	0x3ca33721	0.019923748
162	0x3dbf4ed1	0.09341205
163	0x3db1798d	0.08665762
164	0x3d2f8607	0.042852428
165	0x3c94e3a1	0.018174948
166	0x3cf000a3	0.029297179
167	0xbd72cc71	-0.059277
168	0x3d337126	0.04380908
169	0x3bade923	0.005307333
170	0x3def5b34	0.116873175
171	0x3d904461	0.07044292
172	0x3ca90118	0.020630404
173	0xbd21bcd4	-0.03948672
174	0x3d691916	0.05690869
175	0xbc73d205	-0.0148816155
176	0xbcf6f6e3	-0.030147022
177	0xbdf72798	-0.12068099
178	0x3cd1dba7	0.025617434
179	0xbe0e6429	-0.13905396
180	0xbdaa2bf8	-0.083091676
181	0x3d430836	0.047615252
182	0x3e327596	0.17427668
183	0xbd5beb4a	-0.053691186
184	0x3d96c1f5	0.07361213
185	0x3d60c75c	0.054877624
186	0xbe29ae90	-0.16570497
187	0x3d005d9a	0.031339265
188	0xbdd7ce22	-0.105373636
189	0x3c2df9b0	0.010618612
190	0x3db805f8	0.089855134
191	0xbd97c053	-0.0740973
192	0x3c9e8529	0.019350605
193	0xbdd3a903	-0.10334971
194	0x3d2b9cf7	0.04189774
195	0x3e08daae	0.1336467
196	0xbd3a90d4	-0.045548275
197	0x3daddc67	0.08489304
198	0x3d80c86e	0.06288229
199	0x3c8fd246	0.01755632
200	0xbd4279d8	-0.04747948
201	0xbe3f3dbf	-0.18675898
202	0x3db1a50f	0.086740606
203	0x3e12dbf0	0.14341712
204	0x3d5d4e20	0.054029584
205	0x3e5b0be6	0.21391258
206	0x3e466492	0.19374302
207	0xbe5290eb	-0.20563094
208	0xbe55277d	-0.20815845
209	0xbda935c2	-0.082622066
210	0x3c2575cf	0.010098889
211	0xbe0122f4	-0.1261099
212	0x3b016e7a	0.0019749687
213	0xbdbc7457	-0.092018776
214	0x3b1bb038	0.0023756158
215	0x3e835a79	0.25654963
216	0x3d8e62dd	0.069524504
217	0xbd064772	-0.03278298
218	0xbde29b58	-0.11064786
219	0x3c3b9c1d	0.0114507945
220	0xbcfda41a	-0.030962039
221	0x3e507e0e	0.20360586
222	0x3e1fab77	0.15592752
223	0xbdac12d7	-0.08402031
224	0xbe3230c6	-0.17401418
225	0xbe68aae7	-0.22721444
226	0x3e11fe95	0.14257272
227	0x3e54fa7a	0.20798674
228	0x3da35ee5	0.07977084
229	0xbcc88ba0	-0.02448064
230	0x3cdda683	0.027056938
231	0x3c1b48e3	0.009477827
232	0x3cefcc72	0.029272292
233	0xbd25f76b	-0.04051916
234	0x3d964522	0.07337405
235	0x3d9ec5b8	0.077525556
236	0x3d652669	0.055944834
237	0x3e145390	0.14485002
238	0x3de56a23	0.112018846
239	0xbcead1d0	-0.0286645
240	0xbdd6d9ed	-0.10490785
241	0xbe851eab	-0.2599996
242	0xbe493bc6	-0.19651708
243	0xbe10cc96	-0.14140543
244	0xbe4416c5	-0.19149311
245	0xbe331010	-0.17486596
246	0x3cb6cc88	0.022314325
247	0x3e5fe4a7	0.21864568
248	0x3dd53eb2	0.10412349
249	0xbd854542	-0.065073505
250	0xbc5f4133	-0.013626385
251	0xbe2088c7	-0.15677176
252	0xbcd645a6	-0.026156258
253	0x3b91ad63	0.004445718
254	0x3e2cb466	0.16865692
255	0xbcc67942	-0.024227742

lstm.weight_hh_l1 f4 [128, 32]
0	0xbdb1929d	-0.086705424
1	0xbcb1b667	-0.021693422
2	0xbdcf82d0	-0.101323724
3	0x3d5b3585	0.053517837
4	0x3e2ab575	0.16670783
5	0x3c4f6a3a	0.012659604
6	0xbdc3c3d8	-0.095588386
7	0x3d58fdde	0.05297648
8	0x3cc28e61	0.023749532
9	0x3d8178c1	0.0632186
10	0xbcfc5603	-0.030802732
11	0x3d36745b	0.04454456
12	0xbdcc7c43	-0.099846385
13	0x3d402d28	0.046918064
14	0x3d552575	0.052037675
15	0x3e24f5b6	0.16109356
16	0x3e157d90	0.1459868
17	0xbe2685d2	-0.16261986
18	0x3e246cf0	0.16057181
19	0xbdb8e9da	-0.09028979
20	0x3d1c4c64	0.03815879
21	0x3e0c7e9f	0.13720177
22	0x3e3b630e	0.18299505
23	0x3db7d1df	0.089755766
24	0xbdf766d5	-0.120801605
25	0xbd1a1b1f	-0.03762352
26	0x3c685f08	0.014182813
27	0x3da3c638	0.079967916
28	0x3ddd0a80	0.10793018
29	0x3e32e5a9	0.17470421
30	0x3d11d0c7	0.035599496
31	0x3c96d036	0.01840983
32	0x3e4f2dd8	0.20232332
33	0x3df00ec3	0.117215656
34	0x3baf556c	0.0053507593
35	0x3e7c5dbe	0.24645135
36	0x3e081fd3	0.1329339
37	0xbd45ddef	-0.048307355
38	0x3be86a4e	0.0070927506
39	0x3db0987e	0.086228356
40	0xbd9afe2c	-0.07568011
41	0x3dc032c3	0.09384682
42	0xbd925964	-0.07145956
43	0xbcf6eee1	-0.030143203
44	0xbe4959c5	-0.1966315
45	0xbd6d0c61	-0.057873134
46	0x3d239ced	0.039944578
47	0xbb7bf887	-0.0038447694
48	0x3e16907f	0.14703558
49	0xbd942dda	-0.07235308
50	0x3e5c97e5	0.21542318
51	0xbe0d9e9f	-0.1383004
52	0xbda20313	-0.079107426
53	0xbd9e80cf	-0.07739412
54	0x3e19cbf7	0.15019213
55	0x3e854477	0.26028797
56	0xbe6bc724	-0.23025185
57	0x3c5210a8	0.012821354
58	0xbe429447	-0.19001876
59	0xbe95cdbd	-0.29258528
60	0x3e82dbf9	0.2555845
61	0x3e7cf809	0.24703993
62	0xbd41c951	-0.04731113
63	0x3ddef523	0.108866
64	0x3e136a6e	0.14396068
65	0xbd4c8890	-0.049934924
66	0x3d8c5107	0.06851392
67	0x3e39888b	0.18118493
68	0x3dae4539	0.08509297
69	0x3c5b32df	0.013378828
70	0xbdde135a	-0.10843535
71	0x3e1b2ff1	0.15155007
72	0x3d53c2e7	0.051699545
73	0x3e26b789	0.1628095
74	0x3cc8d2ed	0.02451464
75	0xbdfbf3cc	-0.1230236
76	0xbdf3fbb1	-0.11913241
77	0x3da6c3a3	0.081427835
78	0x3e21a96c	0.15787286
79	0x3d84a46d	0.06476674
80	0xbd12fb7c	-0.035884365
81	0xbdc6279d	-0.096755244
82	0x3d1057db	0.035240036
83	0xbd76fd26	-0.060300015
84	0xbd0fbb23	-0.035090577
85	0xbe32556f	-0.17415403
86	0x3db486dd	0.08814786
87	0x3923f646	0.00015636635
88	0xbe0f5447	-0.13996993
89	0xbd5ff1ee	-0.05467408
90	0xbe3ef27a	-0.18647185
91	0x3d17718b	0.036973517
92	0x3e04be74	0.12963277
93	0x3e100b00	0.14066696
94	0x3cc6d7ab	0.02427276
95	0x3c911882	0.017711882
96	0x3e557cb5	0.20848353
97	0xbc8db293	-0.017297065
98	0xbdfb17aa	-0.12260373
99	0x3c580be0	0.013186425
100	0xbd078858	-0.033089012
101	0xbe44ff6e	-0.19238064
102	0xbe078377	-0.13233744
103	0x3cced576	0.02524827
104	0x3c052895	0.008127351
105	0x3c3ca3df	0.011513679
106	0x3c55fe6e	0.013061149
107	0xbe037dcd	-0.12840958
108	0xbc3feb7a	-0.011713857
109	0xbe139302	-0.14411548
110	0x3deb6c05	0.114952125
111	0x3dfc6f72	0.12325944
112	0x3dd28743	0.102797054
113	0x3d94712f	0.072481506
114	0x3cee9cf3	0.029127574
115	0xbd2ebffb	-0.042663556
116	0xbd473a50	-0.048639596
117	0xbdb1393c	-0.08653495
118	0x3e221ab9	0.15830506
119	0x3bccd3e1	0.006250844
120	0x3cda1599	0.026621627
121	0x3d10931c	0.035296544
122	0xbc362636	-0.011117509
123	0xbe1df794	-0.15426475
124	0x3e1b8eab	0.15191142
125	0x3d13ec60	0.036114097
126	0xbcdc5c9d	-0.02689963
127	0xbd235d73	-0.039884042
128	0x3d815dfa	0.06316753
129	0x3cb94b1e	0.022618826
130	0xbdcba6a1	-0.09943891
131	0xbd08f26f	-0.033434328
132	0x3e1679ff	0.14694975
133	0xbe49287d	-0.19644351
134	0x3d8d0a49	0.06886727
135	0x3d21cd98	0.03950271
136	0x3d9eddbe	0.07757138
137	0x3dd39ce1	0.10332657
138	0xbd7b7818	-0.061393827
139	0xbe19a625	-0.15004785
140	0xbcbe8b62	-0.023259822
141	0xbcb2381a	-0.021755267
142	0x3de55a2a	0.11198838
143	0x3da84466	0.08216171
144	0x3d80871c	0.0627577
145	0xbe45a6d5	-0.19301923
146	0xbd9f8f77	-0.077910356
147	0xbd8fb1ae	-0.070163116
148	0x3c91aa4b	0.017781397
149	0xbe00514e	-0.12531015
150	0x3d2f2d7b	0.042767983
151	0x3d668f6f	0.056289133
152	0xbdd63234	-0.10458794
153	0xbbb45883	-0.0055037155
154	0xbbf87bd3	-0.0075831204
155	0xbe1db634	-0.15401536
156	0xbd1f8079	-0.03894088
157	0x3d4d6cc1	0.050152544
158	0xbe669389	-0.22517218
159	0x3dbcc9c1	0.09218169
160	0x3cba1a96	0.022717755
161	0xbd9abf33	-0.075559996
162	0x3d94d131	0.072664626
163	0xbdbad98f	-0.09123527
164	0xbc286ff9	-0.010280603
165	0x3c36093e	0.011110602
166	0x3dc990f1	0.098420985
167	0x3d6d57db	0.057945114
168	0xbced0ba1	-0.02893621
169	0xbcce709f	-0.025200186
170	0xbd2e9753	-0.042624783
171	0xbddba744	-0.10725263
172	0x3dac67bf	0.084182255
173	0xbdb16fc3	-0.08663895
174	0x3aab387b	0.0013063097
175	0xbdbc77f7	-0.09202569
176	0x3def3119	0.116792865
177	0xbe318fe1	-0.17340042
178	0xbd6d14e6	-0.05788126
179	0xbdeb2b78	-0.114829004
180	0x3db90ad1	0.09035266
181	0x3db8ae1c	0.09017584
182	0x3d92b59c	0.071635455
183	0x3daf97de	0.08573888
184	0x3d86ffae	0.06591736
185	0x3d22d755	0.039756138
186	0xbdafa7e5	-0.08576945
187	0xbdb26faa	-0.087127045
188	0xbd4780ef	-0.048706945
189	0x3d30ba72	0.043146558
190	0xbe2740d2	-0.1633332
191	0x3db4a6dd	0.08820889
192	0x3d9f3172	0.07773103
193	0x3db2f7d7	0.08738678
194	0xbe024195	-0.1272033
195	0x3d487f64	0.048949614
196	0x3d60bcdb	0.054867607
197	0xbddac79c	-0.10682604
198	0xbb9e838e	-0.00483746
199	0x3da5a291	0.08087648
200	0xbdb72cd3	-0.089440964
201	0xbd790923	-0.06079973
202	0xbdade6b3	-0.08491268
203	0x3a63a3c1	0.0008683764
204	0xbe1ae144	-0.15124995
205	0xbdedb9f7	-0.116077356
206	0x3b0198c3	0.001977489
207	0xbd8af602	-0.067852035
208	0x3e0e98cc	0.13925475
209	0x3cd482f6	0.025941353
210	0x3c060860	0.008180708
211	0xbe5674a8	-0.20942938
212	0xbdffb82f	-0.12486302
213	0xbdb05166	-0.086092755
214	0x3db56fe9	0.08859236
215	0x3d9b339c	0.07578203
216	0xbc6be8b5	-0.014398743
217	0x3e67e6d3	0.22646646
218	0xbd9ed0d1	-0.07754672
219	0xbe27b9e0	-0.163795
220	0x3cadbd51	0.021208437
221	0xbd5a1b6f	-0.05324882
222	0x3dab5d98	0.08367461
223	0xbddeaa73	-0.10872354
224	0x3e027506	0.12739953
225	0xbe40dd26	-0.18834361
226	0xbe1afcfd	-0.1513557
227	0xbd4b3123	-0.049607407
228	0x3dd50ae1	0.104024656
229	0x3db57b41	0.088613994
230	0x3dd2c739	0.10291905
231	0xbd9df9b4	-0.07713643
232	0xbcf058c0	-0.029339194
233	0x3d93d411	0.07218183
234	0x3ca8b901	0.02059603
235	0xbdecee0d	-0.11568842
236	0x3c48a367	0.012245989
237	0x3d91705d	0.0710151
238	0x3e18edbb	0.14934437
239	0x3d7ad6ac	0.061239883
240	0xbd341e87	-0.043974426
241	0x3d6889f7	0.0567722
242	0xbc51512a	-0.012775699
243	0xbdd24a37	-0.102680616
244	0xbe2c068e	-0.16799375
245	0xbbedb342	-0.007254035
246	0xbd1b3703	-0.03789426
247	0xbd8d8058	-0.06909245
248	0x3d662d3d	0.056195486
249	0xbe00860e	-0.12551138
250	0xbd547e8e	-0.051878504
251	0x3c8da10f	0.017288713
252	0x3e0562fb	0.1302604
253	0x3dc7b5ad	0.09751449
254	0x3d54564e	0.05184012
255	0xbdb9d02b	-0.09072908

lstm.bias_ih_l1 f4 [128]
0	0x3e1992bf	0.14997385
1	0x3e9fb870	0.31195402
2	0x3dfdffd4	0.12402311
3	0x3db61489	0.088906355
4	0x3dd6703d	0.104706265
5	0x3e0b70af	0.13617204
6	0xbd42b254	-0.04753335
7	0x3e08cc4c	0.13359183
8	0xbd240424	-0.04004301
9	0x3e0e4d0f	0.13896583
10	0xbced7755	-0.028987566
11	0xbcac7801	-0.021053316
12	0xbcbf1566	-0.023325633
13	0x3d4db6f3	0.050223302
14	0x3e72f893	0.23727636
15	0x3e06c6eb	0.13161819
16	0x3db7ea62	0.08980252
17	0x3d9874bc	0.0744414
18	0x3d5277f1	0.051383916
19	0xbdea3c0a	-0.11437233
20	0x3e0ac3fb	0.13551323
21	0xbdb4d2c6	-0.08829264
22	0xbd50cf47	-0.050978925
23	0x3e38b252	0.18036774
24	0x3e16a511	0.14711405
25	0x3dd018f0	0.101610065
26	0xbd073236	-0.03300687
27	0xbd7ab4f5	-0.06120773
28	0xbd0d3dd0	-0.034482777
29	0x3d699d34	0.057034686
30	0x3d96b1e1	0.073581465
31	0x3cef89b6	0.02924047
32	0x3dea1d32	0.1143135
33	0xbd9eddc7	-0.077571444
34	0x3da999c1	0.08281279
35	0x3e111971	0.14169861
36	0xbd97d442	-0.07413532
37	0x3d3b22db	0.045687538
38	0xbd9c6d38	-0.07638019
39	0xbe07375c	-0.13204712
40	0xbdc17368	-0.0944584
41	0x3e40f131	0.18842007
42	0x3e44ebb4	0.19230539
43	0x3c4e8cfb	0.012606855
44	0x3e2aee00	0.16692352
45	0xbd559ca2	-0.05215133
46	0x3e04517a	0.12921706
47	0x3dfb57ec	0.12272629
48	0x3d5be281	0.053682808
49	0x3bcf5343	0.0063270642
50	0x38cb6288	9.698147e-05
51	0x3e19cce4	0.15019566
52	0x3d84128f	0.06448852
53	0x3b97f5c4	0.004637452
54	0xbc666ec7	-0.014064497
55	0x3d17fbb0	0.037105262
56	0xbd7ba658	-0.061437935
57	0x3e13c297	0.14429699
58	0x3c93f031	0.018058868
59	0x3e451c54	0.19249088
60	0x3e1fa649	0.15590777
61	0x3d58916c	0.05287306
62	0x3dfd0ec8	0.12356335
63	0xbd8d1a1a	-0.06889744
64	0x3e2a0363	0.16602854
65	0xbd824813	-0.06361403
66	0xbd259d9a	-0.040433504
67	0x3d07072c	0.032965824
68	0xbbb05b81	-0.005382002
69	0xbe019e3a	-0.12658015
70	0xbdbc8231	-0.092045195
71	0xbd1d0586	-0.038335346
72	0x3dc28507	0.09498029
73	0x3db7c2e5	0.0897272
74	0x3d2bb36f	0.041919168
75	0xbdb4ab57	-0.08821743
76	0xbde064b9	-0.10956711
77	0x3c616fdd	0.01375958
78	0x3df6ad92	0.12044825
79	0x3dd1dd82	0.102473274
80	0x3d2ff3d2	0.042957135
81	0xbe5d6c90	-0.21623445
82	0x3df8158e	0.12113486
83	0xbe143d50	-0.14476514
84	0xbd1a3fdf	-0.03765857
85	0xbbd46178	-0.0064813457
86	0x3e4d8674	0.20070821
87	0x3e2dd03e	0.1697397
88	0x3c058ca3	0.008151206
89	0x3dbfb1a4	0.09360054
90	0x3c9292e7	0.017892314
91	0xbe4872e8	-0.19575083
92	0xbc9e9c03	-0.019361502
93	0x3e1e36bd	0.15450568
94	0xbe1a08a8	-0.15042365
95	0xbe11846d	-0.14210673
96	0xbdeb167e	-0.114788994
97	0x3e97470c	0.29546392
98	0x3d846fa4	0.06466606
99	0xbdf1c066	-0.11804275
100	0x3e73f7f7	0.2382506
101	0x3df262aa	0.11835225
102	0x3e18f94e	0.14938852
103	0x3dd884e2	0.105722204
104	0x3c276bdf	0.01021859
105	0x3d26ae65	0.04069366
106	0xbdd96c4f	-0.10616361
107	0x3e6c63c5	0.23084934
108	0xbdddfdf2	-0.10839452
109	0x3d925d6f	0.07146727
110	0x3e29d2d2	0.16584328
111	0x3db1621c	0.08661291
112	0x3dc2679d	0.09492419
113	0xbdb012f0	-0.08597362
114	0x3d3be4bf	0.045872446
115	0x3e449e17	0.19200931
116	0xbd761b7f	-0.060084816
117	0x3db2686c	0.08711323
118	0x3d1a6dab	0.037702244
119	0x3e021e89	0.1270696
120	0xbcf04e5d	-0.029334242
121	0x3c80b8e7	0.015713168
122	0xbcf3f67f	-0.029780624
123	0x3e4aa7cf	0.19790576
124	0xbc967360	-0.018365562
125	0x3d63ceac	0.05561702
126	0x3dedcd3d	0.11611412
127	0x3d844400	0.064582825

lstm.bias_hh_l1 f4 [128]
0	0x3e6b8862	0.23001245
1	0x3d61aeda	0.055098392
2	0xbdca7358	-0.09885281
3	0x3d07e5ef	0.033178266
4	0x3d7e5217	0.062090006
5	0xbdaaac1e	-0.0833361
6	0xbb5ba411	-0.003351454
7	0xbcc13cbc	-0.02358853
8	0x3e357339	0.17719735
9	0x3def0191	0.11670221
10	0x3e6771d7	0.2260202
11	0x3c5a0a6c	0.013308149
12	0xbc9fe628	-0.019518927
13	0xbcd87c68	-0.026426509
14	0xbcc04449	-0.02347006
15	0x3e3c1797	0.18368374
16	0x3e3052cb	0.17219083
17	0x3dea5258	0.11441487
18	0x3e080a9c	0.13285297
19	0xbc2924e9	-0.0103237415
20	0xbae6269d	-0.0017559115
21	0x3e02bd18	0.12767446
22	0x3d58233d	0.05276798
23	0xbdbcf1c0	-0.09225798
24	0x3e20eff6	0.15716538
25	0xbcc4f0d1	-0.024040611
26	0xbda0581e	-0.07829307
27	0x3e11098e	0.14163801
28	0x3d14a183	0.036286842
29	0x3be32758	0.0069321804
30	0x3d6820e2	0.056671984
31	0x3e50468e	0.20339414
32	0xbd416818	-0.047218412
33	0x3da0a82f	0.078445785
34	0x3e0db9f2	0.13840464
35	0x3e6f1733	0.23348694
36	0xbdf37010	-0.118866086
37	0x3bc600ef	0.0060425918
38	0xbcf9bafa	-0.030484665
39	0xbe166c9a	-0.14689866
40	0x3ca2b413	0.019861257
41	0x3e29d019	0.16583289
42	0x3d8e28b4	0.06941357
43	0x3e0a2da1	0.13493969
44	0x3d6f07c8	0.05835703
45	0xbb0eaa11	-0.0021768848
46	0x3d77375f	0.06035554
47	0x3dd0ddb5	0.10198537
48	0x3e31ddeb	0.17369811
49	0x3d081ab6	0.0332286
50	0x3dbde14d	0.09271488
51	0xbddd9a75	-0.10820476
52	0x3c5cbfb7	0.013473443
53	0xbd94e4ac	-0.07270178
54	0x3c653779	0.0139902765
55	0x3db739eb	0.08946594
56	0x3de454c2	0.11148979
57	0xbcfe6502	-0.031054024
58	0xbcb2092e	-0.021732893
59	0x3de1b0a6	0.11020021
60	0xbdb8f315	-0.09030739
61	0x3d39422b	0.04522912
62	0x3d36488c	0.04450278
63	0xbddfc70b	-0.10926636
64	0x3cc06783	0.023486858
65	0xbdaaeb19	-0.083456226
66	0xbe21ecce	-0.1581299
67	0x3dea7afb	0.11449238
68	0xbade13ab	-0.0016943117
69	0xbddbf0e6	-0.10739307
70	0xbc7dde14	-0.015494842
71	0xbd1d1429	-0.038349304
72	0x3d6a3bc1	0.057185892
73	0x3e3901b8	0.18067062
74	0xbdeffa2e	-0.1171764
75	0x3e097d35	0.13426669
76	0x3db130e0	0.086519
77	0xbe376bc9	-0.1791221
78	0xbd1ad53c	-0.037801012
79	0x3d643f8d	0.05572467
80	0xbdcada91	-0.099049695
81	0xbe1bd420	-0.15217638
82	0xbd83bec2	-0.064328685
83	0xbe2f28bf	-0.17105387
84	0x3dd1dfc6	0.102477595
85	0xbc15f6f6	-0.009153118
86	0x3e1dd1a9	0.1541201
87	0xbd7d0dfa	-0.061780907
88	0x3df9d17d	0.1219816
89	0x3e2496f2	0.16073206
90	0xbd14b414	-0.03630455
91	0x3cf494e6	0.029856157
92	0x3e028d9d	0.12749334
93	0x3e1ecaea	0.15507093
94	0xbe01df83	-0.12682919
95	0x3d7dfbed	0.062007833
96	0x3d1116e5	0.035422225
97	0x3dc773f9	0.09738917
98	0x3e49d67c	0.19710726
99	0xbd4befa4	-0.049789086
100	0x3dc36598	0.09540862
101	0xbcd97d8e	-0.026549127
102	0xbc449d48	-0.012000389
103	0xbd3db874	-0.046318486
104	0xbd985f92	-0.074401036
105	0x3d54b0c4	0.05192639
106	0x3e6e3e77	0.23266016
107	0x3e73ec5c	0.23820633
108	0xbc6e202c	-0.014534038
109	0xbdeba684	-0.1150637
110	0xbd9b9188	-0.07596117
111	0x3d175206	0.036943458
112	0xbcaadb1f	-0.020856438
113	0xbdf0ea0f	-0.11763393
114	0x3e14326f	0.14472364
115	0x3d80c4ab	0.062875114
116	0xbd59f0fb	-0.053208333
117	0xbd83d139	-0.064363904
118	0x3e2230bd	0.15838905
119	0x3e1ebae1	0.15500976
120	0xbd4a9a32	-0.04946346
121	0x3e4c85fb	0.19972984
122	0x3c82f326	0.015985083
123	0x3e305848	0.17221177
124	0xbdecaf62	-0.11556889
125	0x3e4e3e22	0.2014089
126	0x3da856e3	0.08219697
127	0xbdb706f1	-0.08936871

classifier.0.weight f4 [16, 32]
0	0x34ee8f57	4.4435248e-07
1	0xbcd3c82f	-0.02585229
2	0xb70a2d1e	-8.235946e-06
3	0xbb2555e8	-0.0025228206
4	0x3d23b179	0.039964173
5	0x372d5de6	1.0333466e-05
6	0x3cf2224d	0.029557372
7	0x3cb3635a	0.02189796
8	0x33e8e8c5	1.08456824e-07
9	0x357335e3	9.060297e-07
10	0xb5383656	-6.862441e-07
11	0xbc46c6c2	-0.0121323485
12	0xbbdf724f	-0.0068190466
13	0x34276c99	1.5592595e-07
14	0xb740c0d5	-1.1488989e-05
15	0x3cbb1407	0.022836698
16	0xbc6dbd4d	-0.014510465
17	0xbc01d762	-0.007924886
18	0x3cf8cf52	0.030372296
19	0x3d0382eb	0.032107275
20	0x338be7d2	6.51486e-08
21	0xba294110	-0.00064565334
22	0xbc1964e4	-0.009362433
23	0xbd2414ff	-0.040059086
24	0x3bfea831	0.007771515
25	0x33425a7c	4.525144e-08
26	0xb9b4e340	-0.0003450159
27	0x38143a5f	3.5340312e-05
28	0x3cd9b9a4	0.026577778
29	0xbcbbe59d	-0.022936637
30	0x3d0ee118	0.034882635
31	0x3c7e2400	0.015511513
32	0xbc4c068c	-0.012452733
33	0x3e8850fe	0.26624292
34	0x3e236249	0.15955462
35	0x3d94202d	0.072326995
36	0xbe26252b	-0.16225116
37	0xbd7e4a10	-0.06208235
38	0x3c996c7b	0.018728485
39	0xbe0656a9	-0.13118996
40	0xbd07e8d4	-0.033181027
41	0xbd557824	-0.05211653
42	0x3d8579c8	0.065173686
43	0x3e49aa57	0.19693886
44	0xbe0d039d	-0.1377091
45	0x3ddbb6bf	0.107282154
46	0xbe50f72f	-0.20406793
47	0xbda3e98d	-0.08003531
48	0x3e4eacf3	0.20183162
49	0xbe08e36c	-0.13368005
50	0x3d35d10d	0.04438882
51	0x3db3b81e	0.08775352
52	0x3cac5db8	0.021040782
53	0xbdc0fcec	-0.09423241
54	0x3e19283a	0.14956751
55	0x3deee517	0.11664789
56	0x3c9631cf	0.018334297
57	0x3da13a38	0.078724325
58	0xbd947063	-0.072479986
59	0xbe5ac458	-0.21363962
60	0xbe16d9f7	-0.14731584
61	0x3d30418e	0.043031268
62	0xbc8841a9	-0.016632872
63	0x3d6e71a5	0.05821385
64	0x3e85db8a	0.26144058
65	0xbe2cb5a0	-0.1686616
66	0xbdaa0541	-0.08301783
67	0x3e19b7fa	0.15011588
68	0x3e59d5a8	0.2127291
69	0xbdd2734a	-0.10275896
70	0xbe40f43a	-0.18843165
71	0x3e3c7290	0.18403077
72	0xbe259877	-0.16171442
73	0x3e9f6580	0.31132126
74	0xbda5bb9e	-0.08092426
75	0xbe5ba2da	-0.21448842
76	0xbe756150	-0.23962903
77	0xbe73e0db	-0.23816244
78	0x3d8ce6a4	0.06879929
79	0x3e735c8a	0.2376577
80	0x3e243458	0.16035593
81	0xbe19c7ac	-0.15017575
82	0x3e4fb5a6	0.20284137
83	0xbe1e3570	-0.15450072
84	0xbe051c54	-0.12999088
85	0x3caee41c	0.021349005
86	0x3de582c5	0.11206583
87	0x3dafb3bc	0.085792035
88	0xbdfc1a34	-0.12309685
89	0x3e3a9e57	0.18224464
90	0xbcbe3811	-0.023220094
91	0x3da47c0f	0.08031475
92	0x3e8d990d	0.2765583
93	0x3e830783	0.25591668
94	0xbe1f595a	-0.15561429
95	0x3d9f9b4c	0.077932924
96	0xbd230fbd	-0.03980993
97	0x3e3bb7ef	0.18331884
98	0xbd52ee26	-0.051496647
99	0x3d14f0b8	0.03636238
100	0xbe2ed0e1	-0.17071868
101	0xbdab1ece	-0.08355485
102	0xbd3eb29a	-0.046557046
103	0xbdd59acb	-0.10429915
104	0x3db34e71	0.08755196
105	0xbdbfd117	-0.093660526
106	0xbd694d22	-0.056958325
107	0x3db7852f	0.0896095
108	0xbc907d3a	-0.017637838
109	0x3d89dce7	0.06731587
110	0xbd53a936	-0.051675044
111	0xbe27fac9	-0.1640426
112	0x3e53334a	0.20625034
113	0x3be0e236	0.006862904
114	0xbd87cf24	-0.06631306
115	0xbd8fa0e2	-0.07013108
116	0x3e18dda4	0.14928299
117	0xbd6862d8	-0.05673489
118	0x3e372286	0.17884263
119	0xbdb85e95	-0.09002415
120	0xbd85c792	-0.06532206
121	0x3dd97848	0.10618645
122	0xbe5e3272	-0.21698931
123	0x3ca2dd71	0.019880982
124	0xbd8ff6ab	-0.0702947
125	0xbd438a7a	-0.047739483
126	0x3d4c4a56	0.04987558
127	0x3e6d1cec	0.23155564
128	0xbd984a7c	-0.07436082
129	0x3db0b6fe	0.08628653
130	0x3ddbd93c	0.107347935
131	0x3df202f5	0.1181697
132	0x3cc2c473	0.023775315
133	0xbd0d1695	-0.034445364
134	0xbbe8a6da	-0.0070999684
135	0xbb2c2da6	-0.0026272326
136	0xbbc570e9	-0.006025423
137	0xbe546b17	-0.20743977
138	0x3c93cd32	0.01804218
139	0x3e0c921f	0.13727616
140	0x3ab6b8c6	0.0013940565
141	0xbcbc9394	-0.02301959
142	0xbe008660	-0.1255126
143	0xbdd05d71	-0.101740725
144	0x3de60c25	0.11232785
145	0x3c4f928f	0.01266922
146	0xbd6642fa	-0.056216218
147	0xbcb29bad	-0.021802748
148	0x3d4d3c26	0.05010619
149	0xbc2aa3bd	-0.010415015
150	0x3d51a9b1	0.05118722
151	0x3cfd62fb	0.030930987
152	0xbd4367d2	-0.047706433
153	0x3d03a149	0.032136235
154	0xba992910	-0.0011685211
155	0xbdec522c	-0.115391105
156	0xbaeb5ba2	-0.0017956386
157	0x3cc082db	0.023499897
158	0x3db0f958	0.086413085
159	0xbbb8cc7d	-0.0056396113
160	0x3cf9ec2c	0.030508123
161	0xbe3f5c4b	-0.1868755
162	0xbe8b07b8	-0.27154326
163	0x3e09a38c	0.13441294
164	0x3db1bf3b	0.086790524
165	0x3abe716a	0.001452965
166	0x3c1e0ca0	0.009646565
167	0x3e1c2d8e	0.15251753
168	0xbd10bd18	-0.035336584
169	0x3dae6690	0.08515656
170	0xbe40c55b	-0.18825285
171	0xbdd47303	-0.10373499
172	0xbe0babec	-0.13639802
173	0x3b384489	0.0028117022
174	0x3d2bc2f8	0.041933984
175	0x3e2f32f6	0.17109284
176	0x3ce65dad	0.02812084
177	0xbd81a7cb	-0.06330832
178	0x3d538426	0.0516397
179	0xbe1cd195	-0.15314324
180	0xbdfca52e	-0.12336193
181	0xbd641511	-0.055684153
182	0x3e434745	0.19070156
183	0x3d8b0d7a	0.0678968
184	0xbdd3355f	-0.10312914
185	0x3e2ea2c1	0.17054273
186	0x3d2cf9d5	0.042230446
187	0x3d5fd55b	0.05464683
188	0x3da17562	0.07883717
189	0x3d91f719	0.07127208
190	0xbd8812ff	-0.06644248
191	0xbc5a27d4	-0.01331516
192	0x3e826158	0.25464892
193	0xbe491639	-0.19637384
194	0xbe40667e	-0.18789098
195	0xbcb17001	-0.021659853
196	0x3e95c9e6	0.292556
197	0x3d4041ff	0.04693794
198	0xbe08a57c	-0.13344377
199	0x3e2f7872	0.1713579
200	0xbdb2549f	-0.087075464
201	0x3e214d34	0.15752107
202	0xbe715d8d	-0.23570843
203	0xbd8a6748	-0.067579806
204	0xbe380277	-0.1796969
205	0xbe959647	-0.29216215
206	0x3e88ec85	0.2674295
207	0x3df3e9aa	0.11909802
208	0x3e2651cf	0.16242145
209	0xbe03b103	-0.12860493
210	0x3e53b52e	0.20674583
211	0xbdb8b1c9	-0.09018285
212	0xbe014390	-0.1262343
213	0xbc8238c7	-0.015896214
214	0xbd97ce2c	-0.07412371
215	0x3e888317	0.26662514
216	0xbe67dac0	-0.2264204
217	0x3e5a6eb9	0.213313
218	0xbe4bf8a1	-0.19919063
219	0xbd0b9a27	-0.034082558
220	0x3d9b3fe5	0.07580546
221	0x3e5a1967	0.21298753
222	0xbe194525	-0.14967783
223	0x3d66f006	0.056381248
224	0x3d7a071f	0.061041947
225	0xbd26c244	-0.04071261
226	0x3df21d08	0.118219435
227	0x3dfa1797	0.12211531
228	0x3c792b9f	0.015208154
229	0xbd8cd21a	-0.06876011
230	0x3d96957d	0.073527314
231	0x3d312033	0.0432436
232	0xbcf72a60	-0.030171573
233	0x3dd93031	0.10604895
234	0x3cf2c6de	0.029635843
235	0xbca20757	-0.01977889
236	0xbe022e5b	-0.12712996
237	0xbdde0c72	-0.108422175
238	0xbe2ae84d	-0.16690178
239	0x3df62193	0.120181225
240	0xbe19438d	-0.14967175
241	0xbd37814c	-0.04480104
242	0xbdb2e637	-0.08735316
243	0x3da3186e	0.07963644
244	0xbcdc00ba	-0.026855815
245	0x3db38ba9	0.087668724
246	0xbe25c714	-0.16189224
247	0xbdd14981	-0.10219098
248	0xbdcf31b9	-0.10116906
249	0xbe3f7fdc	-0.18701118
250	0xbde9d985	-0.11418442
251	0xbd79be30	-0.060972393
252	0x3d29bf54	0.04144223
253	0x3d981e2e	0.07427631
254	0x3e5a5980	0.21323204
255	0xbcb1bebd	-0.021697396

classifier.0.bias f4 [16]
0	0xbcfcf902	-0.030880455
1	0x3d0aaedc	0.033858165
2	0x3df9d0ad	0.12198005
3	0x3d8fd80f	0.07023632
4	0x3d65a586	0.05606606
5	0xbc8f4be0	-0.017492235
6	0x3e16f051	0.14740111
7	0xbdc1350a	-0.094339445
8	0x3dee8c54	0.11647859
9	0x3dcd3fbd	0.10021923
10	0xbd3611aa	-0.04445044
11	0xbcfce038	-0.030868635
12	0xbd239e36	-0.039945804
13	0x3d033089	0.03202871
14	0xbd6d8872	-0.057991453
15	0xbc2839c8	-0.010267682

classifier.3.weight f4 [1, 16]
0	0xb491ea6e	-2.7178925e-07
1	0x3ebcd263	0.36879262
2	0xbe51b1c6	-0.20477971
3	0x3e15f7f6	0.14645371
4	0x3dc3b007	0.09555059
5	0xbe91415c	-0.28370178
6	0xbe433e91	-0.19066836
7	0x3e139d07	0.1441537
8	0x3e9e2632	0.30888516
9	0x3dba7ff1	0.09106434
10	0x3e6f28d0	0.23355412
11	0xbce68cd6	-0.028143328
12	0xbe121c00	-0.14268494
13	0x3dd40fe8	0.103545964
14	0xbe7f94f9	-0.24959172
15	0x3e392309	0.18079771
