best_model.pth (torch, 23285 bytes, 19 tensors)

network.0.weight f4 [64, 11]
00000000: 1a72 f03c 46cb 113e bb11 463e a1c8 6d3c
00000010: 127d 54bd 154c 2fbe a498 1b3e 1091 2bbd
00000020: 3d03 943c 18bb 92be 20a5 953d bfde a9bb
00000030: 81c5 eb3c 4a92 83be 3617 a33e f192 44be
00000040: a696 a4bd 5456 6e3c 9ae9 94bd 536a d93d
00000050: 8bee 0c3e 20b9 2a3e 71db 2a3e c5da 5e3d
00000060: 1f28 a6be 42ba 6cbe c932 063e f080 20bd
00000070: 3903 c1bd 9093 72be fc6e b0bc 6393 16be
00000080: d5a9 213e 4cdc 12be ac79 11bc 2a2e 59be
00000090: 3518 393e 1131 33be 9560 48bd 4d34 933c
000000a0: 5257 45bd d4a0 573e 2d4b 3cbe e757 fabc
000000b0: 8027 ffbd faa1 66be c9f2 23be 73ec 60bd
000000c0: 4b6f 5ebe 2e95 abba a726 26be 787d 33bd
000000d0: 3a7d 3dbb 09fe 103e 209b 283e 5089 91bd
000000e0: 8713 0b3e a909 82be 491e 58be cb16 043d
000000f0: 0b07 17be 062a 873d 2647 80bd 1235 043c
00000100: b449 a3bd 0c93 083e 0568 32bd ef46 01be
00000110: 5506 32be b4bf afbe 2826 033e 3616 3cbe
00000120: 65fc 2e3e f5eb 2cbe 331d fb3d 8d6f 123e
00000130: fac3 723e e6c0 1abe 9124 6a3e 0c98 483d
00000140: cbdd 73be 77d5 bf3d 3f77 05be 0aaa 90bd
00000150: ed2a a0bd 25d0 403c 15f0 f7bd 0cff 51be
00000160: 1fa6 5f3c ced4 04be 5d76 5d3e 642b 973e
00000170: 73ed d9bd ce47 ff3d 3b23 70bd d481 6e3e
00000180: 22cc a8bd 8c15 2b3d 1c7e e7bd 01c2 b13d
00000190: da33 84be f45b 28be 93bd 8d3d a831 c9bd
000001a0: 2634 483e 4529 0ebe 41e3 76be 5725 c93d
000001b0: 0df2 abbd d74c 03bd b3a3 28be 9ac3 053e
000001c0: c15b 1dbe 918d 99be f31a f2bd a306 273e
000001d0: 6313 fbbc 984a 40be 24be 823d e19a 80be
000001e0: 6107 98bd 1397 3fbe 62ca 133e ac22 76be
000001f0: aeff a3bc 0746 53be 402d 203c 3b70 4cbe
00000200: 9581 1abe 367b 273d 80ab dd3d a2dc 0dbc
00000210: a4e5 1d3c f228 4dbb 150e eabc b2ef aebd
00000220: 8b07 76bd d5aa 093e 4c64 dfbc 6394 603e
00000230: 0721 0bbe 180a 813e cb38 07be 9cf3 3bbe
00000240: 9f6c c53b 2e81 16be 6930 14bd ee70 ee3d
00000250: 722e 623e 7e95 49be e95f 1abe 91de 3a3e
00000260: 2b82 40bd a73c c7bc 2afd 6bbe 3c3b 46be
00000270: 3d42 893d 7a76 9b3e 08ac 3f3d 2652 54be
00000280: d062 8fbb 0b8d 9d3d 624f 00be 0d56 c33d
00000290: 3bfb ab3d 392d 04bd 587b 48be aa7d 1cbe
000002a0: bac9 b63b 6b77 0f3e af26 01be e8b7 77be
000002b0: 2489 11be 8a94 283d 0eec c63c 90ce 123e
000002c0: d977 a53c cff5 c43d 82a4 6fbe 34c5 753e
000002d0: 925a cb3d 8268 21bd 3ee6 853d 2c74 1dbe
000002e0: 6033 863e e3b1 0c3e 17d0 713e 6622 b9bd
000002f0: db92 70be 908e 5abd 0795 c8bd f348 653e
00000300: bf67 f2bc f621 f9bd 4973 6a3e 065b 103e
00000310: c3df be3e a972 c0bc 1cd1 17bd b7d6 a83e
00000320: 8fa7 39be 4a95 c43b 133e 39be 26fa 1d3e
00000330: 5d7d bdbd 9e72 cb3c 9105 f5bd b4dc e0be
00000340: 1465 763e d224 8fbd 3bde 383d b210 4bbd
00000350: cc26 c1bd b886 4bbe 3c78 f9bd 4f8b 863e
00000360: 6444 51be 9ba7 163e ade0 88bd 4926 0dbe
00000370: 939a 343e 825c 4ebe 176d eabd 17c5 8cbd
00000380: 442e 7bbe 96cd bf3c a56d de3c a196 64be
00000390: 00de c3bd 3f1e 99bd f5f8 6abe 075e 9e3d
000003a0: b17b 33bd f868 103e 42c2 84bd 2721 5f3d
000003b0: 14a0 e1bc 5a59 893d 47b3 2b3d 76a4 05be
000003c0: 1554 04bf d08d b03e ef47 fcbc 707b e93d
000003d0: c1ef 2f3e 33df 433e 6c15 493e 0993 aa3d
000003e0: 5b04 933e a0a5 86bd 226e ab3d ae43 f0be
000003f0: 40ad 47bd 8706 1dbe f178 f03d b365 9bbd
0.029351283 0.14237699 0.19342701 0.014513166 -0.05187709 -0.17118867 0.15194947 -0.04188639
0.01806795 -0.28658366 0.07306886 -0.005184024 0.0287807 -0.25697547 0.31853646 -0.19196679
-0.080365464 0.014546949 -0.072711185 0.10615983 0.13762872 0.16672182 0.16685273 0.054407854
-0.32452485 -0.23117927 0.1310531 -0.039185464 -0.09424443 -0.23689103 -0.021537296 -0.14704661
0.15787442 -0.14341849 -0.0088791065 -0.21209016 0.1807564 -0.17499186 -0.048920233 0.017969275
-0.04817898 0.21057445 -0.18388052 -0.030559493 -0.12458706 -0.22522727 -0.16010584 -0.054912996
-0.21722142 -0.0013090724 -0.16225682 -0.04382083 -0.0028913752 0.14159407 0.16465425 -0.071062684
0.13581668 -0.25397995 -0.21105303 0.0322483 -0.1474878 0.06599812 -0.062635705 0.008069294
-0.07973042 0.13337344 -0.043556232 -0.12624715 -0.17385228 -0.34325945 0.12807524 -0.18367848
0.17088468 -0.16886885 0.12261429 0.14300366 0.23707572 -0.15112647 0.22865511 0.04897313
-0.23815076 0.09366887 -0.1303377 -0.070636824 -0.078206874 0.0117683755 -0.12106339 -0.20507449
0.013650446 -0.12971804 0.21627183 0.29525292 -0.10640993 0.124648675 -0.05862735 0.23291713
-0.0824206 0.041768596 -0.1130335 0.086795814 -0.2582081 -0.16441327 0.06920924 -0.09823924
0.19551143 -0.1388293 -0.24110128 0.09821575 -0.08395777 -0.032055702 -0.16468696 0.13062897
-0.15367033 -0.2999082 -0.118215464 0.16311125 -0.030648893 -0.18778455 0.06383923 -0.25118163
-0.074232824 -0.18709974 0.14432672 -0.24036664 -0.020019379 -0.20632182 0.009776413 -0.19964688
-0.15088494 0.040888987 0.10823727 -0.00865856 0.00963727 -0.0031304923 -0.028571168 -0.08541812
-0.060065787 0.13444073 -0.027269505 0.21931605 -0.13586818 0.25203013 -0.13205259 -0.18354648
0.0060249115 -0.14697716 -0.03617898 0.116426334 0.2208803 -0.19685933 -0.1507565 0.18248965
-0.046999138 -0.024320913 -0.23045793 -0.19358534 0.06702087 0.30363828 0.04679492 -0.20734462
-0.004375793 0.076929174 -0.12530282 0.09537897 0.08397528 -0.03226969 -0.19578302 -0.15282312
0.005578247 0.14010398 -0.12612413 -0.24191248 -0.14212471 0.041157283 0.024282482 0.1433661
0.02019875 0.09617197 -0.23402599 0.24001008 0.09929384 -0.039406307 0.06538056 -0.15376347
0.2621107 0.13739733 0.23614536 -0.09039764 -0.23493521 -0.053358614 -0.0979405 0.22391109
-0.029590486 -0.12164681 0.2289554 0.14097223 0.37280092 -0.023492174 -0.037064657 0.32976314
-0.18130325 0.005999242 -0.18090086 0.15427455 -0.09252427 0.024834927 -0.11963952 -0.43918383
0.24061996 -0.06989445 0.04513381 -0.04957647 -0.09431228 -0.1987561 -0.12181136 0.2627816
-0.20436245 0.14712374 -0.066834785 -0.13784136 0.1763709 -0.20152476 -0.114465885 -0.068735294
-0.24529368 0.02341346 0.027151892 -0.22323085 -0.095638275 -0.07476472 -0.22946532 0.07732778
-0.043819133 0.14102542 -0.06482364 0.054474976 -0.027542152 0.067064956 0.04191902 -0.13051018
-0.516908 0.34483194 -0.03079602 0.11400497 0.17181303 0.19128112 0.19637078 0.08328826
0.2871426 -0.06574559 0.083706155 -0.46926636 -0.04874921 -0.15334521 0.11741818 -0.07587757

network.0.bias f4 [64]
00000000: ca95 943d 2fe3 59be 35fd febc 7587 acbd
00000010: 5e6e 80bd 0000 0000 2048 25bd 0000 0000
00000020: 943a f83c 21c2 893d dadc f4bc 3102 b7bb
00000030: ec6e 563d 3566 5ebd 7024 80bd 781b a3bc
00000040: e063 aa3c e227 0e3c 1ed6 993c 9b1d 693d
00000050: 2b29 a13c e7e8 cc3d f618 2b3b 68ee 84bd
00000060: d2d2 05bd 6f3a 2f3d e099 55bd 603a 88bd
00000070: a96a 0c3d 98c3 1cbd 9025 213d 3701 e93c
00000080: 5c28 d7bc 0000 0000 b941 d7bd aedd 3dbd
00000090: 7ce0 8f3d e6ba ae3c af8f 99bb 2c18 b0bb
000000a0: 6cef 21bc 3761 9a3d 54e1 173b 2b51 c63c
000000b0: 48f9 80bc 01fc 84bc 3c8c 853b ed45 cc3c
000000c0: 5f0c 1a3d 37b7 24bd 35b2 54bc 0000 0000
000000d0: 1317 80bd bf09 84bd 54f1 ffbc 26a8 c0bc
000000e0: 8e68 493d da52 123c c4fb 943c 3763 5bbb
000000f0: c127 1cbe 881b f0bc 2e7f 3d3c d7d4 983d
0.072551325 -0.2127807 -0.031126598 -0.08424274 -0.06271051 0.0 -0.040351987 0.0
0.03030137 0.0672648 -0.029890466 -0.005584978 0.052351877 -0.05429669 -0.0625695 -0.019910559
0.020799577 0.008676501 0.018778857 0.056913 0.01967295 0.1000536 0.0026107407 -0.06490785
-0.032671757 0.042780336 -0.0521487 -0.06651759 0.034281407 -0.03827247 0.039342463 0.028442962
-0.026264362 0.0 -0.105105825 -0.04635399 0.07025239 0.021329354 -0.004686318 -0.0053739753
-0.009883743 0.075380735 0.0023175078 0.024208626 -0.015743867 -0.016233446 0.004075555 0.024935687
0.037609454 -0.04021379 -0.012981941 0.0 -0.06254401 -0.064471714 -0.031243004 -0.02351768
0.049171977 0.008930886 0.018186457 -0.0033475885 -0.1524954 -0.029310003 0.0115659665 0.07462471

network.2.weight f4 [64]
00000000: d843 693f d10d 853f fe5a 613f 1a9d 843f
00000010: 1ffe 683f cfef 693f 20d1 883f cfef 693f
00000020: 5236 6d3f 7c9a 713f b35b 663f 8e82 683f
00000030: 7709 5b3f 6617 613f dcdb 6d3f 7d11 693f
00000040: c0f3 6b3f 0b0d 533f 834a 703f f501 743f
00000050: 7d3f 623f 1572 5a3f ffd0 663f c363 563f
00000060: f3d4 4a3f e11e 7b3f ee0a 8f3f d9f0 843f
00000070: b096 5a3f fbc2 5b3f cb97 3e3f cbca 623f
00000080: 0173 453f cfef 693f bfc8 643f bb8e 7d3f
00000090: b3ea 493f e430 5c3f 40d8 5b3f 5626 563f
000000a0: a07a 5b3f f7c4 513f 6a32 653f c845 653f
000000b0: 73e0 4b3f 7f85 7e3f b97c 4d3f 0c44 623f
000000c0: b3f3 7c3f 8378 703f 09a6 523f cfef 693f
000000d0: b01d 7e3f b25c 413f bed7 703f 2b00 653f
000000e0: cfe5 653f 32f0 2c3f abb0 863f 50d8 723f
000000f0: 064b 5c3f ffb1 703f 2be0 6a3f 7b87 773f
0.91119146 1.0394841 0.8802947 1.0360444 0.9101276 0.91381544 1.068882 0.91381544
0.9266101 0.9437635 0.8998367 0.9082421 0.8556132 0.8792633 0.92913604 0.9104231
0.9216881 0.82441777 0.93863696 0.95315486 0.88378125 0.85330325 0.9016265 0.83745974
0.79231185 0.9809399 1.117521 1.0386001 0.8538618 0.8584439 0.7445037 0.8859069
0.7712861 0.91381544 0.89368814 0.99045914 0.7887375 0.860121 0.85876846 0.83652246
0.85733986 0.8194117 0.8953005 0.895596 0.7963936 0.9942245 0.80268437 0.8838508
0.98809355 0.93933886 0.822846 0.91381544 0.9926405 0.75532067 0.94079196 0.8945338
0.89803785 0.6755401 1.0522665 0.94861317 0.86051977 0.940216 0.91748303 0.966911

network.2.bias f4 [64]
00000000: 5b13 2c3e 8b5d ddbc 3ffc 663d 5e58 16be
00000010: 24f0 81bd 176f 573d d168 98bd a835 95bd
00000020: 181f d83d dd8c 943d 01b4 a93c 76b0 463e
00000030: 07dd 8cbd cb0a d93d 1254 b13d bf0e bebd
00000040: df18 84bd ed0e 13be 7cb5 5f3d 79f4 a13d
00000050: 4947 9a3c cb68 d33d 7284 813e 591d cbbc
00000060: c3ee f23b e963 503e f2d1 33be c5fa 493d
00000070: fe6c 233e 4e97 373d 934e 3bbd d1a9 1f3e
00000080: 15aa 903d 3752 bb3d 284d e23d a770 d2bd
00000090: e2ae 533d f3d0 533c 4edb 7c3e c36e b13d
000000a0: 4189 b43c 9364 953c 68b5 0cbe e558 aebd
000000b0: 6a9a 8cbe 72a9 f83c f124 00be f2bc b4bd
000000c0: 8588 f33d e6e2 2c3e b063 063e ed88 43bd
000000d0: 4fa9 cb3d 5030 4b3d 3b4f d23d 6e97 1dbd
000000e0: 46f8 273e 5664 e8bd d078 85be 3354 9a3d
000000f0: e497 0f3e b2a3 77be 2115 933d b47c a43d
0.16804259 -0.027022144 0.056392904 -0.14682147 -0.06344631 0.052596178 -0.07441867 -0.07285625
0.10552806 0.0725343 0.020715715 0.19403252 -0.06878095 0.10597762 0.08658613 -0.09280156
-0.06450056 -0.14361162 0.054616436 0.079079576 0.01883282 0.10322722 0.2529636 -0.024794267
0.0074137165 0.20350613 -0.17560557 0.049311418 0.15959546 0.04482203 -0.04572923 0.15592124
0.070636906 0.091465406 0.11049873 -0.10275393 0.051680453 0.012928235 0.24693033 0.08663704
0.022038104 0.018236434 -0.13741076 -0.08513049 -0.2746156 0.030354235 -0.12514092 -0.08825101
0.118912734 0.1688343 0.13123965 -0.047738004 0.099444024 0.04960662 0.10269018 -0.038474493
0.16403303 -0.113472626 -0.26068735 0.07535591 0.14022785 -0.24183539 0.071817644 0.08031598

network.2.running_mean f4 [64]
00000000: e6ba 463e eaeb 563c edcd e038 a7dc 673c
00000010: 9234 4a20 0000 0000 b561 2438 0000 0000
00000020: 2132 bf3e d821 833c 2ab3 d437 0400 0000
00000030: f4f9 923d 1729 6438 6aa4 333d 0400 0000
00000040: 0d73 8c3e 8e54 c63d 41fe 323d b0d5 e43b
00000050: b8ad 213b c346 b53d 636c 5e3e 3338 3025
00000060: 0057 5639 4af2 8a3d ad55 0d3c 8634 e236
00000070: 63f2 9a3e c1b6 b700 5c0b 4f3e f3f1 e43e
00000080: 0d8b f73d 0000 0000 eaf9 1a3e 0400 0000
00000090: ada4 fa3e 6de0 a13e 3fda 7d3e a6b5 6f3e
000000a0: 0969 593c 73dc 953e 72f9 a13e 2fdf 053f
000000b0: bfb8 203e d3f8 6b3d 450d af3e 4389 b13e
000000c0: e100 123e 0400 0000 6faf 0d3e 0000 0000
000000d0: bf73 383d 436f 093b 2d14 413e b53c 6339
000000e0: 6709 c43c 5b24 333e c523 a13c 7d23 413b
000000f0: 7da6 e93c b910 043d d08f 793c 7c40 8f3b
0.19407234 0.01311777 0.00010719509 0.014151729 1.712746e-19 0.0 3.9191644e-05 0.0
0.37342933 0.016007349 2.53558e-05 6e-45 0.07176581 5.4397704e-05 0.04385797 6e-45
0.27431527 0.09684096 0.043699507 0.0069834813 0.0024670195 0.08851387 0.21721034 1.5284608e-16
0.0002044104 0.06784494 0.008626384 6.7414394e-06 0.3026305 1.6871456e-38 0.20219177 0.44715843
0.12087069 0.0 0.15134397 6e-45 0.48953763 0.31616536 0.24790286 0.23409137
0.013269671 0.29269752 0.31635624 0.52293676 0.15695475 0.057610344 0.3418981 0.34675035
0.14258148 6e-45 0.13836454 0.0 0.04503226 0.0020970858 0.18855353 0.00021671022
0.023930265 0.17494337 0.019670377 0.0029470616 0.02852177 0.03224251 0.0152320415 0.004371701

network.2.running_var f4 [64]
00000000: f176 113c 0370 e439 79ac 8236 205e 243a
00000010: 7f37 f11c 0400 0000 b3b4 e935 0400 0000
00000020: 388e 4e3c 485d b53a 1ffb fc34 0400 0000
00000030: a432 cd3b 8602 8535 d740 2a3b 0400 0000
00000040: 2d97 1c3b 5128 b43c a302 493b 0a62 033a
00000050: df86 5239 9e85 083c 235a 353c 982d bf22
00000060: bff1 7237 dc33 323b 96dd 3b3a 8e97 ae34
00000070: 3ac9 e03c 9655 0000 6a72 a03c b9c3 bf3c
00000080: b799 9f3c 0400 0000 8a75 2d3c 0400 0000
00000090: 6a43 793c 49c5 253c 5d81 a03c 4e40 293c
000000a0: f393 943a e416 1e3c 8bfc 993c 4f0e c53c
000000b0: eb07 b03c 29f4 cc3b 7ee7 b83c 7e51 823c
000000c0: a25a 0c3c 0400 0000 805b 7a3c 0400 0000
000000d0: 68bf 5f3b 47f4 9138 49aa 813c 242c dd36
000000e0: 2bb9 043b 82e8 343c e2d5 dd39 46e0 9f39
000000f0: 3efe 2d3b 6f29 f33a 0375 9e3a fcdc 043a
0.0088784555 0.00043571004 3.8943804e-06 0.0006270129 1.5962388e-21 6e-45 1.7412443e-06 6e-45
0.01260715 0.0013837004 4.7121372e-07 6e-45 0.0062621403 9.910007e-07 0.002597859 6e-45
0.0023893819 0.02199188 0.0030671738 0.00050118624 0.00020077404 0.008332638 0.011068854 5.181893e-18
1.448061e-05 0.0027191555 0.0007166503 3.2520296e-07 0.027439702 3.0702e-41 0.019585807 0.023408758
0.019482477 6e-45 0.0105871055 6e-45 0.015213827 0.010117837 0.019592935 0.010330273
0.0011335596 0.009649012 0.01879718 0.024054674 0.02148815 0.006254692 0.022571322 0.015908
0.00856653 6e-45 0.015280604 6e-45 0.0034141187 6.959639e-05 0.015828269 6.591452e-06
0.002025197 0.011041762 0.0004231176 0.0003049394 0.0026549245 0.0018551777 0.0012089316 0.00050683296

network.4.weight f4 [32, 64]
00000000: fcea 183e e24c be3d 9afa 303d d64a 613c
00000010: 92ae a2bd fbe2 513e 580c fa3d 69fd 02be
00000020: e250 6a3d d1d8 953e 95dd 5c3e a854 ef3d
00000030: 74f9 d9bc 23c9 d6bb c227 e83d bff8 b93d
00000040: ec55 1c3e cc6e 1c3c 52d2 0c3e 72c4 8c3c
00000050: e49f e83d 2430 dc3c 0e19 a53d 6b06 8ebd
00000060: 1709 05be 9d46 de3d 7142 6e3d 0370 23be
00000070: c275 c13d 34cb 993e 225f e13d bbc5 10bc
00000080: 9095 26be 7b3f 8cbe efdd 11be 4eb8 20be
00000090: 2b5a 1fbe 6ccf eb3d 0a5e bbbd b8d6 5dbe
000000a0: 475e 29bd 985b 93bd eb69 a73d 21e4 6dbd
000000b0: 8902 3a3d 1efa 763d 6053 82bd 8edf 56be
000000c0: 1734 5d3d 929b cbbd 556e 903d 43b1 3d3e
000000d0: a61e d0bd fa94 d1bc de45 84be 29f8 493d
000000e0: 688b 58bd d6c3 babc 73e2 b6bc fd63 1bbe
000000f0: 368c ff3d cc45 8fbe 0678 5fbd 96df 033e
00000100: c30a 1a3e 6e22 433d 21a2 0a3e 22a9 d23d
00000110: 790d bb3a c2c0 82bd 3d95 8a3d 7958 fa3c
00000120: 7d3a b83d c3ff 193e b594 2d3e ad99 c13d
00000130: 4788 0abe 3770 a03d 1b8a 333e 6caf 173e
00000140: 0eb1 2dbe 8624 94bd ecd8 5e3d 1320 e4bd
00000150: c257 cfbd 3be5 a23d 4623 863e 0844 b2bd
00000160: fbad 3bbe cd79 25bd 3a3c 913e 21a6 7fbb
00000170: 1be8 3e3d 5f4e a3bd 3713 cebb 6fe5 493e
00000180: 093e 2a3d 76dc f7bd 7c2c 823d 3dae 3cbe
00000190: 8dd4 623c e610 5a3c 86e5 76bd 0d1c 05be
000001a0: 6d9f e8bb 31bb 603e 37ed 0a3d 2f15 9b3d
000001b0: 2e4b 403e 7084 173e 41b4 2dbd 9e2e eb3c
000001c0: eb83 433e 32cf 14bd 9212 c83c 9981 143e
000001d0: 6c03 863e aaae 17bc 1d5c 543e e7da 9f3d
000001e0: aa90 ae3d e07d 31be aaae 9cbd b21b 963d
000001f0: 2fad 103d ce3e 91be e84f e7bd e720 063e
00000200: 511b c13d ee20 69bd 78da babd 7da2 72bd
00000210: c255 7cbd ebcf 61bd 9cc6 1bbe 33d0 6ebe
00000220: b446 00be ee07 c93c 5039 2bbd ebd8 1d3e
00000230: 11ee 07bd 9a6f 9a3d b65b ab3d 6cb9 3fbd
00000240: 8b08 13be c84e 68be a803 283d f39e 643e
00000250: a5e8 673e aff8 adbd 9765 eb3c e382 383e
00000260: fb99 c6bd 6d1d ab3d 3cc6 a73e 39cb 173e
00000270: c0fd cf3d 7434 93bb 6d46 3d3d cc08 40be
00000280: 4be0 5e3c 7725 12be 29c7 093e 5883 1b3e
00000290: 3977 753c e726 9f3d 1969 333e 15de 133e
000002a0: ff31 513e 4b2c bb3d b4d0 b8bd da3f 4a3e
000002b0: e8c4 88bd 87f0 6e3e 7b28 583d 4630 073e
000002c0: 4646 90bd 5465 20be 9308 f23d e88b 693e
000002d0: f593 033e ca21 5bbd 28b1 1c3c 87a9 6d3e
000002e0: 485a 963e 1b89 563d cb33 2c3e c6eb b3bd
000002f0: 99e0 a83d e63f 64be ed51 a03e 4111 10be
00000300: b02c 0fbb 7183 003d c650 173e 744a 913d
00000310: 2d52 9cbd 160d af3e 1f6f 1abe 1579 83bd
00000320: 1277 a1bb a654 243e 312f c53c 5d6c 553d
00000330: 923e 36be 6fcc e93c 03d5 443e e4ac e63d
00000340: 9398 b43d 402f 41be ebf6 b63d ef0c 09be
00000350: c056 363e 7cfa d8bd c054 1b3e 018f e63d
00000360: fa71 0fbe 0cbe 6dbd c400 073e d1d5 83be
00000370: afd5 a23d d007 2abe 3748 19bd d76d ffbc
00000380: e356 993d 63d3 7c3e 927d a73d f997 e43d
00000390: 241a 8bbc 6e67 503d 3039 b03c 00d1 853d
000003a0: 0e61 33bd a0ff 233e cd89 16be f304 55be
000003b0: 71b5 07bd 5928 53bd fe2c 92be e38d 5b3d
000003c0: 9064 783d f5fb d33d 04e4 383e 5997 d1be
000003d0: 67a4 cabd 2672 713d ed11 85be a4eb fcbd
000003e0: d8d7 213e 52af 1abe f80e 5b3e de55 873d
000003f0: 9921 ec3d 0641 673c e5c5 37bd 1937 82be
0.1493339 0.09292008 0.043207742 0.013750752 -0.07943453 0.20496742 0.12209386 -0.12791981
0.057206042 0.2926698 0.21568902 0.11686069 -0.026608206 -0.006554739 0.11335708 0.09080648
0.15267152 0.0095479 0.13752106 0.017183516 0.11358622 0.026878424 0.080614194 -0.06934818
-0.12991749 0.10853312 0.058168832 -0.15960698 0.09446289 0.30037844 0.11004473 -0.008836205
-0.16267991 -0.27392182 -0.14244817 -0.15695307 -0.1556174 0.11514172 -0.09148796 -0.2166394
-0.041349676 -0.071952045 0.08174499 -0.05807889 0.045412574 0.060297124 -0.06363559 -0.20983717
0.054004755 -0.09941782 0.07052294 0.18524651 -0.10162096 -0.025583733 -0.25834554 0.04930893
-0.052867323 -0.02279846 -0.022324776 -0.15174861 0.12477915 -0.27982938 -0.054557823 0.1287826
0.15043168 0.047640257 0.1353841 0.10286166 0.0014270983 -0.06384422 0.06766746 0.030559765
0.08995531 0.15038972 0.16951258 0.094531395 -0.13528548 0.07833903 0.17533152 0.14813012
-0.16962072 -0.07233529 0.05440609 -0.1113893 -0.1012416 0.079538785 0.26198786 -0.08704382
-0.18328087 -0.04039936 0.28366262 -0.0039008933 0.04660807 -0.079739325 -0.0062889117 0.19716428
0.041563068 -0.121025965 0.06356141 -0.18425842 0.013844621 0.013309693 -0.060277484 -0.12998982
-0.007099083 0.21946408 0.033917632 0.075724 0.18778679 0.14796615 -0.04240823 0.028708752
0.19093291 -0.03633041 0.024422918 0.14502563 0.26174486 -0.009257952 0.20738263 0.07805424
0.08523686 -0.17333174 -0.07650502 0.07329501 0.03532141 -0.2836823 -0.11294538 0.13098489
0.09429038 -0.05691617 -0.09123701 -0.059236992 -0.061605223 -0.055129927 -0.15212482 -0.23321609
-0.12526971 0.024539914 -0.041802704 0.15414779 -0.033186022 0.075408176 0.08367102 -0.04680769
-0.14358728 -0.22686303 0.041019112 0.2232626 0.2264734 -0.08494698 0.028734965 0.1801868
-0.09697338 0.08355222 0.32768428 0.14823617 0.10155821 -0.004492337 0.04620974 -0.18753356
0.01360328 -0.14272104 0.1345488 0.15186822 0.014982038 0.07771092 0.1752056 0.14440186
0.20429228 0.091393076 -0.09024182 0.1975092 -0.06678182 0.23333941 0.05277298 0.13202009
-0.070446536 -0.15663654 0.11818042 0.22807276 0.1284941 -0.05349902 0.009563722 0.23209201
0.29365754 0.052376848 0.16816632 -0.087852046 0.082459636 -0.2229 0.31312504 -0.14069082
-0.0021846704 0.031375352 0.14776906 0.07094279 -0.07632861 0.3418967 -0.15081452 -0.06419579
-0.0049275244 0.16047916 0.024070354 0.052105296 -0.17797306 0.028539864 0.19221883 0.11263445
0.08818164 -0.1886568 0.089338146 -0.1338384 0.1780653 -0.10594651 0.15169048 0.112577446
-0.14008322 -0.05804257 0.13183886 -0.25749066 0.07950913 -0.16604543 -0.037422385 -0.031180305
0.074872755 0.24690013 0.081782475 0.11161799 -0.016980238 0.05087989 0.021511644 0.06534004
-0.04379373 0.16015482 -0.14701004 -0.20802669 -0.03313202 -0.05155215 -0.2854995 0.05360211
0.06064278 0.10350791 0.18055731 -0.40935782 -0.098946385 0.05894675 -0.2599024 -0.123496324
0.15804994 -0.15105942 0.21392429 0.06608175 0.11529846 0.014114624 -0.04486646 -0.2543266

network.4.bias f4 [32]
00000000: d455 8fbc b419 ecbc 094d 853c 1fb4 0d3e
00000010: c1ce 1e3e fc6c ad3d 4c4e f03d c8d9 db3d
00000020: 70b4 4fbd 130a b9bd 0bb1 003d bb7d b53d
00000030: c8ae 1e3e 9655 bb3d bfdc 1d3b 5b17 893d
00000040: 06a6 63bd 798f 953d 7de7 2abd 48da 5b3d
00000050: 45ee db3d d8a3 d2bd 442a d33d 3fd6 38bd
00000060: 3f0b 3e3e 1b05 ddbc bc54 1c3d 767e 403d
00000070: 9d84 ccbc ac19 87bd 7b99 9a3d a6d9 11be
-0.01749698 -0.02882085 0.016272085 0.13838242 0.15508558 0.08468053 0.11733684 0.10734898
-0.050709188 -0.09035125 0.03141884 0.08861872 0.15496361 0.091471836 0.0024087874 0.06693908
-0.055578254 0.07302756 -0.04172467 0.053674966 0.10738806 -0.10285157 0.10310796 -0.045126196
0.18558978 -0.026979974 0.038166746 0.046995603 -0.024965579 -0.065966934 0.07548805 -0.14243183

network.6.weight f4 [32]
00000000: 8b0a 6c3f a245 703f 9299 5f3f 9658 683f
00000010: 36a3 4f3f 83f5 583f 4d36 7b3f 6f3b 6f3f
00000020: c1d4 3f3f b35e 823f 80d8 7b3f 1b17 603f
00000030: 5db6 393f 0a4a 773f 4c61 843f 1878 5e3f
00000040: a907 7f3f 59e0 703f 9d4d 673f e5c0 713f
00000050: 4d2c 703f 4c92 6a3f b4d5 6e3f fdf8 793f
00000060: 7e87 753f 024a 5b3f 6855 7c3f 170b 793f
00000070: 8386 823f f443 583f 36e8 763f 6a44 5c3f
0.9220359 0.9385625 0.87343705 0.9076017 0.81108415 0.8474962 0.9812973 0.93450063
0.7493401 1.018515 0.9837723 0.87535256 0.7254389 0.9659735 1.0342193 0.86902
0.99621063 0.9409233 0.90352803 0.9443496 0.938176 0.9162948 0.93294835 0.9764555
0.9590987 0.856598 0.9856782 0.97282547 1.01973 0.8447869 0.96448076 0.8604189

network.6.bias f4 [32]
00000000: 5021 a83d 7626 503c 297e 643e e752 063e
00000010: d137 e43d c504 39bc f631 a93c 4c58 093e
00000020: 647c b03d 5741 b53d 48a1 1f3e 1567 263d
00000030: acb2 6b3d 5a63 0abe a6f6 833d d8b2 aa3d
00000040: 0e35 d3bd 4f0e 5b3e 7ddd 55bd 685e 1f3e
00000050: ff58 adbd 4ff7 453d 48f0 253c 2439 2f3d
00000060: af09 f3bd 2f9e 943d c1ea 2ebe cf78 913d
00000070: 5f87 55bd 5dda 8ebd 1ddc 813d 53a7 653d
0.08209479 0.012704482 0.22313751 0.13117562 0.11143459 -0.011292641 0.020653706 0.13412589
0.08617476 0.08850353 0.15588868 0.04062565 0.05754344 -0.13514462 0.06443529 0.08334893
-0.10312854 0.21392177 -0.05221318 0.15563357 -0.0846424 0.048331555 0.010128088 0.042779103
-0.118670814 0.072567336 -0.17081739 0.071031205 -0.052131053 -0.06975243 0.063408114 0.056067776

network.6.running_mean f4 [32]
00000000: 6151 fb3e 6428 3d3f 42a1 1f3f d112 413f
00000010: 10c6 803f 10f9 043f fae6 333f 909a 193f
00000020: e621 ab3e a94b 3a3f 4b51 4d3f 0e76 443f
00000030: e1ed f43e 654f 2f3f 5372 233f 61df 113f
00000040: a081 9d3e e8de 5b3f 608b 993e 334b 5e3f
00000050: 1077 2a3f 42e4 0a3f 5781 263f b9d5 3b3f
00000060: 7f03 543f 6f96 f83e e15f d63e 8546 873f
00000070: e31c 223f 75aa 743e 61c4 3b3f 5e13 9d3e
0.49085525 0.73889756 0.62355435 0.75419337 1.0060444 0.5194254 0.7027432 0.6000147
0.334243 0.727717 0.8020217 0.7674264 0.47837737 0.6848052 0.6384632 0.56981474
0.3076296 0.85887 0.29989147 0.86833495 0.66587925 0.54254544 0.65041107 0.7337299
0.82817835 0.48552272 0.41870025 1.0568396 0.6332533 0.23893149 0.73346525 0.30678838

network.6.running_var f4 [32]
00000000: b424 1b3f fa80 8e3f 777b 243f e83f 623f
00000010: f353 903f 2f44 243f e065 a33f 8576 bd3e
00000020: 71b7 a93e d6c1 653f 5fd3 8e3f 570e 8f3f
00000030: 465d 3e3f 2f93 873f 66f3 cd3f d1c6 633f
00000040: 100d d73e 1a78 d03f 767a b63e ffed 803f
00000050: 76f8 643f 16dc 153f 9853 343f ad07 8c3f
00000060: 184d bb3f 8f9b fa3e dd72 ed3e eb1b b93f
00000070: a2f9 4c3f 22fa 633e 6b66 7e3f 35dd 273f
0.6060288 1.113311 0.6425089 0.88378763 1.1275619 0.6416654 1.2765465 0.37004486
0.33147767 0.89748895 1.1158255 1.1176251 0.74361074 1.0591792 1.6089904 0.88975245
0.42002153 1.6286652 0.35640305 1.0072631 0.8944162 0.5853895 0.70440054 1.0939842
1.4632902 0.48946807 0.46376696 1.4461645 0.8006841 0.22263387 0.9937503 0.6557191

network.8.weight f4 [16, 32]
00000000: bb29 3dbe ba1c 6ebe a362 933d 4ec8 a83d
00000010: d9b9 9ebe 943a 7a3e 56de 48bd a9f5 94bd
00000020: d14c 603d e57b 93be 276f 78be 290a 36be
00000030: c267 3a3e 2d80 923e 52ca 773e 5a66 163c
00000040: 49d9 09bd 0080 87be 3b54 1dbe fff0 9dbe
00000050: 5a08 af3e 3754 a8be ef4f 9b3d 9f41 78bb
00000060: 1c33 ba3e 7b2b b2be 5844 1bbd 4e64 17be
00000070: 587c c5be a475 0b3e bd2b e4bd f6d7 513e
00000080: 88d0 ff3d 1cd9 71be 2a26 5cbe b66d 703e
00000090: 04e8 87be e1f2 7d3e 5b46 9abe fd5c b7bd
000000a0: 1598 433e 15ca 953e ace2 32bc debd 4a3e
000000b0: 4ea8 1d3e 8cd1 82be dea2 d7bb 592d a9be
000000c0: ad7d b2be af63 a9bd c5a7 dbbd e3f6 b83c
000000d0: 1eb9 40be c4ce 993e 3fe3 6b3e 366e 973c
000000e0: 4374 e63d 03fb 9cbe 7c1a 0d3e 5d31 70bd
000000f0: 002a a13e 1a06 ef3d 101c 72be 1ae5 353d
00000100: 8f48 b0bd f8c4 93bd 1fdb a2be a492 d7be
00000110: 7ee5 ccbe 84f2 07bd 40e9 53be 1cf6 68be
00000120: 101e a2bd 300d 9bbe 84e6 80be 2573 5c3d
00000130: d2e5 ea3d 3bb6 b03d d1a2 4dbe 75f5 c53d
00000140: 1af6 7e3e 6434 b3be de95 6c3e bbcc 97be
00000150: b40c ed3d 9b0a 2abe c141 09be 7e99 66be
00000160: 6e63 ae3d 5b4f 17be 4b9a 183e 3d7a ae3d
00000170: ef01 46be f21f 023e c2f1 80be 359e be3d
00000180: c091 34bb 3e12 093d 5a16 ad3d 7a43 ae3d
00000190: 39e6 2ebe 44c7 0d3e 50bc 4abe 4b8d 003e
000001a0: 383f 2abe 48b0 73bc d993 00be 62b0 b3bd
000001b0: a335 40bc 6e74 a3be d820 a6be 9637 5ebd
000001c0: 5f28 06be e9d1 72bd 3dc6 113d 83f3 b3bd
000001d0: 1212 21be 247d 5e3d f62f c73d b1dc 033e
000001e0: ba97 d2be 7995 b8bb caf5 cd3d 5c01 48be
000001f0: 577a d0bd e514 89bd 1eff 15bd f1da 0c3e
00000200: 6a83 2f3e 0a14 3b3d 2280 873e 7ed6 493d
00000210: 57e9 763e 75a4 9abe c996 b43d cad2 813e
00000220: daaa 0e3e 08ab 0bbc ebc0 00bd 00dc 31be
00000230: d757 e93d d619 963d f716 5c3e 492e 7c3d
00000240: ecce ebbe ccac 073e e511 c53d d7a6 2f3e
00000250: b9f3 9ebe aad0 55be 1011 abbd 89f7 51be
00000260: 0065 0c3e 8d87 b0bd d88e abbe 15ab 4f3d
00000270: 3f20 953d b557 15be 711b 8e3d 22b9 403e
00000280: 55b7 d83d eb40 71be 8cd7 fd3d 9886 fbbd
00000290: 56df 8cbe 747e 953e a3fd 933e 023e 903c
000002a0: be87 5ebe 0c7a 0fbe 92fe 823d 7721 a43d
000002b0: e06a 6b3e 2a18 133c 5f11 af3e d97e a03e
000002c0: d247 1cbe b6dc 43be 1932 8c3e 8963 42bd
000002d0: 6b6d 26be 1afe 113e ece3 ff3c 603c 99bc
000002e0: 5b54 a73e 3a2e 2a3e e047 0b3d 4de9 6abe
000002f0: b454 7cbe 0120 c6bd ac8a e33d 1c2c cb3d
00000300: e4bd 54be dc27 a8bd 8b99 96be b84a 7a3e
00000310: 170f 52be 6a6b c6bd 8f74 303e d08f 063e
00000320: 6261 643e 8a03 c5bd b45a acbe 2e62 55be
00000330: 83c5 dd3d 6c1a 3bbe b934 6e3e 6eb9 643e
00000340: 0e9f 913e abaa c03d 7acf d33e 3d5d 7fbe
00000350: 9d9b 413c 4f39 6d3d 7584 e9bd a25b d9be
00000360: a71e 64be 9939 70be 8c7a 4f3e f1b0 bebe
00000370: 361b 373e d7fe 203e bcb0 dfbb 9b45 f63c
00000380: ac40 80be 1439 3abe b319 5dbd 53ea 2bbe
00000390: a291 593d 9e9b 843e a6bc ac3e b1b3 99be
000003a0: 0516 e9bc 0eec 99be e03b 82be 5b55 0fbe
000003b0: 11e3 2c3e f7fb a9be 0949 79be 1e15 593e
000003c0: cb24 d4bd 2f61 aa3d 0a52 23be 7d01 84be
000003d0: 7857 473e 2453 37bd 6a69 9ebe b82d 4fbd
000003e0: ab8e 293e 58f0 9fbe 7027 823e 6a53 77be
000003f0: 46fb 97be d635 0d3e 6ee9 443e 6a54 6f3e
-0.1847295 -0.23253146 0.07196548 0.0824133 -0.31001166 0.24436408 -0.04904016 -0.072734185
0.054760758 -0.28805462 -0.24261151 -0.17777313 0.18203643 0.28613415 0.24198273 0.009179676
-0.033654485 -0.26464844 -0.15364163 -0.30847928 0.3418606 -0.3287675 0.075836055 -0.003788091
0.36367118 -0.34798798 -0.037906975 -0.14784357 -0.3857143 0.13619095 -0.11141155 0.20492539
0.12490946 -0.23617977 -0.21498933 0.23479351 -0.265442 0.24799682 -0.30131802 -0.08953283
0.19100983 0.2925574 -0.010918301 0.19798991 0.15396234 -0.25550497 -0.0065806946 -0.3304241
-0.34861508 -0.08270966 -0.10725359 0.022578662 -0.18820617 0.30040562 0.23035906 0.01848517
0.11252644 -0.30660257 0.13779634 -0.058640826 0.31477356 0.11671086 -0.23643517 0.04440794
-0.086075895 -0.07215303 -0.318078 -0.42104065 -0.4001884 -0.033190265 -0.20694447 -0.22750133
-0.0791589 -0.302835 -0.2517587 0.053820748 0.11469616 0.08628508 -0.20081641 0.09665958
0.24898568 -0.35000908 0.23104045 -0.29648384 0.115746886 -0.16605608 -0.1340399 -0.2251949
0.085150585 -0.14776365 0.14902608 0.08519409 -0.19336675 0.12707499 -0.25184447 0.09307519
-0.0027552694 0.033464663 0.08451529 0.08508964 -0.1708001 0.13845545 -0.19798398 0.12553899
-0.16625679 -0.014873572 -0.125564 -0.08773877 -0.011731538 -0.31924766 -0.32446933 -0.05425223
-0.13101338 -0.059282217 0.035589445 -0.087866805 -0.1572955 0.054318562 0.09725945 0.12877156
-0.41131383 -0.005633053 0.10056646 -0.19531769 -0.101795845 -0.066934384 -0.03662025 0.13755395
0.17139974 0.045673408 0.26464945 0.04927682 0.2411245 -0.30203596 0.088178225 0.25356132
0.13932362 -0.008524664 -0.03143398 -0.1736908 0.11393707 0.073291466 0.21493135 0.06156758
-0.46056306 0.1324951 0.09622554 0.17153488 -0.3104532 -0.2088038 -0.08352864 -0.20504583
0.13710403 -0.08619604 -0.3350742 0.050700266 0.07281541 -0.14584239 0.06938828 0.18820623
0.10581843 -0.2355992 0.12394628 -0.12281531 -0.27514142 0.2919804 0.28904447 0.017607693
-0.21731469 -0.14011401 0.06396212 0.080141954 0.22989988 0.008977929 0.3419294 0.31346777
-0.15261772 -0.19127163 0.2738197 -0.047458205 -0.16252677 0.14257088 0.031236611 -0.018705547
0.32681546 0.16619197 0.034004092 -0.2294056 -0.24641687 -0.09674073 0.11110434 0.099205226
-0.20775563 -0.082107276 -0.2941402 0.24442565 -0.20513569 -0.09688456 0.17231964 0.13140798
0.22302774 -0.09619816 -0.3366295 -0.20838234 0.10828688 -0.18271798 0.232623 0.22336361
0.28441662 0.09407552 0.4136923 -0.24937911 0.011816886 0.05791598 -0.11402217 -0.42452723
-0.22277318 -0.23459472 0.20261592 -0.3724437 0.17881474 0.15722214 -0.0068264883 0.030062487
-0.2504934 -0.18185836 -0.053979587 -0.16788606 0.053117402 0.25899976 0.33737677 -0.30019906
-0.028452883 -0.30062908 -0.25436306 -0.13997404 0.16883494 -0.33200046 -0.24344267 0.21199462
-0.1035858 0.083193175 -0.15949264 -0.25782385 0.1946696 -0.044757023 -0.309398 -0.05058071
0.1655833 -0.31238055 0.25420713 -0.24152914 -0.29683894 0.13790068 0.19229671 0.23372045

network.8.bias f4 [16]
00000000: 2592 6d3e b36a 563e d196 393e 2d06 9d3e
00000010: 19d1 603e 4cfd 8a3e 5874 213e c4f1 5b3e
00000020: f9a9 953e a7a4 3d3c 17ad 613e 7c6a 9e3e
00000030: 720b 3d3e c733 553e 932b 103e 56ef 733e
0.23200281 0.2093914 0.18123938 0.30668774 0.21954764 0.27146375 0.15767038 0.21478945
0.2923124 0.011574901 0.22038685 0.30940616 0.18461397 0.20820533 0.14079122 0.23821768

network.10.weight f4 [16]
00000000: 9749 0f3f 096c 1d3f 1770 363f 40d2 0c3f
00000010: eb8a 023f 09f2 083f 109e 223f bebe 1c3f
00000020: b6ad 463f ec91 233f d5ed 083f 02ca 163f
00000030: 5d83 143f b505 483f 3560 433f aa82 0d3f
0.55971664 0.61492974 0.71264786 0.55008316 0.5099322 0.53494316 0.63522434 0.6122855
0.7760881 0.63894534 0.534879 0.5890199 0.58012944 0.7813371 0.76318675 0.552775

network.10.bias f4 [16]
00000000: 95b9 fdbb c795 7a3c 917e 033c a9ed 0a3b
00000010: 4417 c1bc da96 393a a8d1 9fbc 8cf3 04bd
00000020: d319 773c 0863 dc3c a225 47bc a412 4ebc
00000030: 333a a93c 014f 1b3c ebee 90ba 6143 2abc
-0.0077430704 0.015294499 0.008025781 0.0021198785 -0.023570664 0.00070796686 -0.019509152 -0.032458827
0.015081841 0.02690269 -0.012154968 -0.012577686 0.020657634 0.009479285 -0.0011057531 -0.010392041

network.10.running_mean f4 [16]
00000000: b7d1 933f 8f09 5a3f 928a 563f d32a 343f
00000010: ba51 493f 7529 523f 9dfe 443f 03b0 623f
00000020: 1855 803f 1a2a dc3e 5204 553f 3ced 753f
00000030: ec05 253f b7cf 883f 59d3 7a3f a25f 413f
1.1548375 0.85170835 0.8380519 0.70377845 0.7864033 0.8209451 0.7695101 0.8854982
1.0025969 0.4300087 0.8320972 0.96065116 0.6446216 1.068839 0.9797874 0.7553655

network.10.running_var f4 [16]
00000000: 2263 6740 1eed d73f ab6c df3f b7c9 cc3e
00000010: 721d 1f3f 8d8c 1740 72f0 dd3f e003 fa3f
00000020: b37b 2240 ce0a 213f ec1a af3f 7218 ad3f
00000030: 9b9e 373f 2c44 4d40 bf52 2540 55ad 333f
3.6154256 1.6869237 1.7455038 0.39997646 0.62154305 2.3679535 1.7339003 1.9532433
2.5388 0.6290711 1.3680091 1.3523085 0.7172639 3.207286 2.5831754 0.7018636

network.12.weight f4 [1, 16]
00000000: 39d8 963c 2729 39bc 9622 bf3c 4f41 babc
00000010: 9841 39bc 4c22 e23c 8568 753c a034 983c
00000020: 1e00 a13c 31e8 983c d773 68bc 91ad 9bbc
00000030: e3ea 3dbc 3ea6 a23c 5397 a53c 99f6 b1bc
0.01841365 -0.011301315 0.023331922 -0.02273622 -0.011307143 0.027604245 0.014978533 0.018579781
0.019653376 0.018665405 -0.014187775 -0.019003661 -0.011591646 0.019854661 0.020213759 -0.021724032
