best_model.pth (torch, 23285 bytes, 19 tensors)

network.0.weight f4 [64, 11]
00000000: 6b1c 923c 00dc 2dbe 1cc0 03be 2af4 a5bc
00000010: c33c 353e 978e 98bc 7f16 fdbd f13f 70be
00000020: a3ae 903e d8b4 8ebe bf48 853e 788b e33d
00000030: 9278 07be 4278 8c3e c9c0 043e 422a 1dbc
00000040: 0310 633d 2946 763d e528 9dbd 45c7 97bc
00000050: 2a6a 3cbe 563f 5a3e d0ef 82be 00fb dfbd
00000060: 4c40 143e 65a7 99bd bb34 e7bd 0453 66bd
00000070: 0d34 07bd cb7c 1d3e 2646 70be 0918 7ebe
00000080: 4748 59be 8960 bc3d ef9f 9a3e dfae a03e
00000090: ff46 343d 5592 413e 7d14 263e f7f1 6e3d
000000a0: 63a6 943d 3176 ecbd 95dd 80be dcca 34be
000000b0: 6595 04bd 57c3 a23e f7ff 613e b83f 423e
000000c0: 1920 b1bc 7fb1 57be f315 823c 9d58 5ebe
000000d0: 2bd4 873d da86 4d3e 4d3c 94be f41b 2ebe
000000e0: 79b6 44be 761c dd3d 42c8 163e d1a7 e9bd
000000f0: 264a 97bd 7253 9a3e ea8f 803d 7742 14be
00000100: fdfb 593d 20d0 bd3d 72c8 f9bd 59aa 26bd
00000110: c2db 66be 421e a6be 4952 823d 8b40 34be
00000120: 3edb 71be 87ef e13d 21e2 2dbe 2f25 933d
00000130: 80cf 723e 58da dabd c2bb 51be 36a7 82be
00000140: cb8e 93be 588f 233e 9b1e 0c3e f453 24be
00000150: 7109 99bd 3a37 053e d34c 203e 24df c8be
00000160: 72b7 6ebe 2a8b 7ebd 743e 0c3e 8398 b13d
00000170: d356 4d3e d858 843e 4941 4dbe b088 483e
00000180: 195b b7bc 3302 f3bd ed6f 92bc cad9 9f3e
00000190: 5ed9 5bbd e634 2abe 8764 f6bd 26fd 263e
000001a0: 9ef3 55bd 6e4e 06be 32aa 793e e99c 84be
000001b0: 158b 0d3e 7a70 b8bb 56b5 b83d 7733 823e
000001c0: e2df 0f3e 8f0e a83d 3d8a 81be 8b47 a4bd
000001d0: e08e df3d a3c7 5b3d 63b4 69bd 9d59 7abe
000001e0: 3235 3cbd 18a2 1abe 60d2 7b3e 61dd 97bc
000001f0: 5401 153e 2a83 7ebe 29b8 173e 6539 423b
00000200: 92cf f53c 20ec 61bd 30c1 a73d 4821 bbbe
00000210: be7c ec3c 0d39 2cbe 007e e43c a39e dfbd
00000220: 58b3 1c3e 7275 2d3e af91 85be 2269 303e
00000230: 2cda bdbd fa99 fdbd 97ac 3bbe 64d3 7d3d
00000240: 75b4 81be 0781 81bd 9d68 42be 2d5b 793c
00000250: a399 2dbe bfc8 1d3e f82e 84be be03 22be
00000260: 34b9 e2bd ae0d 70be 45b8 7b3c de3a 74bd
00000270: e19f 97be 1622 243e cd58 eebd b888 a33d
00000280: d736 57bc 687d 65be 2792 4b3e ddd2 58be
00000290: eaff acbc 012c 4cbe e635 08be 8847 6cbd
000002a0: e597 f4bd f5f4 c8bc 6094 bd3d 5d21 0cbd
000002b0: ef47 34be 39f8 42be a06a 84be f583 12be
000002c0: 5c32 813e c181 edbd 187c 94be 7950 41bd
000002d0: ccbe fbbd 4988 913b 16ad 2fbd ea5b 2dbe
000002e0: 20d7 d83d 86ae 8c3e d3bc 4d3e dde9 c3bc
000002f0: bdca 643e 5e37 633e 187b 61be 88eb 5abe
00000300: 27a5 bd3d 976c ec3d d1a7 bd3d 5cd8 3dbe
00000310: c8f9 ebbe baf9 063e 6ae3 493b d5c3 74ba
00000320: 3dd2 d3bc 9736 4dbd 2aa8 e4bc acff 243e
00000330: 97c2 22be 1242 1fbe 70d4 893e 34a0 2f3e
00000340: ff11 593e bef2 8a3c 0ee5 113e c20f 26be
00000350: 7ac3 7ebd 4f37 87bd e494 77bd d824 163e
00000360: 40c2 87be 5e49 f6bd da45 e03d d095 18bf
00000370: 7511 db3d 5a57 03be abb6 6ebd 25d6 473d
00000380: 9ab9 0d3e 955a 1abe 2165 e13d d5db 303e
00000390: 5d24 98bd 4dc0 ad3d ee55 a13e ad3e cabc
000003a0: 5ba3 aebc 8693 1bbe 8d39 713e 41bb dbbd
000003b0: 0991 18be 0b1c 793e f7a0 693d 3a4f 803d
000003c0: 489d 98be e7c7 61be 1c7d ebbd f7a0 d8bd
000003d0: 8df3 7cbb 958c 8bbe 6262 61be 627f 933c
000003e0: 329a 37be 1466 e73d 2565 5e3e 6ffe b63e
000003f0: 4f29 ad3d 3000 473e ccb8 41b9 c084 8abe
0.017835816 -0.16978455 -0.12866253 -0.020258028 0.1769896 -0.01862268 -0.123578064 -0.23461892
0.28258237 -0.27872348 0.26032063 0.11110586 -0.13229588 0.274355 0.12964167 -0.009592595
0.05543519 0.060125504 -0.07673816 -0.018527636 -0.18399873 0.21313223 -0.25573587 -0.10936546
0.14477652 -0.07502631 -0.112893544 -0.056231514 -0.033008624 0.15379636 -0.2346426 -0.24813856
-0.21218978 0.091981 0.30200145 0.31383416 0.04401302 0.18903477 0.16218753 0.058336224
0.07258298 -0.11545981 -0.25169054 -0.1765551 -0.032369036 0.31789657 0.22070299 0.1896962
-0.02162175 -0.21063803 0.015879607 -0.21713491 0.06632265 0.20070973 -0.28952256 -0.17002851
-0.19210233 0.10796444 0.1472483 -0.114089616 -0.073871896 0.3014179 0.062774494 -0.1447848
0.05321883 0.09268212 -0.12196435 -0.0406898 -0.22544768 -0.3244496 0.06363351 -0.17602746
-0.2361879 0.11032014 -0.16980793 0.071848266 0.23711967 -0.10686177 -0.2048178 -0.25518197
-0.2881988 0.1597265 0.1368355 -0.1604765 -0.07472504 0.13009349 0.15654306 -0.39232743
-0.23312166 -0.062144436 0.13695699 0.086716674 0.20052652 0.25849032 -0.20044436 0.19583392
-0.022382306 -0.11865654 -0.017875636 0.31220847 -0.053674094 -0.16621742 -0.12030893 0.16307506
-0.052234285 -0.13115856 0.2438133 -0.25900963 0.13822587 -0.0056286426 0.09018962 0.2542989
0.14050248 0.08205902 -0.2530078 -0.08021458 0.10915923 0.053657185 -0.057056796 -0.24448247
-0.04594917 -0.15100896 0.2459197 -0.018538179 0.14551288 -0.24854723 0.14816345 0.002963626
0.030006204 -0.055156827 0.081911445 -0.3654883 0.028868075 -0.16818638 0.027892113 -0.109189294
0.15302789 0.16939333 -0.2608771 0.17227605 -0.092701286 -0.12382884 -0.18327557 0.061969176
-0.2533299 -0.06323438 -0.1898522 0.015219492 -0.16953139 0.1540861 -0.25817084 -0.1582174
-0.11070481 -0.23442718 0.0153637575 -0.059626453 -0.29614165 0.16028628 -0.11638031 0.079850614
-0.013135633 -0.2241112 0.19879971 -0.21174188 -0.021118123 -0.19938661 -0.1330181 -0.057685405
-0.11943034 -0.024530867 0.09256816 -0.034211505 -0.17605565 -0.19040002 -0.25862598 -0.1430815
0.25233734 -0.11597014 -0.29000926 -0.047195885 -0.12292251 0.0044412953 -0.042889677 -0.16929594
0.10587907 0.274769 0.20091562 -0.023915226 0.22342964 0.2218909 -0.22019613 -0.2137891
0.09260016 0.11544149 0.09260524 -0.18539566 -0.46089005 0.131812 0.0030805715 -0.00093370426
-0.025857085 -0.05010089 -0.027912218 0.16113156 -0.15894543 -0.15552548 0.2691989 0.17150956
0.21198271 0.016961452 0.14247534 -0.16216949 -0.06219814 -0.06602346 -0.060444728 0.14662492
-0.26515388 -0.120257124 0.10950823 -0.59603596 0.10696689 -0.1282629 -0.058279675 0.04878821
0.13840333 -0.15073617 0.11005617 0.1727136 -0.07428811 0.08483944 0.31510872 -0.02468809
-0.021318128 -0.15192994 0.2355711 -0.10729075 -0.14899077 0.24327104 0.057038274 0.06265111
-0.29807496 -0.22048913 -0.11498472 -0.105775766 -0.0038597316 -0.27255693 -0.22010186 0.018005077
-0.17929915 0.11298767 0.21718271 0.35740992 0.084551446 0.19433665 -0.00018474757 -0.27054405

network.0.bias f4 [64]
00000000: 3326 673d 0e37 de3b 0000 0000 e669 143d
00000010: 0db6 1a3d 9ae6 03bd 32c0 9bbb 4419 b5bc
00000020: 77ec a4bc 4fdd 43bd 36e3 38bd 6aa3 8bbc
00000030: 0000 0000 52c0 65bd 7894 6e3c a3ec 37bb
00000040: 33fe f8bd 9fe3 c6bc d08a 2f3d 20bc cb3d
00000050: 150c bc3d d17d 20bd b047 27bd 860c fa3c
00000060: ae5b 353b acd0 cfbb 85ec 82bd 8e9b 743d
00000070: 3838 a23d 0000 0000 3f78 79bb 6d79 5c3d
00000080: 2314 cfbd 0000 0000 f77d 873d 7375 6ebd
00000090: a37b 4c3d 4023 95bd 8fd9 17bc aa4a 163a
000000a0: 0000 0000 43dc e3bc cffa d1bd 069f 883d
000000b0: 6a7b 00bd 0278 b9bd 77dc 8dbc 2fce 8fba
000000c0: bf52 b33c 76e0 123d cc42 593c 0000 0000
000000d0: 6734 0ebe e317 d8bb 82e2 1e3c fa60 dabb
000000e0: 6d43 753c d8e2 34bd 6ccf 83bd 368e 27bd
000000f0: 15ab adbd c26a 28bd 0cca 933d 0093 58bb
0.056432914 0.0067814654 0.0 0.036233805 0.037771273 -0.03220234 -0.004753136 -0.022106774
-0.020132286 -0.04781848 -0.04513856 -0.017045695 0.0 -0.056091614 0.014561765 -0.002806463
-0.1215786 -0.02427846 0.04285699 0.09947991 0.09181992 -0.039182488 -0.04083985 0.03052355
0.0027673054 -0.0063420143 -0.06392769 0.05971866 0.07920879 0.0 -0.0038066057 0.05382674
-0.10111263 0.0 0.06615823 -0.058217477 0.049922597 -0.07282114 -0.009268179 0.0005733172
0.0 -0.02781499 -0.10252916 0.06670956 -0.031367697 -0.09056093 -0.01731704 -0.0010971482
0.021890042 0.035858594 0.0132605545 0.0 -0.13887177 -0.0065946444 0.009697558 -0.0066643925
0.014969689 -0.044161648 -0.06436047 -0.040907107 -0.08479897 -0.041117437 0.07216272 -0.0033046603

network.2.weight f4 [64]
00000000: 0f55 803f 3d5b 613f 31f9 6c3f b5d6 763f
00000010: 60ed 5a3f 4458 593f 14ac 583f 1675 5d3f
00000020: fa49 873f 79db 693f 06da 683f e0b5 6c3f
00000030: 31f9 6c3f e7d3 663f 1765 7b3f ab81 693f
00000040: 2216 933f 3460 7e3f 66d1 763f 635b 823f
00000050: ce50 603f dc09 713f 9643 693f 4a3f 653f
00000060: 53ca 753f c101 5a3f 4317 793f bb9a 5e3f
00000070: d5df 473f 31f9 6c3f b8f0 733f b781 543f
00000080: 44e0 663f 31f9 6c3f a1d5 6d3f 8e3a 663f
00000090: 0b65 533f c34a 683f 7e1b 753f 0a0b 6f3f
000000a0: 31f9 6c3f 58ac 453f 2d26 5c3f b0ab 703f
000000b0: de8f 793f 4a7c 5e3f 44d4 4f3f edfb 683f
000000c0: df86 503f ab2b 453f e8be 8d3f 31f9 6c3f
000000d0: 8636 843f f754 863f e747 473f c403 6a3f
000000e0: 645a 853f d041 703f 7e52 643f 32d9 6a3f
000000f0: e72e 5a3f 727b 6b3f 0c5a 673f f4e0 6b3f
1.0025958 0.88029844 0.92567736 0.96421367 0.85518456 0.8490031 0.8463757 0.86506784
1.0569451 0.91350514 0.9095768 0.9246502 0.92567736 0.9016709 0.98201126 0.9121348
1.1491129 0.99365544 0.96413267 1.0184139 0.876233 0.9415567 0.9111875 0.89549696
0.9601185 0.85158926 0.9730112 0.8695485 0.78075916 0.92567736 0.9528918 0.8301043
0.9018595 0.92567736 0.92904097 0.899331 0.82576054 0.9073908 0.95745075 0.9337622
0.92567736 0.772161 0.8599575 0.94011974 0.9748515 0.869084 0.81183267 0.9100941
0.81455797 0.7701976 1.1073885 0.92567736 1.0329139 1.0494679 0.7784409 0.91411996
1.041821 0.9385042 0.89188373 0.91737664 0.8522782 0.9198524 0.90371776 0.92140126

network.2.bias f4 [64]
00000000: 20d7 933d 167c 103e 5975 7dbd 663f 223e
00000010: e331 743d 2bfb 573d ea73 93bd eed6 98bd
00000020: 2da0 593e e2c9 10be 7f17 cc3d adb1 dc3c
00000030: e1e8 d63c 9fbe df3d 4989 a63d e463 863d
00000040: 1918 e5bd 355d a83d 9809 18bd 2eff eb3c
00000050: cda1 92bd fa8c 7bbd c645 81bd 041c 223d
00000060: 4f88 633d 13a9 d63d bda1 5e3d 49f0 67bd
00000070: e7a9 873e 0b56 543b 93c3 b83d 387a 7d3d
00000080: 6a0d 82bd 943e 1b3c 1982 96bd cbd8 52bb
00000090: c1cf f7bd cbd4 0cbc dc11 d73b 2ff8 093e
000000a0: bc1e 4bbd 6ac1 943d 03b9 863d 177a 8e3d
000000b0: d97e 61bd 5e81 ad3d 08e6 2dbe ae1c fb3d
000000c0: 6561 c43d 5d77 ecbd 01c5 14bd d668 8ebd
000000d0: 295c 3cbd 896a 0e3b da33 86bb 5261 9cbd
000000e0: e580 963c cc52 17be da34 d9bd 5e34 2fbe
000000f0: 2a78 6e3c d6ad 6f3d d750 2c3e c6ed 7f3d
0.07218766 0.14109835 -0.06187949 0.15844497 0.05961789 0.052729767 -0.07199843 -0.074628696
0.21252508 -0.14139512 0.09965419 0.026940191 0.026234092 0.1092503 0.08131654 0.065620214
-0.11186237 0.08220903 -0.037118524 0.028808203 -0.07159767 -0.061413743 -0.06312136 0.0395775
0.055549916 0.10481467 0.054353464 -0.05662564 0.26496813 0.0032399918 0.09021678 0.061884135
-0.06350215 0.009475369 -0.07349033 -0.0032172676 -0.12100173 -0.008595656 0.0065634083 0.13473581
-0.049589857 0.07263453 0.06578257 0.069568805 -0.055052612 0.084719405 -0.16982281 0.122613296
0.09588889 -0.11546204 -0.03632069 -0.069535896 -0.04598633 0.002173098 -0.0040955367 -0.0763575
0.018372009 -0.14777678 -0.10605784 -0.1710982 0.0145550165 0.058515392 0.16827713 0.062482618

network.2.running_mean f4 [64]
00000000: cbe7 df3c af99 553e 0000 0000 316b ab3e
00000010: d8de 923e 0d70 9e3c 4e3d d737 72c4 8f3a
00000020: 1ddb af3d 9cee 943c 80c4 4c3e 1815 d23d
00000030: 0000 0000 0400 0000 2682 9e3c 0400 0000
00000040: fc5f 3e3c 7a55 d93c eb72 023e 8c67 ad3c
00000050: 2ffb 5d3e 7f48 2d3d a3dd 013d b1aa d33c
00000060: eac7 873c 0897 c63b ebf1 a43e d974 bd3e
00000070: 86a9 bc3e 0000 0000 1796 7c3d e981 af3d
00000080: 80c0 393c 0000 0000 833b 653e 12f1 0f3d
00000090: 8845 cc3e 0400 0000 9297 283d 0524 893d
000000a0: 0000 0000 7eee c139 36cf a03b 3586 443e
000000b0: 2847 4b3d 869c 423d 82cf 813e 655c 8d3d
000000c0: ffd0 9f3e 85fd c63e 726d 573a 0000 0000
000000d0: b0d4 833d 0400 0000 bac8 cc3e bd6a 5a3d
000000e0: 8dd0 483d 8924 813d bb7c 313e 7d6a 1d3d
000000f0: 4c65 d73d 0400 0000 d219 8a3e 0400 0000
0.027332207 0.20859407 0.0 0.33480218 0.2868564 0.01934054 2.5658544e-05 0.001096858
0.085867144 0.018180184 0.19996834 0.102579296 0.0 6e-45 0.019349169 6e-45
0.011619564 0.026530016 0.1273915 0.021167539 0.2167785 0.042305466 0.03170551 0.025838228
0.016574819 0.006060485 0.3221582 0.3700321 0.36848086 0.0 0.061666574 0.085697
0.0113373995 0.0 0.22385983 0.035142012 0.39896798 6e-45 0.041160174 0.06696323
0.0 0.0003698952 0.004907514 0.19191821 0.049628407 0.047512554 0.25353628 0.069023885
0.3121414 0.38865295 0.0008217908 0.0 0.06437051 6e-45 0.39996892 0.05332445
0.049027015 0.06305797 0.17332737 0.038431633 0.10517368 6e-45 0.26972824 6e-45

network.2.running_var f4 [64]
00000000: e903 193b 6b2c 3c3c 0400 0000 8913 bf3c
00000010: d6da 1d3d 79db 863a bc8b bf34 117b 1039
00000020: 899c 253c e2e7 133b 152e 3c3c 2086 3e3c
00000030: 0400 0000 0400 0000 dd31 c63a 0400 0000
00000040: 7bbe d73a 1c36 f63a 5ba0 963b cb0c ce3a
00000050: 2c94 613c 82d6 153b 904f 0a3c 9e85 443b
00000060: b420 cb3a 71fb f539 62b6 063d 92ff c23c
00000070: 1dc7 c93c 0400 0000 4e93 d43b ca5e 9b3b
00000080: 55fb f43a 0400 0000 24a2 993c cb51 c83b
00000090: a5ef 4d3c 0400 0000 f31b 793b ca28 b13b
000000a0: 0400 0000 aa28 8937 f2c8 ed39 c868 353c
000000b0: f23e 393c 911f 8a3b f29b 223d 30fc ef3b
000000c0: 972c 113d 59ab db3c c20d b038 0400 0000
000000d0: fddf 193c 0400 0000 4478 1b3d 67ba c43b
000000e0: ab4a ab3b 2abd 683c 3003 253c 939e 203b
000000f0: 4212 023c 0400 0000 dfc1 af3c 0400 0000
0.0023348278 0.011485199 6e-45 0.023324745 0.038538776 0.0010288797 3.5678192e-07 0.00013778756
0.010108122 0.0022568633 0.011485596 0.011628658 6e-45 6e-45 0.0015121062 6e-45
0.0016459966 0.0018784436 0.0045967526 0.0015720365 0.013768237 0.0022863452 0.008441821 0.0029986869
0.0015497417 0.0004691738 0.032888778 0.023803506 0.024631077 6e-45 0.0064872866 0.0047415243
0.0018690625 6e-45 0.018754072 0.006113266 0.012569343 6e-45 0.0038011044 0.0054064738
6e-45 1.6350608e-05 0.00045353879 0.011072345 0.011306511 0.004215189 0.039699502 0.0073237643
0.035442915 0.026815103 8.3948966e-05 6e-45 0.009391782 6e-45 0.03795649 0.006003666
0.005227407 0.0142052565 0.010071561 0.002450858 0.007938923 6e-45 0.02145475 6e-45

network.4.weight f4 [32, 64]
00000000: 3f3f 393e d03d d03d 860c c5bb baab 56be
00000010: faee 15be 10c3 c43b f1a1 c13d 872b 2abe
00000020: 9d8b 90bd 4413 5abe 1946 67be cdd8 06bd
00000030: c8f2 703e 2a6d 693d 5141 2e3e 49d1 073e
00000040: 8811 7f3e 45b4 c63c f065 e93c f477 c93e
00000050: 915a ca3d 5117 3ebe e5c2 7bbd 49c9 4c3e
00000060: 16ec 82be 5658 dc3d eb41 243e 390d 8e3d
00000070: 9c0e b03d 1005 173e a1b0 753c 0e14 80bd
00000080: cf3b 383d 8f34 853d 8559 403d 2695 923d
00000090: 8b96 fdbc 5385 263e 5c2e a7bd d475 92bd
000000a0: 2581 13be 0331 2f3d 5d1c 65bd 028c 6e3d
000000b0: d999 f7bd 0c6a 8a3e 3a0a f4bd 06d6 02be
000000c0: 06b8 a63c 4fc5 05be fae5 2abe dcd7 2cbd
000000d0: 33a9 193d 7ca9 523e 5844 0a3c 8e7d 53be
000000e0: c9d0 0f3e cce1 b5be 8fe6 8c3b b7fa 5ebe
000000f0: d9ce d2bd d4e0 6e3e 3c86 363e f525 403e
00000100: 65a0 703d 785a eabb 9c29 8fbd 32d0 543d
00000110: 3261 efbc 7d68 6cbd 8811 6b3e 88c0 033d
00000120: 1701 003e 4ca5 3d3e c9d6 04be e181 43be
00000130: 9671 233e fd3c 883c f9a9 84bd 3815 843e
00000140: 32de fbbd ccf9 14be 315d 80bc 7aa1 8f3d
00000150: 8189 a43d 3990 533e 1d87 353e b2b7 d9bd
00000160: ee89 1ebe 8e9e 2fbe f9b4 dfbc 9e11 143d
00000170: 3402 403d 371c 123e 5226 98bd c84a 80be
00000180: 8012 5c3e e9f0 183e 5a13 e53d 953f 963d
00000190: 1962 1c3e fc75 a13d c742 b73d dbcf 66bc
000001a0: 1573 31bd 50fd 133d 5ed9 c23d 51af 3dbe
000001b0: bf9f 163c 89f2 6d3c b53f 18be 1480 033e
000001c0: c311 8fbe 4f6b cfbd c0a5 43be 8219 93be
000001d0: fa16 a33e 83e9 8fbe 79ca 193e 0ecc 1e3e
000001e0: d3a4 40be d1ac 253d 315a 7f3b 52c3 3a3e
000001f0: 14f1 f5bd a279 1f3e a642 4bbe 82a4 983d
00000200: 7feb 5e3b d30d 783e 35e9 bfbe 2bc4 413e
00000210: 9707 813d 7987 5e3e 689b 0fbe 4022 3d3e
00000220: ce87 cabc 5c6a 803b c3d1 1a3e abaa 293e
00000230: 0c8d 7e3e db4e 383e f658 3b3d f124 c03d
00000240: b32a babe 5b38 fdbd ae5b d23c 7c35 553e
00000250: fbfb e03d e6c8 943d 0f61 6fbd f99b 45bc
00000260: 3fc0 9cbe 1c75 443e 55c6 073e 8072 b6bd
00000270: cb69 913d 4e26 da3d d724 e03d 9331 8bba
00000280: 9c8b 2ebd f8c9 cfbd 946c 96bd c5fe 49bd
00000290: 9e4c a03d b747 233d 7ec5 723e 4bb7 243e
000002a0: cd5b d9bd 843a e5ba 0c23 3c3c 095b 0e3e
000002b0: 54f9 0abd a22d 523e 4c4a 6b3e f7da f33d
000002c0: 3f1d 28be 26ba fc3d c14a fe3d f936 00be
000002d0: 2e7e 853e a810 91bc c834 f93d 5e92 463d
000002e0: 3042 8abd 23d2 5d3e 3dae 2cbe 817d 6cbd
000002f0: 61c3 7d3d ccdf b6bd 43d7 24be c491 1d3d
00000300: 1fbf 253e 9ade d1bd 191c 3cbe 0b68 ccbd
00000310: 5df9 d13d 7b43 e63d 0a23 f1bd 4a0b 0b3e
00000320: 3118 bf3d 70c3 973b cafd 6a3e a655 80be
00000330: 0c0e bbbd 8512 193d 7a1c 39be 9f27 ae3d
00000340: b96d 22be d53c 453d fe4f 27be c581 49be
00000350: 61fe d1bd 135a 5a3c 2af3 9fbd 4776 0d3e
00000360: 2000 db3d ef6b 7a3e 5f20 a93d 4763 7c3e
00000370: b20e 08be fc93 b33d 2b7b 8f3e ce53 9b3d
00000380: 0679 a5bd ef29 3a3d 2761 1abe bf1b 5e3d
00000390: 3568 b1bb bb5f 383d a1cb 193e 1c93 1cbe
000003a0: c2a8 7dbe a304 093e 2a67 1c3e fd01 a23e
000003b0: 380d 39be 0d63 903e 49a9 cfbd 3cf2 8b3e
000003c0: 31b8 893c 5677 cdbd 6df6 dc3c 6072 7ebe
000003d0: b360 e03d 59a3 cc3d 5ab4 073d 1d0e 51bd
000003e0: ae0f 14be 0d36 17be 0574 26bc 0e36 0b3e
000003f0: 2b2f 7dbd f71a 033e c6b4 5f3c 4e98 473e
0.18090533 0.1016804 -0.006013456 -0.20963946 -0.14641944 0.0060046986 0.09454716 -0.16618167
-0.07057879 -0.21296412 -0.22585334 -0.0329216 0.23530114 0.056988873 0.17017104 0.1326343
0.24909031 0.024255881 0.02849099 0.3934933 0.098805554 -0.18563582 -0.061465163 0.19998659
-0.25570744 0.10759036 0.1604077 0.06936116 0.085965365 0.14748025 0.014995725 -0.06253825
0.044978913 0.065041654 0.046960372 0.07157354 -0.030955574 0.16261797 -0.08163139 -0.0715138
-0.14404733 0.04277135 -0.055935252 0.05823899 -0.12089891 0.27034032 -0.11916013 -0.12776956
0.020351421 -0.13063549 -0.16689292 -0.042198047 0.037514877 0.20572466 0.008439146 -0.20653364
0.14044489 -0.35523832 0.0042999457 -0.21775328 -0.10293359 0.23327953 0.17824644 0.1876448
0.058746714 -0.007151898 -0.06990358 0.051956363 -0.029221151 -0.057716835 0.22955906 0.032166034
0.12500416 0.18520087 -0.12972559 -0.19092514 0.15961298 0.016630644 -0.06477732 0.2579744
-0.1229824 -0.14548415 -0.015669437 0.07013221 0.08034039 0.20660485 0.17727323 -0.1063074
-0.15482304 -0.17150328 -0.027307974 0.036149614 0.0468771 0.14268576 -0.07429184 -0.25057054
0.21491432 0.1493565 0.11185332 0.07336346 0.15271796 0.07883832 0.08948284 -0.014087643
-0.04332264 0.03613025 0.09514116 -0.18523909 0.00919336 0.014523157 -0.14868052 0.12841827
-0.2794324 -0.10127889 -0.19106197 -0.28730398 0.31853467 -0.28107843 0.15018643 0.15507528
-0.18812875 0.040448014 0.003896367 0.18238571 -0.12008873 0.15573743 -0.19849643 0.074532524
0.0034014878 0.24224024 -0.3748261 0.18922488 0.06300276 0.21731366 -0.14024127 0.18470097
-0.02472296 0.003918929 0.1511908 0.16569011 0.24858493 0.17998831 0.045739137 0.09382046
-0.36360702 -0.123642646 0.025678482 0.20821184 0.109855615 0.07264881 -0.05844217 -0.012061113
-0.30615422 0.19185299 0.13259251 -0.08908558 0.071002565 0.10651837 0.10944527 -0.0010619633
-0.04261361 -0.10145944 -0.073449284 -0.049315233 0.078271136 0.039863314 0.2370815 0.16085546
-0.10613213 -0.0017488752 0.011482965 0.13901915 -0.033929184 0.2052522 0.22977561 0.119069986
-0.16417406 0.123401925 0.12416602 -0.1252097 0.2607283 -0.017708138 0.1216827 0.04847943
-0.067509055 0.21662192 -0.16863342 -0.057736877 0.061953906 -0.089294046 -0.16097741 0.03846909
0.16186188 -0.10247536 -0.18370093 -0.09980782 0.102526404 0.1124334 -0.11774261 0.13578525
0.09330786 0.0046314523 0.22948375 -0.25065345 -0.091335386 0.037371177 -0.18077269 0.08503651
-0.15862168 0.048153717 -0.16339108 -0.1967841 -0.10253597 0.013327139 -0.07810052 0.1381465
0.10693383 0.24455236 0.082581274 0.24647246 -0.13286856 0.0876846 0.28023657 0.07584344
-0.08079724 0.045450147 -0.15076123 0.05422568 -0.005414034 0.04501317 0.15019085 -0.15290493
-0.24771407 0.13380675 0.15273729 0.31642142 -0.18071449 0.2820057 -0.101397105 0.27333248
0.016811462 -0.10032527 0.026972974 -0.24848318 0.10955944 0.099920936 0.03313098 -0.05103885
-0.14459106 -0.14766712 -0.010159497 0.13594839 -0.06181256 0.12803255 0.01365394 0.19491693

network.4.bias f4 [32]
00000000: 2133 c63d 56c0 203d ef6f b73d a4ec c23d
00000010: 6016 1abe 60cb 21bd d0e4 e83c 1e67 1e3c
00000020: 6996 2f3d 9dab 3dbb 1bb0 c6bc 4ed4 f13c
00000030: abe0 30bd d913 d1bc a8f6 61bc 66b5 dc3b
00000040: 4ad4 cb3d 12bc 9e3c 8bf1 0d3e 4b63 9f3d
00000050: aa71 393d 4dc2 4f3c 61d5 a53d 2986 273d
00000060: c60c 453c d170 cb3d ce16 97bd baac 2d3b
00000070: dce7 c1bd faaf 47bc 2295 9f3d 989c d83d
0.09677721 0.039245926 0.089568965 0.09517792 -0.15047598 -0.039500594 0.028429419 0.00966814
0.04286805 -0.00289414 -0.024253896 0.02952018 -0.04318301 -0.02552216 -0.013791718 0.0067354916
0.099526 0.019376788 0.13861673 0.077826105 0.045274414 0.012680602 0.080973394 0.04089943
0.012026971 0.099336274 -0.073773965 0.0026500658 -0.09468052 -0.012187952 0.07792117 0.10576743

network.6.weight f4 [32]
00000000: 650d 853f 6e73 5c3f 359a 5d3f 3415 5c3f
00000010: 8c02 7f3f 56a3 5a3f 687f 6d3f 52cb 663f
00000020: f192 693f e109 4e3f 3df5 653f 93a5 5e3f
00000030: e4d3 703f f2a0 523f bf16 863f 2a38 7c3f
00000040: ac11 413f 3bdf 703f a2f3 703f bc2c 743f
00000050: ab23 6f3f 77c3 853f faee 573f faf0 5c3f
00000060: 9041 5b3f e6dc 663f 7f97 823f 32c6 703f
00000070: e11c 443f 031b 703f 0a8b 413f c9f8 663f
1.0394713 0.8611363 0.86563426 0.85969853 0.9961326 0.8540548 0.9277253 0.9015399
0.9123984 0.80483824 0.8982733 0.86971396 0.9407332 0.82276833 1.0475692 0.985232
0.7541759 0.9409062 0.94121754 0.9538076 0.934138 1.0450276 0.84349024 0.863052
0.85646915 0.90180814 1.0202483 0.9405242 0.76606566 0.93791217 0.7560278 0.90223366

network.6.bias f4 [32]
00000000: 2e2a 893d 9417 68bd 56c5 9b3e b660 af3d
00000010: 78a6 2fbe 7d67 463d b0f6 693e 04de 85bc
00000020: 4c24 83bd d75b 1e3e 0802 173e eca7 193e
00000030: 8513 8ebd c528 993e cc90 3abe a38f 4dbe
00000040: 6877 35be 07d5 b73d a2fb 0e3e 9e5e 4e3b
00000050: 6a0f 09be 5b6e dd3d c7ae 933d 9f44 fabd
00000060: 7016 313e 4874 a1bd af93 433c 6515 b0bd
00000070: 5c55 413e 5ef4 3e3d 39b8 acbd b038 8a3d
0.06697498 -0.05666311 0.30423993 0.08563368 -0.17153347 0.048438538 0.2284801 -0.016341217
-0.064034075 0.15464722 0.14746869 0.15005463 -0.06937317 0.29913917 -0.18219298 -0.20074324
-0.17721331 0.089761786 0.13963178 0.0031489502 -0.13384786 0.10812064 0.072110705 -0.1222012
0.17293715 -0.07883507 0.011937066 -0.08597831 0.18880218 0.046619765 -0.08433575 0.067490935

network.6.running_mean f4 [32]
00000000: 4645 413f 69c8 2b3f 54a6 1d3f d82e 563f
00000010: 53c0 ce3e 83ec 283f 0b6d 213f 9e6f cf3e
00000020: 7593 053f 5995 0c3f b402 413f a609 403f
00000030: 1c12 cf3e 97b8 6b3f 371a 1b3f 940c 003f
00000040: 2251 2a3f f0c4 373f 45b3 863f 8ed9 093f
00000050: 63c6 e93e 946b 623f 003d 593f 9483 0e3f
00000060: ac52 103f a05c 553f 890d a93e 4920 243f
00000070: 84f8 163f f952 1b3f dea3 3f3f 0329 383f
0.7549633 0.67102677 0.6158192 0.8366523 0.40381107 0.6598589 0.6305701 0.40514845
0.52178127 0.54915386 0.7539475 0.7501472 0.40443504 0.92078537 0.60586876 0.5001919
0.6653005 0.7178488 1.0523459 0.5384759 0.4565917 0.884454 0.84858704 0.5566952
0.5637615 0.8334446 0.3301814 0.64111763 0.58972955 0.6067348 0.74859416 0.7193758

network.6.running_var f4 [32]
00000000: b55c 663f 2dbe d13f 71de f53e b71d 613f
00000010: ceed 273f fd9e 803f 651e 093f f1a0 4f3f
00000020: 6094 8e3f 53c2 113f ace8 3c3f 7080 243f
00000030: 3ef1 6a3f 398b b53f b031 223f d0f4 063f
00000040: ca09 e73f 6d2e ea3f 5e3f 833f 4758 933f
00000050: 8726 2c3f c780 4840 54a4 803f 53fe b93f
00000060: cd15 493f bac2 1540 2619 7d3f 3c85 483f
00000070: 9bad 243f 2bdc ae3f 9fad 433f 3c84 0d40
0.8998521 1.6386162 0.48021272 0.87935966 0.65597236 1.0048519 0.53562003 0.8110495
1.113903 0.5693714 0.7379253 0.6425848 0.91774356 1.4183112 0.6335707 0.52717304
1.8049862 1.8295418 1.0253713 1.1511315 0.6724629 3.13286 1.0050149 1.4530739
0.7854889 2.3400102 0.988665 0.783283 0.643274 1.366094 0.764368 2.211196

network.8.weight f4 [16, 32]
00000000: b00c 283e 4ee4 4bbe 1718 dcbb 0b4b 1d3d
00000010: aa69 323e f916 d63c 05f0 47be f28b b6bb
00000020: 866f 35be e7d9 a8bd 1a1b 66bd 2f5b b63d
00000030: 4d8e f0bd b2e3 af3d 775e 39be 1efc 9dbd
00000040: bef4 8fbd d704 29be 6394 babd 4f4b a83e
00000050: ffa1 c63a 57bf cdbe c023 5fbe f1ad 3cbe
00000060: 5026 36bc 9839 89be 5bc5 b23c cb49 b7bd
00000070: ff2d 373d dcad 98be 004c 303e e9c6 2dbe
00000080: cb96 14be 00f8 c9bd 9e22 7d3e aafa 49bd
00000090: 874a d63b c01a 86be 1d3d ea3d 230a 9c3e
000000a0: 47be b5bd 4f89 1b3d 15df 9d3d a849 8bbd
000000b0: 315b 5b3e b4f8 9ebc 0339 98be c278 40be
000000c0: 1b39 0ebe 8674 593e 3690 a0bd 29d9 cc3d
000000d0: 6862 59bb 4d13 b93e e7d1 98bc d453 653e
000000e0: 10ec 63be 7a9f 613e 6f1a 3d3d 4581 87be
000000f0: 1049 933d 6c4b 243b ce2f 363d f160 913e
00000100: c682 5dbe 43d8 0f3d 0ccb 0dbe a422 c23b
00000110: 3154 063d 8d32 543d e030 37be 5495 80be
00000120: a159 233e 06ac 233c f0d3 1e3d b1fa a6be
00000130: 3b75 b73d aa8c a3be 9174 cbbe 1a44 eabc
00000140: a498 c6bd 0016 64bc 388b abbe d4e6 753e
00000150: 7332 a53e b73e 27be da9d a0bd 489e a83e
00000160: 28de 3abe 0aa7 083e 05d8 823e fcf9 893e
00000170: 921f 4cbe b022 563d e878 473e 4b6a 34be
00000180: 7ead 9dbd 3288 88be 44ff 253e 75ee 063e
00000190: 6bdc 3bbe 958b a73d 5d6a 42bd c5ac 8fbe
000001a0: e0e8 0ebe c04f abbd 863d 9b3e 4a96 a1be
000001b0: c51e cdbd 09fe 583e e4a4 18be 5287 3fbe
000001c0: 1b99 3ebd 1966 363e 9c80 7abd 6cfc 89bd
000001d0: b29f b9be ba90 fabd 5bf7 c13d ed7d fbbd
000001e0: 8bd4 973e 158d da3d 25de 2cbe ade2 483e
000001f0: adec 3b3d 5fbd 5e3e 1883 8bbd 4778 903e
00000200: 3d8c dbbc 22b9 fcbd 58e0 7c3e 80c7 5bbe
00000210: 062e b3be a57a d4bd 442b b93e 34c5 953e
00000220: 9a46 403e b443 823e 6694 1bbd daad 8b3e
00000230: 4f3a 15be 1295 8d3e ac68 d43d a601 053e
00000240: fb6a 613e 95b1 85bd 5a0e 263e 9ae1 12be
00000250: 7258 25be e4bb 403e 4aa6 af3d 289e 52bd
00000260: 3fcb 583e 09f0 563e 2db1 c6be 6da4 613b
00000270: 82db debb 17aa efbd 8752 4cbd 2396 3f3e
00000280: 4354 8dbe 2c6e 653e 0557 653e a510 943d
00000290: a782 0f3c 6550 a1bd b127 3dbe 1ff3 ea3c
000002a0: 5f97 aa3d 195a abbe 0aaf 4abe c61f 8b3d
000002b0: 2357 a13e 4741 dc3c 5bff 41be 7886 fdbd
000002c0: af25 b73e b579 5f3c b0ed e6bd 11a6 c13e
000002d0: 4433 b1bc 879b 6fbd d308 bebe fd78 84be
000002e0: 036d 133d cbd0 b33e 654f 93bc 7aeb c4be
000002f0: 2a38 1e3e 07e6 c93c 4e63 3ebe c650 2b3c
00000300: b318 cd3e 5eb4 6bbe 79f8 b73d 4a20 98be
00000310: ca70 b6bc b21d 47bd 68ca 6b3d ec9a 5ebb
00000320: 87c2 a43d c514 36be 8b1b 92be 76cd 733e
00000330: 66e5 2bbe 0927 e4ba e434 5f3e eb72 ddbd
00000340: 948f a9bd 5cb2 c4be f995 28bc a8d8 a03d
00000350: d605 2c3e 5128 84bd 9746 1cbe 3c34 8d3d
00000360: aabf 08be 9e59 99be a121 2e3e bd91 1b3e
00000370: b44a 223e 3d5a 97be b8c3 203e 6bdf 9cbe
00000380: 368c 3cbe bec0 c4bc 869e cabe acf8 e5be
00000390: 1021 d63e 18b9 95be 1dd6 5bbe 1a41 073e
000003a0: 7516 3b3c 71e7 9e3d 67e4 34be 783b 1e3e
000003b0: d228 813e 0b71 b9be 7640 583b ce41 b33d
000003c0: e1f4 293e 0918 84bd f86d 41be a608 14bc
000003d0: 5683 0bbe 465c d7bc be83 8abd faf5 a13d
000003e0: bd48 b6be 3436 2abe e6e6 37bc 4272 723d
000003f0: 5f2b 83be bfa9 463d f840 a63d 1f5d 5d3e
0.1641109 -0.1991131 -0.006716739 0.038401645 0.1742312 0.026134001 -0.19525154 -0.005570882
-0.17718324 -0.082446866 -0.05617819 0.08904111 -0.11745892 0.08588351 -0.18102442 -0.07714103
-0.07029103 -0.16505753 -0.09110334 0.32869956 0.001515448 -0.40185043 -0.21790981 -0.18425728
-0.011117533 -0.26801753 0.021822622 -0.08949622 0.0447216 -0.29820144 0.17216492 -0.1697041
-0.14510648 -0.09861755 0.24720237 -0.049311318 0.006539646 -0.26192284 0.11437438 0.30476484
-0.08874183 0.037972745 0.07708565 -0.06801158 0.21421506 -0.0194057 -0.29730996 -0.18796065
-0.13888972 0.21235856 -0.07840006 0.100023575 -0.0033170227 0.36147538 -0.018654777 0.22395259
-0.2225802 0.22033492 0.046167787 -0.26465812 0.0719167 0.002506937 0.044479184 0.28394273
-0.21631917 0.035118353 -0.13846987 0.0059245396 0.032795135 0.05180602 -0.17889738 -0.25113928
0.1595216 0.009989744 0.038776338 -0.32613137 0.08957907 -0.31943256 -0.3973737 -0.028596926
-0.09697083 -0.013921261 -0.33504653 0.24013835 0.32265052 -0.16332518 -0.07842608 0.3293326
-0.18248808 0.1334497 0.25555435 0.26948535 -0.19933918 0.052279174 0.19479716 -0.17618673
-0.07699107 -0.2666641 0.16210657 0.13176902 -0.18345802 0.0818092 -0.047464717 -0.280615
-0.13956022 -0.083648205 0.30320376 -0.31559974 -0.100156344 0.21190657 -0.14906651 -0.18703964
-0.04653273 0.17812385 -0.061157808 -0.06737599 -0.3625465 -0.12234636 0.094710074 -0.12279878
0.29654345 0.106714405 -0.16881616 0.1961772 0.04588001 0.21751927 -0.068121135 0.28216764
-0.02680027 -0.12339999 0.24694955 -0.21462822 -0.3499605 -0.10374955 0.36165822 0.29252017
0.18776932 0.25442278 -0.03798332 0.27281076 -0.14573024 0.27652794 0.10371527 0.1298891
0.22013466 -0.06528012 0.16216412 -0.14343873 -0.1614702 0.18821675 0.08576639 -0.05142036
0.21171282 0.20990004 -0.3880705 0.003443028 -0.0068010697 -0.11702364 -0.04988339 0.18709616
-0.2760335 0.22405308 0.22396477 0.07229737 0.008759177 -0.07876662 -0.18472172 0.028680382
0.08329653 -0.33467177 -0.19793335 0.0679317 0.31511793 0.026886595 -0.18945067 -0.123791635
0.35770938 0.013639857 -0.11275804 0.3782201 -0.02163089 -0.05849793 -0.37116107 -0.25873557
0.035992634 0.35120234 -0.017982194 -0.38460904 0.15451112 0.024645818 -0.18592569 0.01045627
0.40057907 -0.23018023 0.08982939 -0.29712135 -0.022270579 -0.048612304 0.057566077 -0.0033966852
0.08044916 -0.1778136 -0.2853664 0.23808846 -0.16786727 -0.0017406653 0.2179752 -0.108129345
-0.082793385 -0.38417327 -0.0102896625 0.07853824 0.16799101 -0.06453002 -0.15261303 0.068947285
-0.13354364 -0.29951185 0.17005016 0.15192313 0.1584881 -0.29561034 0.15699661 -0.30639204
-0.18412861 -0.024017688 -0.3957407 -0.44916284 0.418221 -0.29242778 -0.21468396 0.13208428
0.011418928 0.07758988 -0.17665254 0.15452373 0.25226456 -0.36219057 0.0032997406 0.087527856
0.1659732 -0.06449897 -0.18889606 -0.009035265 -0.1362432 -0.026289117 -0.06763409 0.079082444
-0.3560237 -0.1662224 -0.011224484 0.059190996 -0.25619027 0.048501726 0.081178606 0.21617554

network.8.bias f4 [16]
00000000: 38b3 203f 5850 843e 7f70 063e d718 d03e
00000010: f0b2 bb3e 88ac 363e feeb bc3e 8d3c 3b3e
00000020: d96a 103f d86d a33e 269b a63e 94a7 b43e
00000030: 45db 85bb a9e2 8b3e 679b dd3e db26 4b3e
0.62773466 0.25842547 0.13128851 0.4064395 0.36659956 0.17839253 0.36898798 0.18284817
0.56413037 0.31919742 0.32540244 0.35284102 -0.004084977 0.27321365 0.43282625 0.19839041

network.10.weight f4 [16]
00000000: 028c 383f afbb 043f 0ef3 2a3f 1296 223f
00000010: 286c 333f 2d0e 403f 1938 233f b6f6 463f
00000020: a25b 393f 3543 283f 8039 243f 0bea 213f
00000030: 4237 443f 0878 4a3f 4072 283f a68c 2d3f
0.72088635 0.5184888 0.6677712 0.6351024 0.7008691 0.7502163 0.63757473 0.777202
0.72405446 0.6572755 0.6415024 0.63247746 0.76646817 0.79089403 0.6579933 0.6779274

network.10.bias f4 [16]
00000000: 8358 c1bc d681 8bbb 5f98 273c bc76 12bb
00000010: 4224 12bd ce9e 573c d724 173d 1beb 0b3b
00000020: 698c ea3b 3807 ee3c 25bd 2a3d f5a4 b3bc
00000030: 4bf5 02bd cc87 3fbb e4f0 4d3d 025d 423c
-0.023601776 -0.004257421 0.010229199 -0.0022348603 -0.03567911 0.013160421 0.036900368 0.002134985
0.0071578515 0.029056177 0.04168429 -0.021929244 -0.03197221 -0.0029225228 0.05027856 0.011862995

network.10.running_mean f4 [16]
00000000: f4b7 7e3f f41f 6a3f 69e1 ef3e ff8c 793f
00000010: 1014 683f 86dd 3e3f b2cc 4a3f 5e4e f93e
00000020: 30c1 783f 5938 ab3f 7337 453f 5972 803f
00000030: 07af 133f 9eaf 6b3f c0ba 7e3f 9feb 553f
0.9949944 0.91455007 0.46851662 0.9748077 0.9065561 0.7455677 0.7921859 0.48692602
0.9716978 1.3376571 0.77037734 1.0034896 0.57688946 0.92064846 0.9950371 0.83562654

network.10.running_var f4 [16]
00000000: e06c ed3e ae46 2340 4218 5e3f 62ff 2c3f
00000010: ac8f 433f e518 f43f 4bae 5c3f 9cd3 a13f
00000020: 50ac 203f 609a 1e40 1a74 0d3f 662c ab3f
00000030: 69b0 f23f 570a 6e40 e8bd 5d3f 04f4 5b40
0.46372128 2.551189 0.86755764 0.67577183 0.763911 1.9070097 0.8620345 1.2642703
0.6276293 2.4781723 0.5525528 1.3372924 1.8960086 3.719381 0.866179 3.4367685

network.12.weight f4 [1, 16]
00000000: cd54 fabc 01fe 183d 1755 de3c 2af3 acbc
00000010: 483d 1cbc bc15 c83c 74f8 7fbc a917 003d
00000020: 4fe9 96bc 4114 96bc 9f10 73bc f79d 35bc
00000030: cb91 db3c 2a8e ca3c f62e dcbc 771e d73c
-0.030558014 0.037351612 0.027140183 -0.021112043 -0.009536095 0.024424426 -0.015623201 0.031272564
-0.018421797 -0.018320205 -0.014835506 -0.011085025 0.026802918 0.024725992 -0.026877861 0.026259644
