best_corrected_model.pth (torch, 269833 bytes, 24 tensors)

feature_extractor.0.weight f4 [128, 8]
0	0xbe221ccc	-0.15831298
1	0x3e01ac03	0.12663274
2	0x3e0072c9	0.12543787
3	0x3d954db4	0.07290211
4	0x3e19b771	0.15011384
5	0x3e4ee137	0.202031
6	0xbe3e90eb	-0.1860997
7	0xbe5af389	-0.21381964
8	0x3de2e5cf	0.11078989
9	0x3e3e87ed	0.18606539
10	0xbe0fbb6a	-0.14036337
11	0xbdf7c2b9	-0.12097687
12	0x3e280f49	0.16412081
13	0xbd121d3c	-0.03567241
14	0x3e0e6062	0.13903955
15	0x3e31afb6	0.17352185
16	0xbcb9edfe	-0.022696491
17	0x3e4412bb	0.1914777
18	0xbdbee371	-0.09320725
19	0xbd92eedc	-0.07174465
20	0xbe1dc500	-0.15407181
21	0xbd332900	-0.043740273
22	0xbd8854bf	-0.06656789
23	0x3e1bf7ed	0.15231295
24	0x3db56be3	0.088584684
25	0xbda49992	-0.08037104
26	0xbd6989d9	-0.057016227
27	0xbd156518	-0.036473364
28	0xbd311959	-0.043237064
29	0xbcefdee4	-0.029281087
30	0xbe13a8d9	-0.14419879
31	0x3c5ff0e3	0.013668272
32	0x3dd77434	0.10520211
33	0xbd4d481a	-0.05011759
34	0xbd79f00d	-0.061019946
35	0x3d399a7d	0.045313347
36	0xbdf577b0	-0.11985719
37	0x3de72924	0.11287144
38	0xbdd18671	-0.10230721
39	0x3e4dfe22	0.20116475
40	0x3dd4621d	0.10370276
41	0x3da1eb91	0.07906259
42	0xbd444f11	-0.047926966
43	0xbd3635d4	-0.04448493
44	0x3d78aafa	0.06070993
45	0x3e590996	0.21195063
46	0xbe17b37e	-0.14814565
47	0xbdbc2f4a	-0.09188707
48	0xbe097368	-0.1342293
49	0x3d9cd4dc	0.07657787
50	0x3e0a5e72	0.1351259
51	0xbd8835f6	-0.06650917
52	0xbb79a19c	-0.0038090711
53	0x3d9beaa5	0.07613114
54	0xbe18a410	-0.14906335
55	0xbdbe3539	-0.09287495
56	0xbe474bf8	-0.19462574
57	0x3da5732e	0.080786094
58	0x3c88e8ce	0.016712572
59	0x3e0fcabb	0.1404218
60	0xbe42e151	-0.19031264
61	0x3dd09a5c	0.10185692
62	0x3d486e75	0.048933465
63	0x3e437a7c	0.19089693
64	0xbd71e12a	-0.059052624
65	0x3dc202fc	0.094732255
66	0xbe4cd327	-0.20002423
67	0xbc6bb6a1	-0.014386804
68	0xbdfcd6f6	-0.12345688
69	0xbd8c342e	-0.0684589
70	0xbd99d11b	-0.07510587
71	0xbe2e0b51	-0.16996504
72	0x3e23005c	0.15918106
73	0x3e3aad49	0.18230166
74	0xbc8cc905	-0.017185697
75	0xbd4c22ff	-0.049838062
76	0x3a65250f	0.0008741179
77	0x3e0aa2bf	0.13538645
78	0xbdd8401a	-0.105591014
79	0xbe10c3f2	-0.14137247
80	0x3e27a34c	0.16370887
81	0x3d6d036d	0.057864595
82	0x3de51f3d	0.11187599
83	0xbe544403	-0.2072907
84	0xbe57bda0	-0.2106843
85	0x3d91a5a1	0.07111669
86	0xbe17a731	-0.14809872
87	0x3c8700ec	0.016479932
88	0x3dad170a	0.0845166
89	0xbdf52fe2	-0.119720235
90	0x3dfb8b09	0.12282378
91	0x3d533eea	0.05157367
92	0x3e3846f2	0.17995813
93	0x3d37c026	0.04486098
94	0x3e400ba9	0.18754448
95	0x3ca5859f	0.020205317
96	0xbdca1193	-0.09866633
97	0x3e215bdb	0.15757696
98	0xbde38d11	-0.11110891
99	0xbde6ced2	-0.112699166
100	0xbdb819c7	-0.08989292
101	0x3c32cf5b	0.010913695
102	0xbdc60cf9	-0.09670443
103	0xbe06bb07	-0.13157283
104	0x3d841f97	0.06451338
105	0xbdfcdcfa	-0.123468354
106	0xbd849f30	-0.06475675
107	0x3e2b1653	0.16707735
108	0xbe242e6c	-0.16033334
109	0xbd101cad	-0.035183597
110	0x3d172ae6	0.036906146
111	0xbe028e45	-0.12749584
112	0x3dc5996e	0.09648405
113	0xbe213c5a	-0.15745679
114	0x3e146b94	0.14494163
115	0x3e3dc493	0.18532018
116	0x3a6d2712	0.00090466544
117	0x3e59fa6a	0.21286932
118	0xb82c68c6	-4.1105573e-05
119	0xbdd27217	-0.10275667
120	0xbe46f49e	-0.19429252
121	0x3e29871b	0.16555445
122	0xbe033ce2	-0.12816194
123	0x3e31367b	0.17305939
124	0x3e4a76f0	0.19771934
125	0xbde7ea55	-0.11323992
126	0x3e05eae3	0.13077883
127	0xbe22616a	-0.15857473
128	0x3dd4040f	0.103523366
129	0x3e206ea9	0.15667213
130	0x3e28cb12	0.16483715
131	0xbcf852cf	-0.030312924
132	0xbce74767	-0.02823229
133	0x3db64221	0.08899332
134	0xbc88c28e	-0.016694333
135	0xbdb244db	-0.087045394
136	0xbd396884	-0.04526569
137	0x3e13fca2	0.1445184
138	0x3e3da7bc	0.18521017
139	0xbe393d47	-0.18089782
140	0xbdcbd1ed	-0.099521495
141	0x3d8c0387	0.0683661
142	0xbe2f4dee	-0.17119572
143	0x3deab284	0.114598304
144	0xbe044fad	-0.12921019
145	0x3d857a6a	0.06517489
146	0x3e130158	0.14355981
147	0xbe27c02e	-0.16381904
148	0x3e36bc58	0.17845285
149	0x3c5d7b1a	0.013518119
150	0xbd498314	-0.04919727
151	0xbe082ccb	-0.13298337
152	0xba9c363f	-0.0011918022
153	0xbdfa5068	-0.122223675
154	0xbdd6c98c	-0.10487661
155	0xbe54f5a9	-0.20796837
156	0x3bd184c5	0.006394001
157	0xbdc4eb66	-0.09615211
158	0x3c70fe67	0.014709092
159	0xbd448efe	-0.04798793
160	0xbd5f7495	-0.05455454
161	0x3deab4c9	0.11460263
162	0xbdda30b3	-0.1065382
163	0xbd9aabbc	-0.07552287
164	0xbcc9b04b	-0.024620196
165	0xbe3f9b7b	-0.18711655
166	0x3d1f155f	0.03883874
167	0xbe46e98f	-0.19425033
168	0xbe3e2b49	-0.185712
169	0xbd273508	-0.04082206
170	0xbe40334b	-0.18769567
171	0xbdca9bd9	-0.09893007
172	0x3ba04767	0.0048913243
173	0xbe1c9651	-0.15291716
174	0xbd3ab7b5	-0.045585353
175	0xbd00a50c	-0.0314074
176	0x3d1a3631	0.037649337
177	0xbe481fde	-0.19543406
178	0x3e10f18e	0.14154646
179	0x3e24b74d	0.16085549
180	0xbe147315	-0.14497025
181	0x3e267d52	0.16258743
182	0x3e30cc2a	0.17265382
183	0x3e52956e	0.20564815
184	0x3dc0672e	0.0939468
185	0x3dbe9e26	0.09307508
186	0x3d5c4694	0.053778246
187	0xbe308181	-0.17236902
188	0xbde65ab8	-0.11247772
189	0xbdbd9d0f	-0.09258472
190	0x3e33c52b	0.17555682
191	0x3dc9d84e	0.0985571
192	0xbdb183bc	-0.086677045
193	0x3daae432	0.08344306
194	0x3e379268	0.17926943
195	0xbc2b033f	-0.010437786
196	0xbdacaab4	-0.084309965
197	0x3dbcb9a8	0.092150986
198	0x3df6132a	0.12015374
199	0xbc0e8714	-0.008699197
200	0xbdb80119	-0.08984584
201	0xbe30fe6c	-0.17284554
202	0x3e29da11	0.16587092
203	0x3e2488ce	0.16067812
204	0x3e0c5f37	0.13708197
205	0xbd91d70c	-0.07121095
206	0xbd7011e4	-0.05861081
207	0x3e4eb3d3	0.20185785
208	0xbd0ffb5a	-0.035151817
209	0x3c267066	0.010158634
210	0xbe335aab	-0.17515056
211	0xbe0e3332	-0.13886717
212	0x3e07547f	0.13215826
213	0x3e420faf	0.18951295
214	0x3db89363	0.09012487
215	0x3d9644b2	0.07337321
216	0x3ccfb09e	0.025352772
217	0xbc6f54bb	-0.014607604
218	0x3e02f9e6	0.12790641
219	0xbe3cbc55	-0.18431218
220	0xbe345900	-0.17612076
221	0x3d5d3220	0.05400288
222	0x3d08651f	0.03329956
223	0xbdb618f4	-0.08891478
224	0x3cd44778	0.025912985
225	0x3e358052	0.17724732
226	0x3e124b14	0.14286453
227	0x3e19e9d9	0.15030612
228	0xbde9b57d	-0.11411569
229	0x3d81762f	0.0632137
230	0xbe39a6e6	-0.18130073
231	0xbe18e0a9	-0.14929451
232	0xbc8fe07a	-0.017563093
233	0xbe072366	-0.13197097
234	0x3ddf8868	0.10914689
235	0xb9f61b45	-0.00046941094
236	0xbdfb10ae	-0.12259041
237	0xbdad622c	-0.084659904
238	0x3da786c9	0.08180005
239	0xbd9f2764	-0.07771185
240	0xbe5dd99b	-0.21665041
241	0x3e09880e	0.13430807
242	0x3d3e0a45	0.046396513
243	0xbd8bd809	-0.06828315
244	0x3d51e08f	0.051239546
245	0xbddeb58b	-0.1087447
246	0xbe09329d	-0.13398214
247	0x3e27f8b7	0.16403471
248	0xbdf65c05	-0.1202927
249	0xbe08406d	-0.13305826
250	0xbc978644	-0.01849664
251	0x3dc2658b	0.09492024
252	0x3e54d133	0.20782928
253	0x3d51a82d	0.051185776
254	0x3d7a250c	0.061070487
255	0x3e35dc3e	0.17759797

feature_extractor.0.bias f4 [128]
0	0xb9b0af69	-0.00033700027
1	0x397048ab	0.00022915255
2	0x3957cf3d	0.000205812
3	0xba0f48f5	-0.00054658885
4	0xba5a94ae	-0.0008338195
5	0xb9d5f8d4	-0.00040811917
6	0x3936df36	0.00017440025
7	0x38ed698e	0.00011320702
8	0x3a0424ad	0.00050408655
9	0xba5c43c4	-0.0008402432
10	0x39ac3c13	0.00032851155
11	0x38425b3d	4.6338177e-05
12	0x3910f634	0.00013824628
13	0x392bb65e	0.00016375768
14	0xb9bc115c	-0.00035871088
15	0xb8ef3a22	-0.00011407236
16	0xb6e6cd27	-6.878417e-06
17	0x38d0411c	9.9303405e-05
18	0x39035041	0.0001252303
19	0x398749a9	0.00025804088
20	0x39c83bb6	0.0003819146
21	0x37d8f73b	2.5864332e-05
22	0xb9c28ea7	-0.00037108848
23	0x392efff3	0.00016689282
24	0x38de1a02	0.00010590629
25	0x39dfd9c6	0.00042696128
26	0xb7a70aab	-1.9912919e-05
27	0x3949bcda	0.00019239206
28	0x39e561b9	0.00043751093
29	0xb92c2639	-0.00016417437
30	0x38907efd	6.8901085e-05
31	0xb96b4991	-0.00022438752
32	0xba24623d	-0.0006270742
33	0x39cc91e0	0.00039018597
34	0xb9b9b32f	-0.00035419452
35	0x39086681	0.00013008156
36	0x38a59905	7.896315e-05
37	0x39bdc1ea	0.00036193366
38	0xb7e3479a	-2.709385e-05
39	0x393f6caf	0.00018255667
40	0x3a188b8e	0.0005819135
41	0xb9bd7c6e	-0.00036141597
42	0xb8c1fac7	-9.249668e-05
43	0x3a979a7b	0.0011566425
44	0xb8d005aa	-9.919268e-05
45	0x3a15f2e6	0.00057200936
46	0xb9fc7e48	-0.00048159272
47	0x396b5553	0.00022443132
48	0x3860f431	5.3633183e-05
49	0xb9dfaf64	-0.0004266455
50	0x396610cb	0.00021940765
51	0x381b088f	3.696285e-05
52	0xb8e1d2c9	-0.00010768098
53	0xba38d9f4	-0.00070515205
54	0x38241c11	3.9126786e-05
55	0xb86d91ee	-5.664111e-05
56	0xb97bf1e2	-0.00024027334
57	0xb9bfa6bb	-0.00036554583
58	0x3891b7b5	6.948357e-05
59	0x39aa3962	0.0003246768
60	0x397555bd	0.00023396961
61	0x3819ceb6	3.6670557e-05
62	0xb91a2338	-0.00014699704
63	0xb9215036	-0.00015384037
64	0x39bbcdc2	0.0003582072
65	0xb8f9973f	-0.00011901417
66	0x3918c725	0.00014570037
67	0x39f42fec	0.0004657501
68	0x39df966f	0.00042645956
69	0x38c90bff	9.586661e-05
70	0xb8681cde	-5.5339995e-05
71	0xb98ae8db	-0.00026494902
72	0xbac6f1e2	-0.0015178288
73	0xb9081456	-0.00012977546
74	0x394eccd2	0.00019721992
75	0x39ebcad4	0.00044973812
76	0xba8baf6a	-0.0010657136
77	0x37ea4e13	2.793133e-05
78	0xb8349fcb	-4.3064163e-05
79	0xb8aa3df6	-8.117773e-05
80	0x38ead016	0.000111967485
81	0xbb96cf03	-0.0046023144
82	0x39165527	0.00014336836
83	0x37af3909	2.0888185e-05
84	0xb8ec040b	-0.0001125411
85	0xb8c87589	-9.558636e-05
86	0xb9470339	-0.0001897932
87	0xb8e9e3cf	-0.000111527384
88	0xb9c08154	-0.0003671745
89	0xb8c47952	-9.368606e-05
90	0x38da9cfd	0.000104242914
91	0xb9abd2f0	-0.00032772822
92	0x3910b5a8	0.00013800582
93	0xb9b09637	-0.00033681255
94	0x39c81268	0.00038160686
95	0xb92d532a	-0.00016529547
96	0x393aaaf7	0.00017802032
97	0x398c019c	0.0002670408
98	0xb9abacde	-0.00032744458
99	0x38a0a172	7.659466e-05
100	0xb9fda0f7	-0.0004837585
101	0xba2ae773	-0.0006519474
102	0xb8c7ceca	-9.527577e-05
103	0xb9fbdff1	-0.000480413
104	0xb9d74447	-0.00041058866
105	0xb93789bc	-0.0001750355
106	0x3988b1e1	0.00026072472
107	0xb97ecd23	-0.00024299747
108	0x397021b7	0.00022900743
109	0xb9293e0e	-0.00016140213
110	0x39f5ae4e	0.0004685991
111	0x39944935	0.00028283303
112	0xb9a254f8	-0.00030962355
113	0xb71358a0	-8.782517e-06
114	0xb9dd582f	-0.00042218107
115	0xb956a8f7	-0.00020471575
116	0x39346407	0.00017203401
117	0xb7dcf7d7	-2.6341453e-05
118	0x3a33b82c	0.0006855752
119	0xba61924d	-0.00086048694
120	0xb8665065	-5.4911146e-05
121	0xb9656ebd	-0.00021880395
122	0x3a239431	0.0006240039
123	0xb70f1a41	-8.529577e-06
124	0x3942ed6a	0.00018589725
125	0xba4d64aa	-0.00078351295
126	0x3898c4a9	7.2845556e-05
127	0x3977205a	0.00023567808

feature_extractor.1.weight f4 [128]
0	0x3f7e49a3	0.9933111
1	0x3f7bb293	0.9831936
2	0x3f7f3384	0.9968798
3	0x3f803060	1.0014763
4	0x3f8151f3	1.0103134
5	0x3f7ee091	0.9956141
6	0x3f814a41	1.0100785
7	0x3f7e890b	0.9942786
8	0x3f7acb9f	0.9796695
9	0x3f7f6a3b	0.9977147
10	0x3f7dab96	0.99089944
11	0x3f82ef7a	1.0229332
12	0x3f8097e1	1.004635
13	0x3f7e5a50	0.99356556
14	0x3f80cc10	1.0062275
15	0x3f7e6af3	0.9938194
16	0x3f7fe599	0.99959713
17	0x3f7ec5c3	0.9952051
18	0x3f800ab9	1.0003272
19	0x3f7f6ac7	0.99772304
20	0x3f801ac6	1.0008171
21	0x3f7c3c38	0.98529387
22	0x3f8052e0	1.0025291
23	0x3f7e21ec	0.9927051
24	0x3f7f62f1	0.9976035
25	0x3f80d88b	1.0066084
26	0x3f7ff225	0.9997886
27	0x3f800a43	1.0003132
28	0x3f816620	1.0109291
29	0x3f7f6331	0.9976073
30	0x3f809f09	1.0048534
31	0x3f81e3fd	1.0147702
32	0x3f7d2765	0.98888236
33	0x3f7d07ae	0.98839843
34	0x3f7faac3	0.99869937
35	0x3f7ff1a9	0.9997812
36	0x3f82cbf3	1.021849
37	0x3f7cad35	0.9870179
38	0x3f7d4f6e	0.98949325
39	0x3f7e66e2	0.99375737
40	0x3f829c21	1.0203897
41	0x3f7fd34b	0.9993178
42	0x3f810917	1.0080899
43	0x3f813f06	1.0097358
44	0x3f7e7122	0.99391377
45	0x3f814e45	1.0102011
46	0x3f7fc8df	0.9991588
47	0x3f7c5d66	0.98580015
48	0x3f7e3abc	0.9930837
49	0x3f8142e7	1.0098542
50	0x3f7c8486	0.98639715
51	0x3f7d1b77	0.98870033
52	0x3f7b7454	0.9822438
53	0x3f7e7953	0.99403876
54	0x3f804bf4	1.0023179
55	0x3f7e4b89	0.9933401
56	0x3f821f87	1.0165871
57	0x3f807d8a	1.0038311
58	0x3f8062e9	1.0030185
59	0x3f81169d	1.0085026
60	0x3f800c9a	1.0003846
61	0x3f7c4bb5	0.9855302
62	0x3f8138a0	1.0095406
63	0x3f7b32e7	0.98124546
64	0x3f809f1e	1.0048559
65	0x3f7efbea	0.9960314
66	0x3f801640	1.000679
67	0x3f817356	1.0113323
68	0x3f80728f	1.003496
69	0x3f809da1	1.0048105
70	0x3f801f7a	1.0009606
71	0x3f7f592f	0.9974546
72	0x3f7f3c0a	0.9970099
73	0x3f7fb7aa	0.99889624
74	0x3f80e66b	1.0070318
75	0x3f82d875	1.0222307
76	0x3f82185a	1.0163682
77	0x3f8169a5	1.0110365
78	0x3f7f7571	0.99788576
79	0x3f81c1c1	1.0137254
80	0x3f805ef6	1.002898
81	0x3f7e5868	0.9935365
82	0x3f7e4d95	0.9933713
83	0x3f8067c3	1.0031666
84	0x3f800aec	1.0003333
85	0x3f803e3a	1.001899
86	0x3f7fb744	0.99889016
87	0x3f7ed35f	0.99541277
88	0x3f7e5473	0.9934761
89	0x3f7d8081	0.99024206
90	0x3f7b853e	0.98250186
91	0x3f7be754	0.98399854
92	0x3f7be099	0.98389584
93	0x3f7acc8a	0.9796835
94	0x3f7fed12	0.99971116
95	0x3f7fb418	0.99884176
96	0x3f7d98a8	0.9906106
97	0x3f80efe0	1.0073204
98	0x3f7d046b	0.98834866
99	0x3f8038b4	1.0017304
100	0x3f803d83	1.0018772
101	0x3f80f566	1.007489
102	0x3f7dfd08	0.9921422
103	0x3f7cfe9e	0.98826015
104	0x3f8032f0	1.0015545
105	0x3f81feea	1.0155919
106	0x3f828911	1.0198079
107	0x3f7e851f	0.99421877
108	0x3f7cdbd4	0.9877293
109	0x3f810e93	1.0082573
110	0x3f802063	1.0009884
111	0x3f81b03a	1.0131905
112	0x3f7d2f93	0.9890072
113	0x3f7e3bac	0.993098
114	0x3f818642	1.0119097
115	0x3f7fd6b6	0.99937
116	0x3f7f285b	0.9967095
117	0x3f804a63	1.0022701
118	0x3f7f85fb	0.9981381
119	0x3f8212c3	1.0161976
120	0x3f8266ac	1.0187583
121	0x3f7e35dd	0.9930094
122	0x3f819317	1.0123013
123	0x3f7d51f4	0.98953176
124	0x3f822eeb	1.0170568
125	0x3f7f1a97	0.9964995
126	0x3f7deeed	0.99192697
127	0x3f80e3b8	1.0069494

feature_extractor.1.bias f4 [128]
0	0xbc0f39c4	-0.0087418
1	0xbc942610	-0.018084556
2	0xb9f20d94	-0.00046167953
3	0xbaf4153d	-0.0018622052
4	0x3c0cfb7a	0.008604879
5	0xba9b654e	-0.0011855753
6	0x3c864cbb	0.01639401
7	0x3c66e47e	0.014092563
8	0xbc81944e	-0.015817787
9	0xba0b81ba	-0.000532176
10	0xbbb0ea63	-0.005399035
11	0x3bf276f4	0.007399434
12	0x3bac4e4b	0.0052583567
13	0xbbfe9109	-0.0077687544
14	0xbaa6d5db	-0.0012728529
15	0x39eb678a	0.00044899835
16	0xbaa517c6	-0.0012595586
17	0x3a879e2a	0.0010346819
18	0x3b341f74	0.0027484568
19	0x3b58de53	0.00330915
20	0xbbbf1459	-0.005831283
21	0xbc323870	-0.010877714
22	0x3bffb098	0.007803034
23	0xbbbf233a	-0.0058330568
24	0xbad85e8e	-0.0016507672
25	0x3a76813d	0.0009403413
26	0xbbeff8b6	-0.00732335
27	0xbc98b99b	-0.018643191
28	0xbb464359	-0.0030252545
29	0xbc1767cc	-0.009241056
30	0x3bf0024a	0.0073244916
31	0x3c6f5efc	0.014610048
32	0x3becdd1e	0.0072285077
33	0xbc1b893e	-0.00949317
34	0x3c5c2c09	0.013438233
35	0xbc026b92	-0.007960217
36	0x3c66b584	0.014081363
37	0xbbbbdab2	-0.0057328576
38	0xbb8ae451	-0.004238643
39	0xbb5a510a	-0.0033312463
40	0x3cb84def	0.0224981
41	0x396aac8a	0.00022380255
42	0x3b53763e	0.0032266523
43	0x3c8b1805	0.016979227
44	0xbc918967	-0.017765714
45	0x3bae43a1	0.0053181206
46	0xbb09f12b	-0.0021048288
47	0xbc5e2a0c	-0.013559829
48	0xbbe5fd2f	-0.007018707
49	0x3b40387b	0.002933054
50	0xbcbb07ff	-0.022830961
51	0xbba55e75	-0.0050466605
52	0xbc23346c	-0.009961229
53	0xbbac88ee	-0.0052653467
54	0xbb9b996f	-0.0047485153
55	0xbb61abea	-0.0034434744
56	0xbc3068d9	-0.010767185
57	0xba0a9f28	-0.00052879984
58	0x3aa3a923	0.001248632
59	0x3c874c05	0.016515741
60	0xbbcbed6d	-0.0062233717
61	0xbcbf4584	-0.023348577
62	0xbb8a2d44	-0.004216822
63	0xbc0cac05	-0.0085859345
64	0x3c2d4bd2	0.010577159
65	0xba1eb0c0	-0.00060535595
66	0xba814f58	-0.0009865565
67	0x3c16d324	0.009205613
68	0xba332249	-0.0006833417
69	0x3b18d481	0.0023320022
70	0xbb712717	-0.003679698
71	0xbb1f6d00	-0.0024326444
72	0xbb7fb703	-0.0039018996
73	0xbbf80ebb	-0.0075701154
74	0xbc442ec4	-0.01197404
75	0x3c59881d	0.013277081
76	0x3c1836ba	0.009290392
77	0x3b3f5609	0.0029195568
78	0x3a39396a	0.00070657453
79	0x3c71a963	0.014749858
80	0x3b5068f4	0.0031800838
81	0xbbe3b54d	-0.006949103
82	0xbc135949	-0.008993455
83	0x3b03c91c	0.0020108884
84	0xbb75aaca	-0.0037485831
85	0x3a1da829	0.00060141325
86	0x3905345d	0.00012703375
87	0xbb0f5e32	-0.0021876213
88	0x3a88c7ab	0.0010435482
89	0xbb99fbe0	-0.0046992153
90	0xbbd7b612	-0.006582984
91	0xbc81b2d5	-0.015832344
92	0xbc81ed6a	-0.015860278
93	0xbcc8da7d	-0.024518246
94	0xb98619a0	-0.00025577564
95	0xbb935701	-0.0044964557
96	0xbc045ab1	-0.008078263
97	0x3b9a03ae	0.0047001457
98	0xbb5ddee6	-0.0033854782
99	0xba8f3de3	-0.0010928478
100	0xbc9c6589	-0.019091384
101	0xbb59be07	-0.0033224837
102	0x3a44d10b	0.00075079565
103	0xbb52f85a	-0.0032191486
104	0x3bddce32	0.006768965
105	0x3c61a3aa	0.013771931
106	0x3ca28552	0.019838963
107	0xbb5dfafc	-0.0033871522
108	0xbb5c7b7a	-0.0033642934
109	0x3a18cd4d	0.0005828932
110	0x3b650702	0.0034946804
111	0xbb464bef	-0.0030257662
112	0xbc48c753	-0.012254554
113	0x394439fa	0.00018713615
114	0x3c6145f0	0.013749585
115	0x3ab8794c	0.0014074235
116	0xbc12e560	-0.00896582
117	0x3b594fdc	0.0033159172
118	0xbb4a8777	-0.0030903497
119	0x3c7b5739	0.01534062
120	0x3d04d799	0.032432172
121	0xbc2de616	-0.010613939
122	0x3c5f78d5	0.013639648
123	0xbc39d244	-0.011341635
124	0x3b9efaec	0.0048516896
125	0xbba64ba5	-0.0050749355
126	0xbc14b8c6	-0.009077257
127	0xbbb213e2	-0.005434499

feature_extractor.1.running_mean f4 [128]
0	0xbde76e07	-0.11300283
1	0x3d2ad553	0.041707348
2	0x3d97b1b1	0.07406939
3	0xbc97df2a	-0.01853903
4	0x3bc0cc02	0.0058836946
5	0xbdb0bcba	-0.08629747
6	0xbd27a24d	-0.040926266
7	0x3d9354c9	0.07193906
8	0x3ca32cd2	0.019918833
9	0xbd677db8	-0.05651638
10	0xbabc8272	-0.0014382137
11	0xbd00e291	-0.03146607
12	0x3bcc1cfc	0.006229041
13	0x3c1f51d2	0.009724097
14	0xbdabac54	-0.08382478
15	0x3c3e97de	0.011632888
16	0xbcca20c8	-0.024673834
17	0x3bce9c70	0.00630527
18	0xbd6119ac	-0.054956123
19	0x3bd29264	0.0064261425
20	0x3d12b825	0.035820145
21	0x3d011526	0.03151431
22	0x3ce8630c	0.028367542
23	0x3dadab78	0.08479971
24	0x3cbde003	0.023178106
25	0xbc2056b6	-0.0097862985
26	0xbcc9150c	-0.024546169
27	0x3c15f619	0.009152913
28	0xbd058114	-0.0325938
29	0x3cccf2ca	0.025018115
30	0x3d1fe23c	0.039034113
31	0xbc8ce6af	-0.017199842
32	0xbd6bda53	-0.057581257
33	0x3d6f68b2	0.058449455
34	0xbc100c9f	-0.008792072
35	0x3da361c4	0.07977632
36	0x3be9e393	0.0071377247
37	0xbd1da50a	-0.03848747
38	0x3da92f53	0.082609795
39	0xbcb0d0d3	-0.02158395
40	0xbcece79a	-0.02891903
41	0x3c8ac41c	0.016939215
42	0x3d3fee8f	0.046858367
43	0xbd1d5605	-0.038412113
44	0xbd7e7883	-0.062126648
45	0xbd7cae5e	-0.061689727
46	0x3c6e5bc6	0.014548248
47	0x3d831f0a	0.064024046
48	0xbc9eda95	-0.019391337
49	0xbd12639c	-0.035739526
50	0x3d09d9eb	0.03365509
51	0x3d9a296e	0.07527433
52	0xbc81d1d2	-0.01584712
53	0x3c768cf8	0.015048258
54	0x3c55e398	0.013054751
55	0xbac9d4b0	-0.0015398469
56	0xbd44b818	-0.048027128
57	0x3d362cd9	0.044476364
58	0x3ca787ba	0.020450462
59	0x3d66e631	0.05637187
60	0xbd23acdc	-0.039959773
61	0xbbc98caf	-0.006150804
62	0x3bdb1049	0.006685291
63	0x3d87765a	0.06614371
64	0x3d84a3d6	0.06476562
65	0xbd6acdab	-0.057325047
66	0x3d490349	0.0490754
67	0x3d61e6cb	0.055151742
68	0xbcde39e7	-0.02712722
69	0xbbad13b1	-0.0052818884
70	0x3d064d82	0.03278876
71	0xbd1205d0	-0.035650074
72	0xbbc3500c	-0.00596047
73	0xbc2fe916	-0.010736724
74	0xbc1e75c5	-0.009671633
75	0xbd071ad7	-0.03298458
76	0x3d8bf83b	0.068344556
77	0x3c0e6677	0.008691422
78	0xbd09367b	-0.033499222
79	0x3b3d7737	0.002891017
80	0xbcab9203	-0.020943647
81	0xbb330123	-0.002731391
82	0x3cb905f8	0.022585854
83	0x3c1d8de2	0.009616347
84	0x3c18e005	0.009330754
85	0x3d179b2c	0.037013218
86	0xbb71aa07	-0.0036875026
87	0x3c19b4b3	0.009381461
88	0x3ca50150	0.020142227
89	0xbcc3c8b8	-0.023899421
90	0xbc3bcd63	-0.011462542
91	0x3c48ca96	0.0122553315
92	0x3d6f66e0	0.05844772
93	0xbcdabed1	-0.026702316
94	0xbd86c14c	-0.06579837
95	0x3c4e76e4	0.012601588
96	0xbc7296a2	-0.0148064215
97	0xbd1f87be	-0.038947813
98	0x3c5a18e2	0.013311597
99	0xbd51f09b	-0.05125485
100	0x3da80eb6	0.08205931
101	0xbc2fee34	-0.010737944
102	0xbdb6c923	-0.089250825
103	0xbc1c3673	-0.009534466
104	0xbb9377f9	-0.004500386
105	0x3d157b48	0.036494523
106	0xbd3e48ff	-0.046456333
107	0xbab08b21	-0.0013469198
108	0xbc60f7d4	-0.013730962
109	0x3d5faf13	0.054610323
110	0x3d282cec	0.041058466
111	0x3d2f23cc	0.042758748
112	0x3d3484fc	0.044072136
113	0x3c9909f0	0.018681496
114	0xbd27b4e3	-0.04094399
115	0x3d7bb0c5	0.061447877
116	0x3b8fc5d3	0.004387596
117	0x3c968e09	0.018378275
118	0x3d41fbfa	0.047359444
119	0xbd005cdd	-0.03133856
120	0x3c7b134f	0.015324428
121	0xbd2426ef	-0.040076192
122	0x3c5286aa	0.012849489
123	0x3d8ee246	0.06976752
124	0xbd8e5700	-0.06950188
125	0xbc8229f3	-0.015889144
126	0xbad5b9f5	-0.001630603
127	0x3d3f8990	0.04676205

feature_extractor.1.running_var f4 [128]
0	0x3d85ac8f	0.065270536
1	0x3d959eb9	0.073056646
2	0x3ce2328c	0.027611993
3	0x3cd23e49	0.025664466
4	0x3cfc8428	0.030824736
5	0x3d418dbf	0.04725432
6	0x3ce366dc	0.027759008
7	0x3dc978d4	0.09837499
8	0x3d8fb40e	0.070167646
9	0x3cd113cf	0.02552214
10	0x3d385a7a	0.04500816
11	0x3d379924	0.04482378
12	0x3d3ef3b0	0.046619117
13	0x3d30bf91	0.043151442
14	0x3d16a9c3	0.03678299
15	0x3d1651c8	0.036699086
16	0x3cf0a93b	0.02937757
17	0x3d42ff68	0.047606856
18	0x3d460019	0.048339937
19	0x3d55b7a3	0.052177083
20	0x3d440f2e	0.04786604
21	0x3d91a203	0.071109794
22	0x3dcfa892	0.10139574
23	0x3da5a828	0.08088714
24	0x3d71824a	0.058962144
25	0x3d77426f	0.06036609
26	0x3ced4d96	0.02896766
27	0x3d31fe58	0.04345545
28	0x3c57aa06	0.013163095
29	0x3c50816f	0.012726172
30	0x3d3d659e	0.046239488
31	0x3d438e59	0.047743175
32	0x3d3a3f81	0.04547072
33	0x3df82b04	0.121175796
34	0x3d62cbcd	0.05537014
35	0x3d87eecb	0.06637343
36	0x3d039f9d	0.03213464
37	0x3d0ed447	0.034870412
38	0x3e2b5fd3	0.16735773
39	0x3d44caa8	0.04804483
40	0x3d3219f8	0.043481797
41	0x3d31c985	0.043405075
42	0x3cc297d5	0.02375404
43	0x3cf1b2ee	0.029504266
44	0x3d2a6703	0.041602146
45	0x3bf8e7c7	0.0075959894
46	0x3c6d18b9	0.014471226
47	0x3ce97b89	0.028501289
48	0x3cb3b412	0.02193645
49	0x3d84b38c	0.06479558
50	0x3dee0cfa	0.11623569
51	0x3cad431b	0.021150162
52	0x3d95b383	0.0730963
53	0x3cd88ac1	0.02643335
54	0x3d88d618	0.0668146
55	0x3c082e2f	0.008311792
56	0x3d2a58b5	0.041588504
57	0x3dc22a3c	0.09480712
58	0x3dc26ebd	0.09493778
59	0x3d31eefe	0.04344081
60	0x3d603b46	0.054744028
61	0x3d3358c6	0.043785833
62	0x3cd1aa35	0.025593856
63	0x3df3cd10	0.11904347
64	0x3de171cb	0.110080324
65	0x3d2366ea	0.03989307
66	0x3dafa1b3	0.085757636
67	0x3d25b990	0.04046017
68	0x3c3c69dc	0.011499848
69	0x3cd4c962	0.025974933
70	0x3d7b1c3e	0.06130623
71	0x3d2e5499	0.042561147
72	0x3ccf5332	0.025308225
73	0x3ddc3344	0.10751966
74	0x3cc88544	0.024477609
75	0x3c9c0126	0.019043516
76	0x3c8d6204	0.017258652
77	0x3d559eee	0.05215352
78	0x3d6cb6a0	0.057791352
79	0x3cf7ffcb	0.030273339
80	0x3d2369ae	0.039895706
81	0x3aadd7c6	0.0013263158
82	0x3da71779	0.08158774
83	0x3cb34661	0.021884145
84	0x3d62e11b	0.05539046
85	0x3d898141	0.06714106
86	0x3d00e87f	0.031471726
87	0x3d23ccac	0.039990112
88	0x3d9f25d8	0.0777089
89	0x3d97e29f	0.074162714
90	0x3d121907	0.0356684
91	0x3dc844b5	0.0977873
92	0x3d300e2a	0.042982258
93	0x3cb7cbee	0.022436108
94	0x3ceee93b	0.029163947
95	0x3e0592c4	0.13044268
96	0x3cca8087	0.02471949
97	0x3dab5075	0.08364955
98	0x3d2fc2e7	0.042910483
99	0x3dc5e1b9	0.09662194
100	0x3d102d52	0.03519947
101	0x3d355fd7	0.044280853
102	0x3d5007cd	0.05078869
103	0x3d987eda	0.0744607
104	0x3cb1378f	0.021632938
105	0x3d1db6f2	0.03850455
106	0x3d1da0aa	0.0384833
107	0x3dc7a913	0.09749045
108	0x3d51b992	0.051202364
109	0x3d4feb84	0.050761715
110	0x3ca88cf6	0.020575028
111	0x3d5e0c86	0.054211162
112	0x3da0c11a	0.07849331
113	0x3d4384dd	0.04773413
114	0x3d2e4df3	0.042554807
115	0x3dce0dc6	0.10061221
116	0x3d24820e	0.040163092
117	0x3c9713aa	0.018441994
118	0x3d0e92a6	0.034807824
119	0x3c204096	0.0097810235
120	0x3cb8da45	0.022565017
121	0x3d4bb64d	0.049734402
122	0x3d20739b	0.03917275
123	0x3dbd4ea2	0.09243514
124	0x3d93f3a2	0.07224204
125	0x3ddefee2	0.10888459
126	0x3cda4abe	0.026646968
127	0x3d31d2ea	0.043414034

feature_extractor.4.weight f4 [192, 128]
0	0xbc6d1d43	-0.014472309
1	0xbd30f396	-0.04320105
2	0x3d8911c3	0.06692841
3	0xbd0fc141	-0.03509641
4	0xbc36b79e	-0.011152176
5	0x3dd5b853	0.10435548
6	0xbd4246a8	-0.047430664
7	0x3dc26943	0.09492733
8	0x3d365fb0	0.04452485
9	0x3d440548	0.0478566
10	0x3de02798	0.10945052
11	0x3dba651b	0.091013156
12	0x3df7117d	0.120638825
13	0xbcbe6fc2	-0.02324665
14	0xbd849caa	-0.06475194
15	0x3cadad81	0.021200897
16	0x3c8995bd	0.016795034
17	0xbdf1aea3	-0.118008874
18	0x3da0d0a3	0.07852294
19	0x3de7ceb1	0.1131872
20	0x3bdc26cd	0.0067184926
21	0x3d9b9723	0.075971864
22	0xbde93c6f	-0.1138848
23	0xbe0a46cd	-0.13503571
24	0xbd4af9b2	-0.049554534
25	0xbdee068e	-0.11622344
26	0xbd6055e2	-0.054769404
27	0xbdf365ac	-0.11884627
28	0x3d8c13b6	0.06839697
29	0xbd51c9b0	-0.051217735
30	0x3d947b48	0.072500765
31	0xbdfe4d9f	-0.12417149
32	0xbe052c6a	-0.13005224
33	0x3c80ea88	0.015736833
34	0xbd72e708	-0.05930236
35	0x3c03996c	0.008032184
36	0x3d447db1	0.04797143
37	0xbc5d3a33	-0.013502645
38	0xbdff0a8e	-0.12453185
39	0x3dcac62c	0.099010795
40	0x3d14ce6d	0.036329675
41	0x3d45236f	0.048129495
42	0x3e14fb34	0.14548951
43	0x3d8ff2bc	0.0702872
44	0xbd06e961	-0.03293741
45	0xbd815664	-0.06315306
46	0x3dcf0845	0.10108999
47	0xbde96e93	-0.113980435
48	0xbc95aae2	-0.01826996
49	0xbd470dd6	-0.04859718
50	0x3dafa40b	0.085762106
51	0x3ced38f4	0.028957821
52	0xbd08b4af	-0.03337544
53	0x3dbbf020	0.091766596
54	0xbd66e8b4	-0.056374267
55	0xbc777312	-0.0151031185
56	0xbda5934a	-0.08084734
57	0x3bf83bfb	0.0075755096
58	0xbd17abb1	-0.037028972
59	0x3de5b171	0.11215485
60	0xbd938852	-0.072037354
61	0xbd1fe71a	-0.039038755
62	0x3dbf11c4	0.093295604
63	0xbdcfc4b6	-0.101449415
64	0x3bec4079	0.007209834
65	0xbdada6d4	-0.084790856
66	0xbdb1e469	-0.08686144
67	0x3c0e8205	0.008697991
68	0x3d3583dd	0.044315208
69	0x3cb7e644	0.022448666
70	0x3dc0693e	0.09395073
71	0xbde7e8f4	-0.11323729
72	0xbe109b24	-0.14121681
73	0x3d88c86b	0.06678852
74	0x3de7b28c	0.11313352
75	0xbe0ebf8e	-0.1394026
76	0x3cb87741	0.022517802
77	0xbd7d5850	-0.0618518
78	0xbdb3ff8a	-0.087889746
79	0x3e018615	0.12648804
80	0xbd9aed95	-0.075648464
81	0xbbf64027	-0.007514972
82	0x3d300f6e	0.042983465
83	0x3db09894	0.08622852
84	0x3e04affc	0.12957758
85	0x3d190a09	0.037363086
86	0xbdb07730	-0.08616483
87	0x3e0ca677	0.13735376
88	0xbb0846f1	-0.0020794237
89	0x3a392754	0.000706305
90	0x3dc5921a	0.09647007
91	0xbd9f18ed	-0.07768426
92	0x3e0981d8	0.13428438
93	0xbddb72de	-0.107152686
94	0xbd6c46b5	-0.05768462
95	0xbbab4a98	-0.005227398
96	0xbd14e6f5	-0.03635307
97	0xbda41472	-0.08011712
98	0x3daa6782	0.08320524
99	0x3d525eaa	0.05135981
100	0xbcae407e	-0.021270987
101	0x3d436bf3	0.04771037
102	0x3de6aa73	0.11262979
103	0xbdacd4f7	-0.08439057
104	0x3c7c1a4e	0.015387131
105	0xbdd1198a	-0.10209949
106	0xbd64845e	-0.055790298
107	0x3d9d053d	0.07667015
108	0x3d9ad9ae	0.0756105
109	0xbd9e1892	-0.0771953
110	0x3d3d4bad	0.04621475
111	0xbddc72ea	-0.107641056
112	0xbc2e1505	-0.010625129
113	0x3970c6da	0.00022962262
114	0xbdb436fb	-0.08799549
115	0xbd931c9a	-0.0718319
116	0x3d7bb227	0.061449196
117	0x3d4fa36f	0.05069297
118	0x3d3f61c5	0.0467241
119	0xbdc7fab6	-0.09764616
120	0x3dc6a1e7	0.09698849
121	0x3bf9b060	0.0076199025
122	0xbc7a67dd	-0.015283552
123	0xbd555aed	-0.052088667
124	0xbde08cbd	-0.10964344
125	0x3b9536a4	0.004553633
126	0x3cf64883	0.030063873
127	0xbd9e8b75	-0.07741443
128	0x3ceb4321	0.028718533
129	0xbda9e7e2	-0.08296181
130	0xbcaf0e53	-0.021369135
131	0x3cd3a23b	0.025834193
132	0xbcd55f66	-0.026046466
133	0x3df18f6e	0.11794935
134	0xbe010740	-0.12600422
135	0x3da57f4e	0.08080922
136	0xbdab221f	-0.083561175
137	0xbdba95ae	-0.091105804
138	0xbddd9ee5	-0.10821322
139	0xbdc39c1d	-0.095512606
140	0xbc20577e	-0.009786485
141	0xbdb7eced	-0.08980737
142	0xbd1af0c3	-0.037827265
143	0x3d6d2e0d	0.057905246
144	0xbde993c0	-0.11405134
145	0x3d919544	0.07108548
146	0x3d9b19ef	0.07573306
147	0x3cb51ec6	0.0221094
148	0x3dccd217	0.10001009
149	0xbc168a2d	-0.009188217
150	0xbcc4098e	-0.023930337
151	0x3d09f5c5	0.03368165
152	0x3dacb2e4	0.08432558
153	0x3c0225ca	0.00794358
154	0xbd9b5a46	-0.07585578
155	0x3cd419fa	0.025891293
156	0x3e0e05b2	0.1386936
157	0xbd7b1375	-0.061297853
158	0xbd931e79	-0.071835466
159	0x3d84fcb9	0.064935155
160	0xbda64145	-0.08117918
161	0xbe0498a1	-0.12948848
162	0xbcbd70c1	-0.023125054
163	0x3d5efd32	0.054440685
164	0x3ddc5b4e	0.107596025
165	0x3d7ac295	0.061220724
166	0x3daa567a	0.08317275
167	0xbc983dda	-0.01858418
168	0xbe069e69	-0.13146366
169	0xbd6ce3fd	-0.057834614
170	0x3dfce19f	0.12347721
171	0x3daed00f	0.08535778
172	0x3dea162f	0.114300124
173	0xbd27fc9d	-0.041012395
174	0x3e125525	0.14290293
175	0x3b8ad142	0.0042363713
176	0xbd972eb0	-0.07381952
177	0xbd8d3b8a	-0.06896122
178	0xbd385574	-0.04500337
179	0x3d53c1d1	0.05169851
180	0xbbc65808	-0.0060529746
181	0x3cdf540b	0.027261754
182	0xb8d6a6e4	-0.00010235401
183	0xbc5b4428	-0.013382949
184	0xbdc716e0	-0.0972116
185	0x3d2a3124	0.04155077
186	0x3db426f4	0.08796492
187	0xbc8b5138	-0.017006502
188	0xbdb4a52e	-0.08820568
189	0x3d86ef8a	0.06588657
190	0xbcbb0413	-0.022829091
191	0x3d01e49f	0.03171217
192	0x3e0e4f56	0.13897452
193	0x3bef8245	0.0073092305
194	0xbd1f9564	-0.03896083
195	0x3d2bc2be	0.041933767
196	0x3c69d16a	0.01427112
197	0x3dee0070	0.11621177
198	0xbddf9165	-0.10916404
199	0xbde47a84	-0.111561805
200	0x3da2db15	0.07951943
201	0x3d718c77	0.05897185
202	0x3d8e5ff4	0.06951895
203	0x3ba0d740	0.0049084723
204	0xbd4c4960	-0.049874663
205	0xbd8b3dbf	-0.067988865
206	0x3d4299ee	0.04751008
207	0x3dee7ddc	0.116450995
208	0xbd975a62	-0.07390286
209	0xbd9b3858	-0.07579106
210	0xbd463cec	-0.048397943
211	0x3c11fc08	0.008910187
212	0xbd294ae7	-0.041331198
213	0x3d5e5073	0.05427594
214	0x3d070847	0.03296688
215	0x3dd0acab	0.10189184
216	0xbc79b845	-0.015241687
217	0x3df0daf4	0.11760512
218	0x3dee618c	0.11639699
219	0xbccc76a7	-0.024958922
220	0xbdab1b9c	-0.083548754
221	0x3db18ace	0.08669053
222	0xbd45936e	-0.048236303
223	0x3dc30590	0.09522545
224	0x3d99d86e	0.07511984
225	0x3d1b7773	0.037955713
226	0x3dcfbea8	0.10143787
227	0x3c9823cf	0.018571762
228	0x3da7b3a8	0.081885636
229	0x3da24a3f	0.079243176
230	0x3e06583c	0.13119596
231	0x3e014f6f	0.12627958
232	0xbb92341e	-0.0044617793
233	0xbdbb4967	-0.0914486
234	0xbd129e9e	-0.0357958
235	0x3dfa11c2	0.12210418
236	0xbdd3b37a	-0.10336967
237	0xbbe416df	-0.0069607343
238	0x3d835cd2	0.064141884
239	0x3db7860d	0.08961115
240	0x3cc95b21	0.024579586
241	0x3d14be4a	0.036314286
242	0xbdbefdef	-0.09325778
243	0xbd4691f3	-0.04847903
244	0x3d8a1570	0.0674237
245	0x3cf233fc	0.029565804
246	0xbcedb1ff	-0.02901554
247	0x3ac97454	0.0015369751
248	0xbdb166da	-0.086621955
249	0xbdeb634e	-0.1149355
250	0xbd185c91	-0.037197653
251	0xbc9cb79c	-0.01913052
252	0xbd288b0f	-0.04114824
253	0xbdc994a9	-0.09842808
254	0x3dc5c568	0.09656793
255	0xbdf4ac5d	-0.11946938

feature_extractor.4.bias f4 [192]
0	0x3725b99c	9.877982e-06
1	0xb855e32d	-5.099473e-05
2	0x39293fce	0.00016140865
3	0xb90adc69	-0.00013242815
4	0x3865d42e	5.4795462e-05
5	0xb8c4e4f5	-9.388655e-05
6	0xb907a04f	-0.00012934323
7	0xb8ab5453	-8.169622e-05
8	0x385b07a1	5.2220774e-05
9	0x3964517f	0.00021774134
10	0xb91bfee5	-0.00014876908
11	0x36e2b341	6.7561928e-06
12	0xb8483a52	-4.773803e-05
13	0x36441e15	2.9223786e-06
14	0x39022368	0.00012410956
15	0x357ffb24	9.536036e-07
16	0xb91b5c13	-0.00014816252
17	0x389b3338	7.400516e-05
18	0xb89a1933	-7.347986e-05
19	0xb8fa9989	-0.00011949527
20	0x3941f0d9	0.00018495637
21	0x38bafef7	8.916662e-05
22	0x3921c686	0.00015428112
23	0xb71c6fcc	-9.324354e-06
24	0xb86aa1f5	-5.594078e-05
25	0xb8432c60	-4.653295e-05
26	0xb57cdded	-9.420026e-07
27	0xb892a896	-6.993224e-05
28	0xb9022868	-0.00012412819
29	0xb89fecea	-7.6258395e-05
30	0x38ba8a8c	8.8949775e-05
31	0x38323ed7	4.249703e-05
32	0xb7ae67ed	-2.079081e-05
33	0xb9dad6ad	-0.00041740146
34	0xb81a8a19	-3.6845075e-05
35	0x393d4488	0.00018049974
36	0xb5deaf15	-1.6591245e-06
37	0x38e2503f	0.00010791467
38	0xb8ded952	-0.00010626264
39	0xb6dd17c5	-6.5890804e-06
40	0xb8f77d1c	-0.00011801181
41	0x381f0500	3.791321e-05
42	0x3786b9dc	1.6060592e-05
43	0x372f2d28	1.0441327e-05
44	0xb8f4973c	-0.00011662996
45	0xb7e72ba6	-2.7557671e-05
46	0xb78ff13f	-1.7159267e-05
47	0x39163403	0.0001432449
48	0xb71844c0	-9.075913e-06
49	0xb8e27be6	-0.00010799598
50	0x3852e5b6	5.0281837e-05
51	0x36bc6b6b	5.6153417e-06
52	0xb86ac448	-5.597275e-05
53	0xb82f0a10	-4.1732623e-05
54	0x37a2044f	1.9313911e-05
55	0x3835de00	4.3360516e-05
56	0x38bb4f9c	8.931683e-05
57	0x3706d011	8.035467e-06
58	0x38158f12	3.5657613e-05
59	0x375b65a7	1.3077085e-05
60	0x390598c1	0.00012740774
61	0x38fc5f11	0.00012034004
62	0x37eb9837	2.8085064e-05
63	0x38981656	7.252085e-05
64	0x390b03df	0.00013257515
65	0x383bb2d6	4.475083e-05
66	0x3827cf9c	4.0009254e-05
67	0x3830fcd7	4.2197145e-05
68	0x384f571f	4.9433784e-05
69	0xb72c78ff	-1.02801705e-05
70	0x37d714a7	2.5639614e-05
71	0xb90b8b27	-0.00013307911
72	0xb7c797e5	-2.379338e-05
73	0x37d46986	2.5321508e-05
74	0xb8cab80f	-9.666394e-05
75	0x38652981	5.4636508e-05
76	0x3780feee	1.53775e-05
77	0xb6f49c8e	-7.289992e-06
78	0x38fd758b	0.00012085874
79	0xb97b01a3	-0.00023937835
80	0x38d26366	0.00010032095
81	0xb888ad49	-6.517262e-05
82	0x37b699d3	2.176772e-05
83	0xb64ca677	-3.0495264e-06
84	0x3904da12	0.00012669738
85	0xb87ff428	-6.1024126e-05
86	0x396c85cc	0.00022556557
87	0xb907377d	-0.00012895274
88	0xb5a6c7be	-1.2426096e-06
89	0x37aeb0ac	2.0824686e-05
90	0xb8af25a9	-8.351665e-05
91	0x3927c840	0.0001600096
92	0xb7d84b0f	-2.5784158e-05
93	0x389f70b2	7.602702e-05
94	0x38de87a4	0.0001061105
95	0x369514ef	4.442983e-06
96	0x382b50b0	4.0844723e-05
97	0x385ba2ac	5.236517e-05
98	0xb87cc5fc	-6.026587e-05
99	0x3813f90b	3.527947e-05
100	0x376368c6	1.3554649e-05
101	0xb8c8290d	-9.5443895e-05
102	0xb91b83e2	-0.00014831082
103	0xb720056a	-9.538004e-06
104	0xb88aaa71	-6.6121e-05
105	0xb8815ce5	-6.168502e-05
106	0x38eafc50	0.000112049864
107	0xb8e9ebff	-0.000111542635
108	0x38224441	3.8687376e-05
109	0xb8858aa1	-6.367756e-05
110	0x3825633d	3.943149e-05
111	0x39346a0b	0.00017205642
112	0xb91c7bb3	-0.00014923401
113	0x3787826d	1.6153988e-05
114	0x396cf353	0.00022597359
115	0xb7be5bc8	-2.2692504e-05
116	0xb8856ee2	-6.362588e-05
117	0x37d46ba2	2.532249e-05
118	0xb9848032	-0.00025272515
119	0xb7ce7c4d	-2.4614996e-05
120	0x38c8e0cb	9.578614e-05
121	0x38def1d9	0.000106308325
122	0x38866e1e	6.410129e-05
123	0xb89c2418	-7.445383e-05
124	0xb91d26c6	-0.00014987131
125	0x38c26246	9.268946e-05
126	0xb881db39	-6.192033e-05
127	0x380c987d	3.3520617e-05
128	0xb917ce2e	-0.0001447729
129	0xb89c68f5	-7.4582094e-05
130	0xb8fe7ff5	-0.00012135498
131	0x390782a9	0.00012923278
132	0xb86f8b0f	-5.711155e-05
133	0x37fa1820	2.9813556e-05
134	0x38a19a02	7.7057644e-05
135	0xb88b3ff2	-6.639947e-05
136	0xb6034f4a	-1.9566673e-06
137	0x388c2acd	6.6836925e-05
138	0x37c7abdf	2.3802682e-05
139	0x372acf7c	1.0181098e-05
140	0x36a757fa	4.9872297e-06
141	0xb652798a	-3.1363184e-06
142	0xb82d1a40	-4.127086e-05
143	0x3702bf51	7.793148e-06
144	0x3454cb42	1.9817983e-07
145	0x36ec99d4	7.051256e-06
146	0x386979e7	5.566506e-05
147	0x38bfdc6c	9.1486465e-05
148	0x397cafb8	0.00024098053
149	0xb89bb0ff	-7.423944e-05
150	0x35d4c3fe	1.5852272e-06
151	0xb79ab09b	-1.8440469e-05
152	0xb8e0340e	-0.00010690848
153	0xb8d67dc0	-0.00010227738
154	0xb88e9f10	-6.800715e-05
155	0x3826b8f5	3.974974e-05
156	0x38464346	4.7269532e-05
157	0x388ccaf3	6.7135225e-05
158	0xb92db6cd	-0.00016566664
159	0xb85bba49	-5.238716e-05
160	0xb800c8b1	-3.0704487e-05
161	0xb69b72db	-4.632731e-06
162	0x38a5b2f4	7.901146e-05
163	0x382be5f5	4.098374e-05
164	0x373a4c97	1.1104296e-05
165	0xb88fc8df	-6.8561865e-05
166	0x3894811e	7.08124e-05
167	0xb87e441a	-6.0621744e-05
168	0xb87202ff	-5.7700086e-05
169	0xb72fa1ce	-1.0468486e-05
170	0xb8ced043	-9.861637e-05
171	0x38526219	5.0159262e-05
172	0xb9830637	-0.00024990898
173	0x38ddf191	0.000105830964
174	0x394ae151	0.00019348158
175	0x392559cf	0.00015769083
176	0x37369efe	1.0885064e-05
177	0x38aa5545	8.1221144e-05
178	0xb8d888bf	-0.000103251536
179	0xb8677275	-5.518129e-05
180	0xb912d0c9	-0.00014001424
181	0xb710e8d8	-8.637282e-06
182	0x384ade78	4.8367743e-05
183	0x3986f730	0.0002574264
184	0xb910afb7	-0.00013798369
185	0xb60d4271	-2.1049311e-06
186	0xb8b67e29	-8.7019354e-05
187	0xb5f9e691	-1.8619049e-06
188	0xb82baf62	-4.0932915e-05
189	0x37efa7fb	2.8569242e-05
190	0x373561ce	1.0811213e-05
191	0xb75ed996	-1.3282892e-05

feature_extractor.5.weight f4 [192]
0	0x3f801dc8	1.0009089
1	0x3f802346	1.0010765
2	0x3f81fa2e	1.0154474
3	0x3f7e074b	0.9922988
4	0x3f7f57a6	0.99743116
5	0x3f81c033	1.013678
6	0x3f8032f2	1.0015547
7	0x3f81155b	1.0084642
8	0x3f809d64	1.0048032
9	0x3f809f13	1.0048546
10	0x3f7db830	0.9910917
11	0x3f82632e	1.0186517
12	0x3f7e633d	0.99370176
13	0x3f7fc1c4	0.9990504
14	0x3f7f5e8b	0.99753636
15	0x3f7c2084	0.98487115
16	0x3f803d6d	1.0018746
17	0x3f8027dc	1.0012164
18	0x3f7ce438	0.98785734
19	0x3f7fa9b4	0.9986832
20	0x3f809bcc	1.0047545
21	0x3f7b879c	0.982538
22	0x3f7c595f	0.9857387
23	0x3f836cd3	1.0267586
24	0x3f80cb6f	1.0062083
25	0x3f80a8c7	1.0051507
26	0x3f80db36	1.0066898
27	0x3f7bae9e	0.9831332
28	0x3f7d3b35	0.9891847
29	0x3f82b971	1.0212842
30	0x3f7f1b1c	0.9965074
31	0x3f804907	1.0022286
32	0x3f7dd96b	0.9915988
33	0x3f815142	1.0102923
34	0x3f7de7fc	0.99182105
35	0x3f813630	1.0094662
36	0x3f806116	1.0029628
37	0x3f7cecdd	0.98798925
38	0x3f800c8a	1.0003827
39	0x3f7f49ee	0.9972218
40	0x3f81d6bd	1.0143658
41	0x3f807601	1.0036012
42	0x3f836b0d	1.0267044
43	0x3f7eb65d	0.99497014
44	0x3f79a994	0.9752438
45	0x3f80a619	1.0050689
46	0x3f7e4d02	0.99336255
47	0x3f807643	1.0036091
48	0x3f7fb1f3	0.99880904
49	0x3f8027fd	1.0012203
50	0x3f7e24a1	0.9927464
51	0x3f7e7ae6	0.9940628
52	0x3f812535	1.008948
53	0x3f7f96b6	0.9983934
54	0x3f7effbc	0.9960897
55	0x3f8157fb	1.0104975
56	0x3f7f4ee9	0.9972978
57	0x3f80e7ef	1.007078
58	0x3f7c085e	0.9845027
59	0x3f80260a	1.0011609
60	0x3f7f40b0	0.9970808
61	0x3f806d90	1.0033436
62	0x3f7ce9e9	0.9879442
63	0x3f806a55	1.003245
64	0x3f7facb4	0.998729
65	0x3f7d8253	0.99026984
66	0x3f7e4d78	0.9933696
67	0x3f7f4a70	0.9972296
68	0x3f80bde8	1.0057955
69	0x3f7d09d9	0.9884315
70	0x3f8026db	1.0011858
71	0x3f779e77	0.96726173
72	0x3f7ec71d	0.9952257
73	0x3f7c72c2	0.98612607
74	0x3f7c5441	0.9856606
75	0x3f801e20	1.0009193
76	0x3f7bf403	0.9841921
77	0x3f7eea20	0.99575996
78	0x3f7b844d	0.9824875
79	0x3f7ca108	0.98683214
80	0x3f77fa61	0.9686642
81	0x3f80ce41	1.0062944
82	0x3f80f722	1.0075419
83	0x3f7d4ad7	0.9894232
84	0x3f7ddaa8	0.9916177
85	0x3f811c14	1.0086694
86	0x3f7fd9ae	0.9994153
87	0x3f811c80	1.0086823
88	0x3f7e95fd	0.99447614
89	0x3f7df8fe	0.99208057
90	0x3f803fc4	1.001946
91	0x3f821468	1.0162477
92	0x3f80d21a	1.0064118
93	0x3f7d419c	0.98928237
94	0x3f7c5d48	0.98579836
95	0x3f7fd2ea	0.99931204
96	0x3f7fecb9	0.99970585
97	0x3f7dbfb9	0.9912067
98	0x3f7eaefb	0.9948575
99	0x3f8071e4	1.0034757
100	0x3f7e5985	0.99355346
101	0x3f7f4b6c	0.9972446
102	0x3f7e9a9e	0.9945468
103	0x3f7c9b20	0.986742
104	0x3f80390e	1.0017412
105	0x3f7ff1d3	0.9997837
106	0x3f7da370	0.9907751
107	0x3f82a873	1.0207657
108	0x3f7e879e	0.99425685
109	0x3f81d6e9	1.014371
110	0x3f7f2aa8	0.99674463
111	0x3f81e220	1.0147133
112	0x3f7cc8fb	0.9874417
113	0x3f816ca3	1.0111278
114	0x3f8118a4	1.0085645
115	0x3f7c7519	0.98616177
116	0x3f7e7616	0.99398935
117	0x3f82d3fb	1.0220941
118	0x3f806c1e	1.0032995
119	0x3f7f2e2b	0.9967982
120	0x3f7e5278	0.9934459
121	0x3f82e64d	1.0226532
122	0x3f80092a	1.0002797
123	0x3f808670	1.0041027
124	0x3f82823a	1.0195992
125	0x3f8017c2	1.000725
126	0x3f801fa3	1.0009655
127	0x3f808028	1.003911
128	0x3f7ebe4b	0.99509114
129	0x3f7e63bd	0.9937094
130	0x3f7f27be	0.99670017
131	0x3f81b8be	1.0134504
132	0x3f7fe0df	0.999525
133	0x3f7e2226	0.99270856
134	0x3f7f6874	0.9976876
135	0x3f80d369	1.0064517
136	0x3f7f1734	0.9964478
137	0x3f7c8419	0.98639065
138	0x3f7f24d4	0.9966557
139	0x3f805011	1.0024434
140	0x3f7d6d93	0.9899532
141	0x3f80b9d3	1.0056709
142	0x3f81317f	1.009323
143	0x3f803cb0	1.001852
144	0x3f81ab1a	1.0130341
145	0x3f809e2e	1.0048273
146	0x3f805d4a	1.002847
147	0x3f7db59a	0.99105227
148	0x3f7f337c	0.99687934
149	0x3f80c7dc	1.0060992
150	0x3f80321a	1.001529
151	0x3f80ee17	1.0072659
152	0x3f7cba73	0.98722
153	0x3f7b3526	0.98127973
154	0x3f8079d3	1.0037178
155	0x3f7fb9e3	0.99893016
156	0x3f80c443	1.0059894
157	0x3f80e360	1.0069389
158	0x3f813288	1.0093546
159	0x3f7e7821	0.9940205
160	0x3f80e71f	1.0070533
161	0x3f7f1614	0.99643064
162	0x3f811e00	1.008728
163	0x3f7e8a23	0.9942953
164	0x3f80e7b8	1.0070715
165	0x3f7df7a7	0.9920601
166	0x3f80fb31	1.0076658
167	0x3f820933	1.0159057
168	0x3f8038cb	1.0017332
169	0x3f808272	1.0039809
170	0x3f83a05c	1.0283313
171	0x3f8098ba	1.0046608
172	0x3f7ce63e	0.9878882
173	0x3f83a93b	1.028602
174	0x3f7f76c3	0.9979059
175	0x3f7fdd85	0.99947387
176	0x3f8189e8	1.0120211
177	0x3f807fc8	1.0038996
178	0x3f7f1cbf	0.9965324
179	0x3f82ef7a	1.0229332
180	0x3f8009af	1.0002955
181	0x3f800e3c	1.0004344
182	0x3f7d4851	0.9893847
183	0x3f7fc5fa	0.99911463
184	0x3f7f3da1	0.99703413
185	0x3f810376	1.0079181
186	0x3f804242	1.002022
187	0x3f7f415c	0.99709105
188	0x3f80494f	1.0022372
189	0x3f817f4f	1.0116976
190	0x3f7ca23b	0.98685044
191	0x3f8099d1	1.0046941

feature_extractor.5.bias f4 [192]
0	0xbbe93586	-0.007116976
1	0xbc4cf80a	-0.012510309
2	0x3ce88d15	0.028387586
3	0x3bf1835c	0.0073703956
4	0xb9f3174c	-0.0004636593
5	0xb9c6e51c	-0.00037936203
6	0xbc2f306f	-0.0106927
7	0x3b4d80e8	0.0031357352
8	0x3bd210cb	0.0064106933
9	0x3b8085ff	0.0039222236
10	0x3c828faa	0.015937645
11	0x3c35b038	0.011089377
12	0xbc05c148	-0.008163758
13	0x3b54d68a	0.0032476508
14	0x3a1e5bc4	0.0006040896
15	0xbc85ec45	-0.016348014
16	0x3c3755f5	0.011189927
17	0x3c0f3e3f	0.008742868
18	0xbbbcdcbb	-0.005763618
19	0x3b391dc8	0.002824651
20	0xbbed83f3	-0.0072483956
21	0xbca22f22	-0.019797865
22	0xbc21f91d	-0.009886053
23	0x3cff0787	0.031131519
24	0x3ac8af00	0.0015310943
25	0x3c40e80b	0.011774073
26	0x3b0209b3	0.0019842207
27	0xbc40a051	-0.011756972
28	0xbc4e3c4b	-0.012587617
29	0x3c9d5a68	0.019208148
30	0xbbb4bdc0	-0.005515784
31	0xbc5d2ba4	-0.013499174
32	0xbb804812	-0.0039148415
33	0x3a118f1c	0.0005552636
34	0xbb179630	-0.002313029
35	0x3c6c993e	0.014440833
36	0x3c00db09	0.007864722
37	0xbb48226d	-0.0030538097
38	0xbccc1440	-0.024912
39	0x3b7f61a8	0.003896812
40	0x3c4386f0	0.011934027
41	0xbbc1ce8c	-0.005914515
42	0xbaa352e8	-0.0012460621
43	0x3b829d30	0.0039860234
44	0xbc94f2b6	-0.01818214
45	0x3bcc45c1	0.0062339013
46	0xba2200ed	-0.00061799475
47	0x3c0b31bd	0.008495745
48	0xbb8c10a6	-0.0042744456
49	0x3bbbfe06	0.005737069
50	0xbb963e24	-0.0045850445
51	0x3bbf7de6	0.0058438657
52	0x3b654f3b	0.0034989852
53	0x3b52336d	0.003207411
54	0x3b6af8df	0.0035853905
55	0x3c368427	0.011139906
56	0x3a97ad93	0.0011572115
57	0x3b1ebbae	0.0024220753
58	0xbc2abec1	-0.010421456
59	0xbae8d478	-0.0017763516
60	0x3bf36128	0.0074273534
61	0xbbac4f61	-0.005258486
62	0xbbd5766c	-0.006514361
63	0x3c07020d	0.008240235
64	0x3b24fcf2	0.0025175181
65	0xbc7ed21d	-0.015553025
66	0x3bb66298	0.0055659525
67	0x3c1949f6	0.009356013
68	0x3b860635	0.0040900954
69	0xbc6762b5	-0.014122655
70	0x3becb15f	0.0072232927
71	0xbc76f5e6	-0.015073275
72	0x3b3bc7ae	0.0028652954
73	0xbc2db881	-0.010603071
74	0xbbccb814	-0.0062475298
75	0x3ae73b59	0.0017641588
76	0xbc391c93	-0.0112983165
77	0xbc20349b	-0.009778167
78	0xbbc4f3a5	-0.00601049
79	0xbbc0ff51	-0.005889811
80	0xbcebf14a	-0.028801579
81	0xbbbf4312	-0.005836853
82	0x3b96250e	0.004582054
83	0xbc9fa3a5	-0.019487211
84	0xbb9e0b98	-0.0048231594
85	0x3c925066	0.017860603
86	0xbb720fe8	-0.003693575
87	0xba7cfb6e	-0.0009650503
88	0xbab59b53	-0.0013855494
89	0xba5a37da	-0.00083243626
90	0x3abde113	0.0014486633
91	0x3cd05d21	0.025435032
92	0x3c51ea3d	0.012812194
93	0xbb2a741b	-0.0026009146
94	0xbca2e38b	-0.019883892
95	0xbc419270	-0.011814699
96	0x3b7afaba	0.0038296417
97	0xbb9dfa22	-0.004821078
98	0x3af546a7	0.0018713073
99	0x3c44548b	0.011983047
100	0xbbf034aa	-0.007330497
101	0x3ae417fd	0.0017402169
102	0x3a6c965a	0.00090250897
103	0xbc95e166	-0.018295955
104	0x3b9ed173	0.0048467456
105	0xbb4934ae	-0.0030701566
106	0x3b3691df	0.0027857942
107	0x3cc8c1a2	0.024506394
108	0xbc153aaf	-0.00910823
109	0x3c80efdf	0.01573938
110	0xbba5738d	-0.005049175
111	0x3cad9904	0.021191128
112	0xbb2d257d	-0.002642005
113	0x3c59d24c	0.013294768
114	0x3c161cfb	0.009162183
115	0x3aad6354	0.0013228455
116	0xbb1bc6d5	-0.0023769636
117	0x3c4b5ff3	0.012413013
118	0xbb4b4e16	-0.0031021885
119	0xbb7e6928	-0.0038820002
120	0xbc2c7e1f	-0.0105281165
121	0x3c8d4e1a	0.017249156
122	0xbc819f09	-0.015822904
123	0x3c5b7126	0.013393676
124	0x3c9fc5af	0.019503443
125	0xba53de95	-0.00080821785
126	0x3ac79f08	0.001522989
127	0x3b5c1796	0.0033583394
128	0xbc0a7e66	-0.008452987
129	0x3bc70c2f	0.0060744504
130	0xbc210410	-0.009827629
131	0x3c5c8a44	0.0134606995
132	0xbbc9d690	-0.006159611
133	0xbc2c6f39	-0.010524564
134	0xbc5c53c3	-0.013447705
135	0x3b85509a	0.0040684463
136	0x3b7559f6	0.0037437654
137	0xbc21f95b	-0.009886111
138	0x3ba21012	0.0049457634
139	0xba05587c	-0.00050867326
140	0xbb9918a6	-0.004672128
141	0x3c21207b	0.009834404
142	0x3c8c32f4	0.01711414
143	0x3c315ce5	0.01082537
144	0x3c620d04	0.0137970485
145	0x3b40fec8	0.0029448736
146	0x3b2984a6	0.0025866418
147	0xbad64e97	-0.0016350326
148	0xbb22b6e7	-0.0024828257
149	0xba70f610	-0.00091919396
150	0xbc1331d4	-0.008984048
151	0xbb0e1dfa	-0.0021685348
152	0xbbe40e0a	-0.0069596814
153	0xbc699015	-0.014255543
154	0xbbad6ce5	-0.0052925223
155	0xbb83a122	-0.0040170113
156	0x3b8148a5	0.0039454275
157	0x3b58ee30	0.0033100955
158	0x3c30aeca	0.01078386
159	0x3b1c4708	0.002384605
160	0xbc1260fb	-0.008934255
161	0x394fa7aa	0.00019803518
162	0x37a7e680	2.0015286e-05
163	0xbc814d3e	-0.015783902
164	0x3c83513d	0.016029948
165	0xbc3f4ae0	-0.011675566
166	0xbb90c0d7	-0.0044175196
167	0x3c6f8982	0.014620187
168	0xbb981e38	-0.004642274
169	0x3c1e1d48	0.009650536
170	0x3ca3b3d9	0.019983219
171	0xb98e12a6	-0.00027098245
172	0xbc79669b	-0.015222217
173	0x3cb61258	0.022225544
174	0xbc2b41a3	-0.010452661
175	0x3b5bb1f2	0.0033522812
176	0x3a72fdd0	0.00092693884
177	0x3c1dcd13	0.009631413
178	0xbba6e796	-0.005093525
179	0x3ca940f3	0.020660853
180	0xbc50e815	-0.012750645
181	0x3baa0d68	0.0051895864
182	0xbc14335f	-0.009045451
183	0xbbc6492d	-0.0060512037
184	0x3a9d15d6	0.0011984657
185	0xba8f1406	-0.0010916002
186	0x3c06d32f	0.008229061
187	0x3b341c02	0.0027482514
188	0x3b9d9d33	0.0048099994
189	0x3bf5404e	0.0074844724
190	0x3b25f7cd	0.0025324703
191	0x3b629b2d	0.0034577355
