best_delta_model.pth (torch, 132899 bytes, 20 tensors)

network.0.weight f4 [128, 154]
000000 67 16 19 be 71 dd 16 bb e3 4d 9e bd 52 e7 02 be
       -0.14949952 -0.0023020173 -0.077296995 -0.12783554
000010 ca 6b 86 bd 7c ff 9c bd 2b 6b 9b 3d 34 79 80 bd
       -0.06563528 -0.07665917 0.075888 -0.06273118
000020 1d 4c 1d 3e 94 50 9a 3d 38 00 7d bd 80 dd af bc
       0.15361066 0.075349 -0.061767787 -0.021467924
000030 cc 9c 09 be 4b e2 79 3d e6 1a 9e 3c 9a cf bf 3d
       -0.1343872 0.061006825 0.019299936 0.09365769
000040 f9 87 e3 bd 5f 0b 4b bc 83 31 6b bd db 22 c6 bd
       -0.11109919 -0.012392848 -0.057420265 -0.09674617
000050 5b 7d f2 bc 77 6e a2 3d 16 40 15 3d f3 04 7c bd
       -0.02960079 0.07931226 0.03643807 -0.061528157
000060 93 a0 d2 bd 52 f5 50 3d 73 68 c8 bd 8e 89 ae 3c
       -0.10284533 0.051015206 -0.09785547 0.021305826
000070 df 8c 1e 3e 8f ee f3 bd 99 9a 60 bd f3 46 4c 3d
       0.15483426 -0.11910736 -0.054834936 0.04987235
000080 42 71 55 bd 7a d9 5e 3c 91 65 ae 3d 98 b7 c7 3c
       -0.052109964 0.013601655 0.08515466 0.024379537
000090 f2 b1 c2 3d 55 09 e4 bd a5 d5 aa bd aa 68 0c be
       0.095065966 -0.111345924 -0.08341531 -0.13711801
0000a0 e5 84 45 3d 58 8a 03 be 58 58 dc 3d bd 0b 85 3d
       0.04822244 -0.12845743 0.10759038 0.064963795
0000b0 55 54 10 3d f9 72 a9 bc 24 8b c5 bd 92 79 e8 3b
       0.035236675 -0.020684706 -0.096456796 0.0070945704
0000c0 f2 20 07 be a0 b1 f3 bd 2d 78 67 bd a1 c3 98 bd
       -0.13196161 -0.11899114 -0.056511093 -0.07459188
0000d0 4c 18 d9 bd 23 65 55 3c ad 37 15 be 78 1f 12 3e
       -0.106003374 0.013024601 -0.1457202 0.14269817
0000e0 a6 0a 6b bd 64 ba fa ba 64 ff d7 3c c1 f4 e7 3d
       -0.057383202 -0.0019129035 0.026366897 0.1132598
0000f0 26 33 7e 3d 64 98 bb 3d 04 3f 83 3b 02 b4 c2 bc
       0.062060498 0.091599256 0.004005315 -0.023767475
000100 e7 07 5b bc 14 72 c6 3d 71 56 ac 3d b9 4b e1 3d
       -0.013368583 0.096897274 0.08414925 0.11000771
000110 85 38 d4 3d 51 3d 0f be f7 da 89 bd ce 50 af 3d
       0.10362343 -0.13988234 -0.06731217 0.08560334
000120 6d 8d 76 3d 96 b7 0d be 73 36 a9 3d 64 9e 37 3b
       0.060193468 -0.13839564 0.082623385 0.0028017992
000130 a4 ff 69 3d 47 35 46 3d 30 23 b5 bd df b8 9f 3d
       0.057128564 0.048390653 -0.08844602 0.07798933
000140 75 d9 37 3d f0 fe ff 3d 1d e1 12 3e e4 75 c2 bd
       0.044885118 0.12499797 0.14343686 -0.09495142
000150 07 97 86 bc 54 b5 f3 bd cb 22 8c 3d 5e 58 d3 bd
       -0.016429437 -0.1189982 0.06842574 -0.10319589
000160 34 b1 8d 3d 84 76 c2 bd d3 16 1c 3e 38 3f cb 3d
       0.069185644 -0.09495261 0.15243082 0.099241674
000170 51 3a 01 be 2d c4 2e 3b 68 78 1d 3d 63 52 01 bd
       -0.12619902 0.0026667223 0.038444906 -0.03157271
000180 a6 fb fe bd 28 cd 51 bd 74 f5 c6 bd 4f 13 33 bd
       -0.12450342 -0.051221043 -0.09714785 -0.043719586
000190 86 bf 11 3e 67 60 58 bd 79 29 8f 3d 50 47 21 3c
       0.14233217 -0.05282631 0.06990332 0.009843662
0001a0 ed 60 62 3d cc c9 80 3d 4a ed f4 3b b5 16 9c bc
       0.055268217 0.0628849 0.007474576 -0.019053796
0001b0 76 b3 34 bd eb 8f dc 3d 47 67 92 3d 8d f4 32 3d
       -0.04411646 0.10769638 0.07148605 0.043690253
0001c0 f0 0a 22 3c 18 71 bb bd 4a e0 e7 bd 64 57 89 3d
       0.009890303 -0.0915243 -0.113220766 0.067061216
0001d0 df f4 17 3d 4a a7 af 3d de 72 ba 3d 56 4f a1 bb
       0.03709876 0.0857683 0.091039404 -0.0049227877
0001e0 6e 04 b9 3d 93 b7 88 bd b8 c2 05 be 8d 79 38 3c
       0.09034048 -0.06675639 -0.1306256 0.011259449
0001f0 71 2a 1b bd 0c 6d fd 3d cb 5d 1a 3e 99 0a 81 bd
       -0.037882272 0.12374315 0.15074842 -0.063008495
000200 a9 88 bd 3c 18 80 11 3d 2e f0 cd bd 11 ee 20 3d
       0.023136454 0.03552255 -0.10055576 0.039289538
000210 71 92 5e 3d a8 dc 45 3d 12 a9 d4 bc e8 c7 07 3e
       0.054338876 0.048306137 -0.025959525 0.13259852
000220 01 0f bb bd 23 65 88 3d da ce 99 3c a0 6b 1f be
       -0.09133721 0.06659915 0.018775392 -0.155684
000230 e9 d8 7c bc 7b 58 74 bd 2e c1 8d bd f3 15 1b bd
       -0.015432575 -0.059654694 -0.06921612 -0.03786273
000240 7f 1d 80 3d 4a b0 8d 3c 60 d5 72 bd 92 90 12 3d
       0.06255626 0.017295975 -0.05928552 0.035782404
000250 52 29 4a bb f3 de a1 3c 92 77 68 3c 50 f7 60 bd
       -0.0030847383 0.01975963 0.014188664 -0.054923356
000260 f3 c2 fc 3d bc cc 14 bd ac aa 31 3d 05 2a 24 3d
       0.12341871 -0.036328062 0.043375656 0.040079135
000270 2d e4 ce 3d 26 5c 4b 3d 61 56 af 3d e6 a8 36 3c
       0.10102115 0.049648426 0.08561397 0.011148667
000280 95 62 90 3b 64 b8 17 3e 1f 6b 9f bd 11 c8 4a bd
       0.004406283 0.14816433 -0.077841036 -0.049507204
000290 3a 6e 82 bd 8b 73 74 3d 49 59 ca 3d bb 36 0f be
       -0.0636868 0.059680503 0.09880311 -0.13985722
0002a0 87 ab 83 bd 47 f7 07 be b0 07 c9 bc e2 1d cb bc
       -0.064292006 -0.13277923 -0.024539798 -0.024794523
0002b0 1a 94 94 bc 45 e9 3a 3b 0c 26 bc bd e4 01 de 3d
       -0.018137027 0.0028520387 -0.09186944 0.10840204
0002c0 1c 5f 99 bd a7 b4 8f bc b1 2b 21 bd 58 c3 07 bd
       -0.07488844 -0.017542196 -0.039348308 -0.03314528
0002d0 01 c0 d6 3d 94 56 a6 bd 5d c9 2e bc ca 5a c8 3d
       0.104858406 -0.08121982 -0.010668126 0.09782942
0002e0 e1 9c f9 3d 75 08 df bd 01 95 8a 3d d8 36 dd 3d
       0.121881254 -0.10890285 0.067667015 0.10801476
0002f0 32 6f e6 3c d7 7a b3 3d 10 1f 4d 3c 04 87 f0 3d
       0.028129194 0.08763664 0.012519613 0.11744502
000300 3d a7 c8 bb 87 e4 71 3c cd d1 49 bd bc bf e1 bd
       -0.006123452 0.014763958 -0.049272347 -0.110228986
000310 48 3c c6 bc f1 b6 c7 bd 57 fd 0a be 10 cf dd bc
       -0.024198666 -0.0975169 -0.13573204 -0.027076274
000320 1d 12 e4 bd 34 46 9b bc b3 87 23 bd 10 84 70 3d
       -0.11136267 -0.018954374 -0.039924335 0.058719695
000330 28 03 21 bc ad 46 ca 3d 88 ce 28 bd ed d9 e1 3b
       -0.009827413 0.098767616 -0.04121259 0.006892434
000340 0a 23 9c 3d 62 f6 a1 3d 06 cc 76 bd fd fb d9 3d
       0.07623871 0.07908322 -0.060253166 0.10643766
000350 e2 ea 8a bd 5a 26 8b 3d 6b 24 f5 bd 4c 77 38 bd
       -0.067830816 0.06794424 -0.11969837 -0.045035645
000360 7a 2b e4 3d 90 62 8c 3c e4 6f 7a bd db 88 46 3d
       0.11141105 0.017136842 -0.061141863 0.04847036
000370 5d 31 0a 3e 44 2b b1 bd 94 ee 94 bd 93 23 8c 3d
       0.13495393 -0.086508304 -0.07272068 0.06842723
000380 78 10 49 3d 4d 46 ee 3d 1e e6 d3 3d 84 50 0f be
       0.04908797 0.116345026 0.10346626 -0.13995558
000390 f7 c6 0b 3e 16 2d cf 3c cb 5c 0d bd f0 e8 b7 3d
       0.13650118 0.025290053 -0.034512322 0.08979976
0003a0 5e 6a d2 bd a5 33 20 bd c8 60 8d 3d 3c 2b 62 bd
       -0.10274194 -0.039111752 0.06903225 -0.055217013
0003b0 fc f7 86 3d 50 32 44 3d 84 b6 11 3d e4 d8 89 3d
       0.06590268 0.047899544 0.03557445 0.06730822
0003c0 5b 3a 09 be 69 c7 07 3e 7d 23 e2 bc c4 d4 2c bd
       -0.13401167 0.13259663 -0.027604813 -0.042195097
0003d0 85 cf b9 bd c0 76 bb bc 50 94 6b bb 9c ca 37 bd
       -0.09072784 -0.022883773 -0.0035946555 -0.044870958
0003e0 13 4c b2 bd 9b 8f 5e 3a 55 4b e4 3d 0f 74 aa 3c
       -0.08705916 0.0008490027 0.11147181 0.020807294
0003f0 1c 00 e1 3c f7 21 a1 bb a0 7d ef bd 6c 3b e5 bd
       0.027465872 -0.004917379 -0.11693883 -0.111929744

network.0.bias f4 [128]
000000 88 0e 85 b5 24 db ad b7 58 c7 14 b8 d7 0c 19 b8
       -9.913501e-07 -2.0725252e-05 -3.5471603e-05 -3.649e-05
000010 6c 71 bf b7 0c d8 db b4 ad 76 86 37 02 13 6e b7
       -2.282179e-05 -4.0949124e-07 1.6029308e-05 -1.4190331e-05
000020 8c 37 61 37 05 8b 43 38 cf a1 c2 36 b7 37 20 37
       1.3423978e-05 4.6621095e-05 5.8004875e-06 9.549715e-06
000030 75 fb a6 37 b6 75 f2 b6 aa 64 ac 37 a4 56 af 37
       1.9905836e-05 -7.2258654e-06 2.0550873e-05 2.090197e-05
000040 fa 58 43 37 6e 37 47 b5 2a 17 39 b7 db 60 cb 37
       1.1643622e-05 -7.421394e-07 -1.1032253e-05 2.4244588e-05
000050 bd 99 82 37 21 85 d5 b6 b6 32 72 b7 4e 6c 13 37
       1.5568798e-05 -6.363393e-06 -1.4436131e-05 8.787099e-06
000060 f9 34 2f b6 c0 77 77 36 2e 06 d8 b6 c0 12 46 b7
       -2.6107866e-06 3.6875572e-06 -6.438021e-06 -1.1806085e-05
000070 3c 7a 5a b8 a6 29 35 37 90 7a d9 35 66 1b 51 37
       -5.208909e-05 1.0798138e-05 1.620343e-06 1.246375e-05
000080 37 77 a0 37 e4 5a 8f 37 2e d4 ab 37 2e b3 47 b7
       1.9129e-05 1.7089253e-05 2.0483592e-05 -1.1903043e-05
000090 4d b2 37 b7 a4 9e ba 35 b1 7f 80 b7 c7 34 0c 38
       -1.0949164e-05 1.390425e-06 -1.531825e-05 3.3427754e-05
0000a0 1b f1 a4 37 90 85 cb b7 64 74 8a b7 22 4d 42 38
       1.9662597e-05 -2.426168e-05 -1.650508e-05 4.632504e-05
0000b0 04 63 cb 36 3f af c8 37 d2 bf 8b 38 db c0 4c 37
       6.0613984e-06 2.3923463e-05 6.663766e-05 1.220425e-05
0000c0 c9 dc 69 36 01 97 1f 37 7a a7 99 36 c4 b2 79 b5
       3.484822e-06 9.512297e-06 4.579252e-06 -9.3019867e-07
0000d0 f0 07 65 b7 9f 56 4c 37 eb fc f1 37 86 d4 a1 b6
       -1.3651312e-05 1.2179516e-05 2.8847213e-05 -4.822915e-06
0000e0 0a 39 50 38 6a ee bd b6 0f ae 93 37 b8 9b e8 b6
       4.9644186e-05 -5.660394e-06 1.7604818e-05 -6.932267e-06
0000f0 1d 9a b4 37 8a 48 89 b6 4b 35 6c b7 f1 71 a3 37
       2.1529437e-05 -4.091363e-06 -1.4079104e-05 1.9484172e-05
000100 be 05 58 37 b6 3b 18 b7 c0 ae 7e b5 9e a4 f0 37
       1.287594e-05 -9.0738085e-06 -9.487667e-07 2.8686885e-05
000110 5a f3 bf 36 bd 8f 41 36 f2 7f d4 36 dc dd 33 38
       5.7205734e-06 2.8842908e-06 6.332987e-06 4.288355e-05
000120 e6 c4 04 b7 84 eb e5 b6 75 5f b4 37 e4 a6 2b b7
       -7.913657e-06 -6.8521495e-06 2.1502123e-05 -1.02312515e-05
000130 1c 61 a4 b7 70 00 4c 37 c0 de 0f b3 6a 7c c1 37
       -1.9595544e-05 1.2159449e-05 -3.3497372e-08 2.3065328e-05
000140 1c f9 89 38 d4 77 d5 34 b8 50 98 b7 96 10 3e 37
       6.579069e-05 3.9761528e-07 -1.81574e-05 1.1328744e-05
000150 14 34 1f b5 20 3f ca 36 ed 21 44 37 73 17 a9 b7
       -5.93079e-07 6.027418e-06 1.1690409e-05 -2.015729e-05
000160 e3 d6 27 b8 a3 ac 2c 37 b7 6e 03 b7 87 18 76 b6
       -4.001603e-05 1.0292194e-05 -7.833986e-06 -3.6671133e-06
000170 b6 e1 2f b6 63 b3 dc b6 4d ce ab b7 93 c9 5c b7
       -2.6208413e-06 -6.5773943e-06 -2.0480855e-05 -1.31599545e-05
000180 a1 99 9a 36 af f6 62 36 b0 92 b9 37 8c 67 c1 b6
       4.6074424e-06 3.3820213e-06 2.2122025e-05 -5.7639027e-06
000190 3f 0c 99 b7 e9 f9 86 37 07 81 90 b6 78 62 35 b7
       -1.8244724e-05 1.6090418e-05 -4.306555e-06 -1.0811367e-05
0001a0 14 f8 be 37 91 87 f9 36 25 69 3c 37 2c b8 95 b7
       2.2765285e-05 7.4365603e-06 1.1230154e-05 -1.7847946e-05
0001b0 ea 21 0e 38 da 36 0b b7 d8 e8 de b7 f0 81 34 b7
       3.3887023e-05 -8.297817e-06 -2.6572889e-05 -1.07590895e-05
0001c0 93 e6 8d 37 84 66 19 36 c7 f1 04 b7 30 65 6a b7
       1.691588e-05 2.2858449e-06 -7.924106e-06 -1.3971046e-05
0001d0 28 76 42 b7 78 fd 0f 38 ca ed 3b b6 23 9b 4e b7
       -1.15908115e-05 3.4329918e-05 -2.8003583e-06 -1.2314677e-05
0001e0 b6 49 ab 36 b9 d0 5e b6 2e ec c1 b7 6b 72 43 37
       5.104778e-06 -3.320207e-06 -2.3117373e-05 1.1649546e-05
0001f0 05 b5 1d b8 80 a3 c2 b7 eb 34 fc b6 e3 e8 14 37
       -3.7600304e-05 -2.3202738e-05 -7.5163457e-06 8.875711e-06

network.1.weight f4 [128]
000000 26 16 80 3f dd be 82 3f 9d 06 81 3f 4d 9c 7e 3f
       1.0006759 1.0214497 1.0080143 0.99457246
000010 5c 8f 7e 3f 29 ee 78 3f d2 3a 81 3f 16 ca 7a 3f
       0.994375 0.97238404 1.0096076 0.9796461
000020 c4 d6 7f 3f 62 77 82 3f 67 f6 77 3f e3 f4 77 3f
       0.9993708 1.0192683 0.96860355 0.9685804
000030 b3 b8 7f 3f e3 ae 7e 3f 22 3c 7b 3f 13 c2 78 3f
       0.99891204 0.99485606 0.9813863 0.97171134
000040 58 68 7e 3f 03 a6 7f 3f fa f3 80 3f 82 98 77 3f
       0.99377966 0.9986269 1.0074456 0.96717083
000050 06 c0 80 3f a1 80 7b 3f 8f 14 7f 3f ce 4f 7e 3f
       1.0058601 0.9824315 0.99640745 0.9934052
000060 c7 a9 7b 3f 5f 7e 81 3f d1 91 76 3f 1f 2e 80 3f
       0.98305935 1.011669 0.9631625 1.0014075
000070 ef 06 84 3f 7c 59 85 3f 22 18 80 3f ee a3 80 3f
       1.0314616 1.0417933 1.0007365 1.0050027
000080 d4 81 7f 3f de db 83 3f 39 63 7b 3f 8b 7a 82 3f
       0.99807477 1.0301473 0.98198277 1.0193647
000090 cd 7d 7e 3f 2f 95 81 3f 85 3e 7f 3f 5c 1d 80 3f
       0.99410707 1.0123652 0.9970477 1.000896
0000a0 43 b9 7f 3f 1c 46 83 3f 2c 1f 80 3f fa f4 78 3f
       0.9989206 1.0255771 1.0009513 0.97248805
0000b0 70 85 7a 3f 6a 6a 7e 3f 1d 94 80 3f 8e 29 80 3f
       0.9785986 0.99381125 1.00452 1.0012681
0000c0 83 d6 7c 3f d5 33 80 3f 09 bf 83 3f 90 26 80 3f
       0.9876482 1.0015818 1.0292674 1.0011768
0000d0 01 a5 79 3f 71 28 82 3f 29 a6 78 3f bd 81 80 3f
       0.975174 1.0168592 0.9712854 1.0039593
0000e0 69 02 86 3f 9a e5 80 3f e5 f7 80 3f 2c 11 82 3f
       1.0469486 1.0070069 1.0075651 1.016149
0000f0 64 fe 7c 3f a0 cf 7b 3f 15 a5 7d 3f ae 32 7f 3f
       0.9882567 0.98363686 0.9908002 0.99686706
000100 41 4c 80 3f da a9 7d 3f 3c f4 7d 3f 5a 9c 82 3f
       1.0023271 0.990873 0.992008 1.0203965
000110 da 57 7f 3f 35 ed 7f 3f 14 b8 7e 3f d0 67 81 3f
       0.99743426 0.99971324 0.9949963 1.0109806
000120 e0 7e 80 3f 58 d0 7e 3f f4 d0 80 3f 9b 23 82 3f
       1.0038719 0.9953666 1.0063767 1.0167116
000130 08 47 7e 3f d0 a5 79 3f 23 8b 80 3f ff 01 83 3f
       0.99327135 0.97518635 1.0042461 1.0234984
000140 e6 b0 80 3f 35 6e 7a 3f b0 27 82 3f 5d 37 82 3f
       1.0053985 0.9782441 1.0168362 1.0173146
000150 d6 d7 7a 3f 6b 1a 80 3f e7 8e 7d 3f d3 4a 79 3f
       0.9798559 1.0008062 0.99046177 0.973798
000160 01 c7 7f 3f 1c 59 81 3f 17 9f 7f 3f 1b d7 7c 3f
       0.9991303 1.0105319 0.99852127 0.98765725
000170 a4 ce 7b 3f 2b 4a 80 3f 24 d9 7c 3f 31 62 82 3f
       0.98362184 1.0022634 0.9876883 1.0186216
000180 b8 1b 80 3f f2 1a 83 3f 5e 2c 82 3f c3 3c 80 3f
       1.0008459 1.0242598 1.016979 1.0018543
000190 91 4f 7f 3f 37 4d 80 3f a1 d0 81 3f 32 14 7d 3f
       0.99730784 1.0023564 1.0141793 0.9885894
0001a0 bf b5 83 3f 1a 5d 81 3f 54 b3 86 3f 8f 08 7f 3f
       1.028984 1.0106537 1.0523477 0.99622434
0001b0 11 0f 7f 3f 6f f5 7a 3f 53 95 81 3f ca bb 7b 3f
       0.99632365 0.9803075 1.0123695 0.9833342
0001c0 de ed 83 3f 10 15 80 3f 01 10 7b 3f 2d 98 7f 3f
       1.0306966 1.0006428 0.98071295 0.99841577
0001d0 70 3f 7b 3f 97 89 81 3f 91 7a 80 3f 2b 88 7b 3f
       0.9814367 1.0120114 1.0037404 0.9825465
0001e0 54 59 82 3f 48 f8 7b 3f 28 24 80 3f 7a 6c 80 3f
       1.0183511 0.9842572 1.0011034 1.0033104
0001f0 7a ec 80 3f d8 ce 7a 3f ff 39 7c 3f 15 43 7a 3f
       1.0072167 0.9797187 0.98525995 0.9775861

network.1.bias f4 [128]
000000 45 fb ec 3b b6 a5 a9 3c d1 73 78 3c ac 11 99 bc
       0.007232102 0.0207089 0.0151643315 -0.018685184
000010 4d cb 5e bc b9 56 22 bd 3b 58 a3 bb 78 bc 6d bc
       -0.013598275 -0.039633486 -0.004984883 -0.0145102665
000020 4c e5 a0 bb 20 98 ec 3b c1 31 ca bc 82 cd c0 bc
       -0.004910147 0.007220283 -0.024681928 -0.023535494
000030 21 5e ab bc 44 0f 01 ba 91 12 5c bc 79 91 c3 bc
       -0.020918908 -0.0004923234 -0.013432161 -0.023873078
000040 23 07 c2 bc 7c 61 5d bc c1 e6 5b 3c 24 24 f0 bc
       -0.023685044 -0.013512012 0.013421715 -0.029314108
000050 03 cf 26 bb 7b f3 18 bc d4 8e 5f bc 63 4c 3b 3c
       -0.0025452978 -0.009335394 -0.013644893 0.011431786
000060 43 71 82 3b 6c 20 ee b9 0e 96 17 bd 0e 09 ea 3b
       0.003980787 -0.00045419054 -0.037008338 0.0071421927
000070 e9 52 0b 3d e1 a9 77 3c d7 a1 e6 bb 46 7b 72 3b
       0.034014616 0.015116186 -0.007038336 0.0036999746
000080 b0 cf f5 ba da 21 f8 3c fb de 47 bc 81 8e 59 3b
       -0.0018753912 0.03028958 -0.012199159 0.0033196511
000090 32 ff 79 bc aa 72 9f 3c 06 b1 61 bc a2 95 c0 bb
       -0.015258597 0.019463856 -0.013775116 -0.0058772126
0000a0 45 2e b5 3c 8d 41 8d 3c 18 6c b9 3a 1b 28 fa bc
       0.02211679 0.017243171 0.0014146594 -0.030536702
0000b0 0c 5a b5 bc 40 fb ee bb fd 6a de 3b 3c 37 26 bc
       -0.022137664 -0.007293135 0.0067876563 -0.010145005
0000c0 15 50 dc bc 5c fd a8 3c d1 b7 6f bb b0 d2 0f bb
       -0.026893655 0.020628624 -0.003657807 -0.0021945648
0000d0 84 68 75 bc 78 5a 71 3c ae 9d e6 bc 27 81 5e bb
       -0.014978532 0.014731042 -0.02815136 -0.0033951493
0000e0 c2 36 3f 3c 62 01 7d 3c 6d 61 88 3c 4f 4a 23 3c
       0.01167077 0.015442224 0.016648019 0.009966447
0000f0 f6 7a ed bb b3 5c 52 bc d2 ee 35 bc ce 72 cf bc
       -0.007247324 -0.012839484 -0.0111043025 -0.025323298
000100 03 43 84 3c 76 bb 0e bc 1e cb db bb 1c 65 c2 3c
       0.016145235 -0.008711686 -0.006707563 0.023729853
000110 18 86 7c bb 14 e3 62 bc 02 ee 60 bc 73 96 24 bb
       -0.0038532075 -0.013848085 -0.0137286205 -0.0025114089
000120 78 32 c7 3b 8e 8b a3 bc a0 1f 88 bc 16 8d 25 3b
       0.0060790144 -0.019964006 -0.016616642 0.0025261096
000130 34 f9 f3 bb e4 05 a8 bc 95 b7 70 bc 84 bc cd 3c
       -0.007445479 -0.020510621 -0.014692207 0.025114305
000140 27 56 31 3b d3 36 01 bd cf 40 38 bb 45 84 e5 3b
       0.0027059407 -0.031546425 -0.00281148 0.007004293
000150 b2 32 de bc 0c 11 37 3b 34 d4 06 bb b1 0a 7c bc
       -0.027123783 0.0027933745 -0.002057326 -0.015383408
000160 54 d4 3e 3c 26 ea 82 3b 44 f1 c2 38 5d fd 76 bb
       0.011647303 0.003995198 9.29558e-05 -0.0037687637
000170 86 ea 83 bc b7 91 1c 3c 19 03 49 bc ac a1 2f bc
       -0.01610304 0.0095562255 -0.012268805 -0.010719698
000180 91 3b 93 3b f4 56 9a 3c c3 1f c8 3b 9d bf fa ba
       0.004493185 0.01884029 0.006107302 -0.0019130592
000190 ce 99 51 3b 46 f8 05 3c ad 86 51 3c 3f 94 58 3c
       0.0031982544 0.008176869 0.012788457 0.013218938
0001a0 4c 2d 09 3d 63 cc b0 ba da 8e 58 3d 00 2a 49 3c
       0.033490464 -0.0013488646 0.05287061 0.01227808
0001b0 ce c0 16 bb 19 24 78 39 38 51 71 3c ea 8b 4f bb
       -0.0023003104 0.0002366457 0.014728837 -0.0031669089
0001c0 cc c8 84 3b 3b 75 27 3c 3b c8 a8 bb 53 48 db ba
       0.004052257 0.010220821 -0.0051508225 -0.0016729928
0001d0 a3 f9 d6 bc 3a 61 6d 3b 74 c1 bb 3a 95 82 7d bc
       -0.026242083 0.0036221282 0.0014324621 -0.015473028
0001e0 5b 8a 11 3b 14 6a cb bb 73 54 4f bb d7 97 6f bc
       0.002220771 -0.006207714 -0.003163603 -0.014623604
0001f0 ab f8 22 3b 1b 83 99 bc 3c b4 6e bc 88 15 68 bb
       0.0024867456 -0.018739274 -0.014569338 -0.0035413224

network.1.running_mean f4 [128]
000000 af 07 f4 3d d3 aa ca 3d c8 da a9 bc a2 34 0f 3e
       0.11915528 0.098958634 -0.020734206 0.13984922
000010 b9 6d 05 3e b5 73 32 be 7d 74 a0 bd 9d 61 86 3a
       0.13030137 -0.17426951 -0.078347184 0.001025248
000020 94 bb 8b bd ae 5c 61 3d 7e c5 c5 3c 93 06 9c bd
       -0.06822887 0.055020027 0.024142023 -0.076184414
000030 fd 5c a9 bd 92 44 e5 3d 5e 23 ee bd 92 46 5f 3d
       -0.08269689 0.111947194 -0.116278395 0.05451066
000040 e5 b1 a3 3d 2c 11 c2 bd 47 22 05 3e a9 78 d4 bc
       0.07992915 -0.094759315 0.13001357 -0.025936441
000050 e9 f8 4a bd f8 6c fe 3d b0 97 9d bd b4 04 91 bc
       -0.049553785 0.12423128 -0.07694948 -0.017702438
000060 f9 e3 da 3d 8a dc 08 be 78 01 04 3e c5 2e b7 39
       0.106880136 -0.13365379 0.12891185 0.00034939326
000070 48 83 d4 bc ce ed 0d 3d 45 7a e3 bc 5c 5f a7 bd
       -0.025941506 0.034650616 -0.027768264 -0.08172485
000080 13 db 35 3e 71 68 b1 3c 95 26 ee 3d ac a6 6b 3d
       0.17759351 0.021656247 0.11628453 0.057531998
000090 d7 52 5e bd d7 4d 83 3b 75 60 f0 bd 4a 4a 93 bc
       -0.05427822 0.004007082 -0.11737148 -0.01797976
0000a0 ef b5 04 bd ec c9 24 3e 66 be 1e 3d 7d 9c 8a 3d
       -0.032400068 0.16092652 0.038755797 0.06768129
0000b0 8a 20 f1 3c 7a c2 99 bd e2 82 dd bd 1f 84 22 be
       0.029434461 -0.075077966 -0.108159795 -0.15870713
0000c0 05 cb 28 3e 2b 77 cd 3d fd ee e9 3d 32 32 0b be
       0.16483696 0.10032495 0.114225365 -0.13593367
0000d0 74 91 f6 3d 09 27 e9 bc 33 01 12 3e 19 29 aa bd
       0.12039462 -0.028460996 0.1425827 -0.0830862
0000e0 1c 3a fe bb ca 32 aa bc ba 70 98 3d 5d 37 80 3c
       -0.007758392 -0.020776171 0.07443376 0.0156514
0000f0 a3 7d ba 3c ed 14 99 3d 3e 69 cb bc 57 e0 34 3e
       0.022764986 0.074746944 -0.024830457 0.17663704
000100 b2 15 cb bc 1e 7f 69 3d e4 8c fa bd 10 9a a8 bd
       -0.024790619 0.057005994 -0.12233904 -0.0823251
000110 68 7e 3f bd dd 64 9c bd a5 9c 13 3d a1 5f 23 bd
       -0.04675141 -0.07636426 0.03603806 -0.03988612
000120 f2 a6 d3 bd 80 9f de bd 64 22 17 3d 33 58 79 bc
       -0.10334577 -0.10870266 0.03689803 -0.015218782
000130 60 42 8a 3c 73 55 93 bc 34 45 aa 3d b5 d5 2d 3d
       0.016877353 -0.017985081 0.08313981 0.042440135
000140 53 33 f0 bc 4e 7d ad 3d f3 4d b5 3c ba 6b 42 3d
       -0.029321348 0.084711656 0.022131896 0.047466017
000150 ee a2 0a 3e a7 15 07 3d 4e 43 32 be b2 c9 99 3d
       0.13538715 0.032979634 -0.17408487 0.075091735
000160 4b df 17 be e1 9b 52 3d 9a 6b 2a 3b da 0b 33 3e
       -0.14831273 0.05141819 0.0026004077 0.1748499
000170 1d 6b d6 bd 81 c3 d6 3b aa a2 fc 3d 6a ff fa 3c
       -0.10469649 0.0065540676 0.12335713 0.030639369
000180 a2 41 82 3d 8b 83 24 bd 8f 04 8d 3d 1b ee c4 bd
       0.06360175 -0.04016451 0.06885635 -0.096157275
000190 46 c6 9f bb bf 7d 2e be 72 0e ef 3d d9 1a f4 bd
       -0.004875931 -0.17040156 0.11672677 -0.11919183
0001a0 e3 f0 cd 3d 78 90 a1 3d 5a ab 7c ba 7b 39 0c 3d
       0.10055711 0.07888883 -0.00096385705 0.034234505
0001b0 29 3f 6c bc c5 f3 f1 bd a6 75 d1 3d 43 80 2b bd
       -0.014419355 -0.118140735 0.10227518 -0.041870367
0001c0 3d 34 cd bc 47 13 9f bc 66 46 85 3b 93 bd 79 3d
       -0.025049323 -0.019418372 0.00406723 0.060971808
0001d0 61 d3 03 be dc 3d 95 3d a7 71 b8 bb c4 26 e2 bc
       -0.12873603 0.07287189 -0.005628783 -0.027606376
0001e0 3a 08 c5 3d 58 a9 d5 bd bc b4 a8 3d 87 10 39 bd
       0.0962071 -0.104326904 0.08237597 -0.045181777
0001f0 d6 d9 09 3d f5 62 d0 3c 5a 07 1e bc 04 72 95 bd
       0.03365501 0.025437811 -0.009645307 -0.072971374

network.1.running_var f4 [128]
000000 17 87 12 40 ef ea d9 3f 76 4f 82 3f 3c c8 ab 3f
       2.2894952 1.7024821 1.01805 1.3420482
000010 e7 f4 5e 3f 55 fd 05 40 74 a6 9c 3f 72 25 05 40
       0.8709244 2.0935872 1.2238297 2.0804105
000020 e6 24 82 3f bc c3 33 3f d9 b9 5b 40 a4 02 09 40
       1.016751 0.7022054 3.4332182 2.1407862
000030 c7 88 8e 3f d7 f9 75 3f 80 d6 ce 3f 45 07 88 3f
       1.1135491 0.9608435 1.615921 1.0627218
000040 bf 0a b3 3f 4d 17 e9 3f b1 60 d5 3f 34 9e be 3f
       1.3987654 1.8210236 1.6670133 1.489203
000050 29 6c d3 3f cf f1 01 40 1b c6 b9 3f 7d 63 80 3f
       1.6517383 2.0303838 1.4513582 1.0030361
000060 14 ef 17 40 1f cf 42 40 88 fc 08 40 69 e3 21 40
       2.3739672 3.0438917 2.1404133 2.529505
000070 bd ac 8e 3f 37 d0 86 3f 02 22 29 3f 71 09 c4 3f
       1.1146466 1.0532292 0.66067517 1.5315381
000080 09 25 f5 3f f3 e1 95 3f ac 47 95 3f 7d 49 d0 3f
       1.9151927 1.1709579 1.1662498 1.6272427
000090 80 93 53 3f f6 73 b1 3f f0 13 4e 3f 48 73 76 3f
       0.8264694 1.3863513 0.8049917 0.96269655
0000a0 2f 83 73 3f db f0 78 3f f9 8d 97 3f 98 a8 c1 3f
       0.95122045 0.97242516 1.1840202 1.5129576
0000b0 96 0b 88 3f 57 b2 ab 3f a0 41 04 40 6f 2a 33 40
       1.0628536 1.34138 2.0665054 2.799465
0000c0 9f 2c 08 40 26 7f d6 3f bc fb ab 3f 84 5b 74 3f
       2.1277235 1.6757553 1.3436198 0.9545214
0000d0 c3 43 dd 3f f7 b4 ca 3f 80 e4 ec 3f 0c fb 60 3f
       1.7286304 1.5836476 1.8507233 0.8788307
0000e0 7a 55 6f 3f b5 2e 83 3f b9 5a e2 3f 78 99 81 3f
       0.934898 1.0248629 1.7683936 1.012496
0000f0 0b 0e 46 3f d3 fe 52 40 cc 08 a3 3f 30 3e a2 3f
       0.7736518 3.2968032 1.273706 1.2675228
000100 a4 25 36 40 b3 35 1f 3f 0b 95 06 40 48 9f 86 3f
       2.8460474 0.62191314 2.1028469 1.0517359
000110 f5 a8 58 40 a8 cc 17 40 ed ed 6a 3f 67 d8 45 3f
       3.3853123 2.3718662 0.91769296 0.7728333
000120 ed 3f 90 3f ca 9a 9e 3f b5 77 3b 3f b9 00 07 40
       1.1269509 1.2390988 0.73229533 2.109419
000130 0a ad 7f 3f 6d 5d f7 3f f5 92 5a 3f c6 b7 e5 3f
       0.9987341 1.9325386 0.8538049 1.7946708
000140 15 a6 39 3f 3b dc ca 3f 8d 11 60 3f ae c6 9c 3f
       0.72519046 1.5848459 0.8752678 1.2248132
000150 db b4 da 3f 43 af b0 3f 88 af 32 40 96 54 c3 3f
       1.7086443 1.3803486 2.7919636 1.5260189
000160 67 70 d2 3f b9 27 57 3f 41 7a 9d 3f d5 a6 fb 3f
       1.6440552 0.84044987 1.2302934 1.9660288
000170 43 34 50 3f 5d ef 20 3f 38 ec 80 3f f6 30 41 40
       0.81329745 0.6286524 1.0072088 3.0186133
000180 6a f2 4d 3f f4 92 62 3f 59 75 9c 3f 5e f9 8f 3f
       0.8044802 0.8850548 1.2223312 1.1247976
000190 4c 7f 25 40 93 22 dc 3f 9c 26 2d 40 de e6 7f 3f
       2.5858946 1.7198051 2.7054815 0.9996165
0001a0 e4 38 a0 3f 7a 3b 28 40 bd aa 37 3f 45 71 74 3f
       1.2517362 2.6286302 0.717449 0.95485336
0001b0 4c 1f 91 3f 66 f8 8e 3f 58 d3 d8 3f 13 fe b9 3f
       1.1337676 1.1169555 1.6939497 1.4530662
0001c0 fb 52 fd 3f f8 50 e1 3f e3 ec 4b 3f 8c 4f bf 3f
       1.9790949 1.7602835 0.79658335 1.4946151
0001d0 42 58 f4 3f de 46 7f 3f 78 ef db 3f 74 fb a4 3f
       1.9089434 0.9971751 1.7182455 1.2889237
0001e0 f3 53 0d 40 68 70 52 3f 0e e2 3d 40 7e 18 bb 3f
       2.2082489 0.8220277 2.9669223 1.461685
0001f0 7c dc 34 3f 0c 72 85 3f 5c 47 de 3f 1d 22 40 3f
       0.7064893 1.0425429 1.7365527 0.7505205

network.4.weight f4 [64, 128]
000000 0c 9f 3e 3d d1 16 ba bd a0 33 33 3e a7 25 3f 3d
       0.046538398 -0.09086383 0.17500162 0.046666767
000010 d3 41 b8 3d 3e 78 05 3e ce e8 00 be 74 c2 d0 bd
       0.0899693 0.1303415 -0.12588808 -0.10193339
000020 7f a7 e1 3d 24 fa 58 bd 6c 43 0a be 06 f7 6b 3c
       0.110182755 -0.052972928 -0.13502282 0.014402157
000030 7d cf 05 be 47 2e 24 3e 68 ae aa bd db 41 cb bd
       -0.13067432 0.16033278 -0.083340466 -0.0992467
000040 9a 17 85 3d 4f 18 0b 3e ab ad 18 3d c5 26 10 3e
       0.06498642 0.13583492 0.037274998 0.1407729
000050 3b d9 2b bd 9e 06 01 be ad 54 a0 3d 71 b4 35 bd
       -0.041955214 -0.1260018 0.078286506 -0.044361535
000060 96 f8 0e bd 69 8a 39 be 77 39 da 3c fa a8 95 bd
       -0.03490504 -0.18119206 0.02663873 -0.0730762
000070 6c 7f b3 bc a7 24 49 bc 33 2e cb bd 8b 01 a8 3d
       -0.021911345 -0.012276805 -0.09920921 0.08203419
000080 f1 e5 31 3e 93 eb 45 bd 94 1d ef bd d3 c3 4a 3d
       0.17372872 -0.048320364 -0.116755635 0.04950316
000090 8c b5 19 3d 7c 8d 19 be 0c 70 ee 3c 8b 03 02 3e
       0.037526652 -0.14995378 0.029106162 0.12696664
0000a0 cc 31 38 3d c6 c8 20 3d 7f 8c b2 3d 5b e2 06 3e
       0.044969365 0.039253972 0.08718204 0.13172285
0000b0 33 6c 42 bd 8a 38 66 3d ff d7 29 be 34 90 9e 3d
       -0.047466468 0.056206264 -0.16586302 0.07742348
0000c0 5f 4a 93 3d 38 b3 21 be 8f 0e 35 3d 4d ac 1b be
       0.071919195 -0.15791023 0.044203337 -0.15202446
0000d0 a5 70 0f 3e c7 2f 27 be 33 9e 73 bb bd f4 eb 3d
       0.14007814 -0.1632682 -0.0037173152 0.115212895
0000e0 14 ef c8 bc 10 0f cc 3c aa 28 85 bb 6c 8c 71 3d
       -0.024528064 0.024909526 -0.0040636854 0.058971807
0000f0 ee 3d 96 3d 08 01 e5 bc 51 3d 39 3e 35 9d a5 3d
       0.07336031 -0.027954593 0.18089797 0.080866255
000100 88 f4 0b 3e 0f 5f 3d 3d b0 96 62 3c 24 28 ac 3d
       0.136675 0.046233233 0.013829872 0.08406094
000110 2d 06 8f bc 0d 5e ff 3c f9 6e 43 3e 81 28 e8 3d
       -0.017459 0.031172777 0.19085301 0.113358505
000120 44 d0 2a be e9 11 89 3d db 03 14 3d ea 13 54 3d
       -0.1668101 0.06692869 0.03613649 0.051776804
000130 9a 21 b6 bd 6c f0 b5 3d 4c be 02 be b4 80 15 be
       -0.08893128 0.088837475 -0.12767905 -0.14599878
000140 4a fa fa bd 18 4d f3 38 3d 67 9d 3c dd 52 09 3d
       -0.1225477 0.00011601503 0.019214267 0.03352629
000150 be 71 fb 3d e1 d3 06 3d ea 20 2f be e8 e2 36 bd
       0.12277554 0.032916907 -0.171024 -0.04464999
000160 b9 e4 0a 3e 7f 7e 39 3e 68 02 0d be bd 4e 3a 3e
       0.13563813 0.1811466 -0.13770449 0.18194099
000170 23 e4 3f bd 12 90 e1 3d 59 8e 95 3d 31 16 87 bc
       -0.046848428 0.11013807 0.07302541 -0.016490074
000180 e5 31 b3 bd 87 61 f6 bd a4 47 02 3e 80 01 8b 3d
       -0.08749751 -0.120303206 0.12722641 0.067873955
000190 32 0c 06 be 1a cb fb bc 92 07 3c 3e a7 83 05 be
       -0.1309059 -0.030736495 0.18362263 -0.13038503
0001a0 4c 37 01 3e b9 97 1d 3d 39 c9 1c 3e 6e 51 05 be
       0.1261875 0.038474772 0.15311135 -0.13019344
0001b0 46 47 14 3e 17 74 35 3d 4d 17 91 bd e7 4e 23 3b
       0.14480314 0.044300165 -0.070845224 0.0024918856
0001c0 51 76 f2 bc 56 b0 95 3d 80 98 20 be aa 39 5a bc
       -0.029597433 0.07309024 -0.15683174 -0.013319412
0001d0 ee 52 10 be 9e 29 19 3e d4 7a 1a be c1 d6 01 be
       -0.14094135 0.14957282 -0.15085918 -0.12679578
0001e0 37 23 12 3e bb d7 10 3e 2b a8 68 bc 9a 0e 33 bd
       0.14271246 0.14144795 -0.014200251 -0.043715097
0001f0 fd b6 ad bd d9 f0 60 3a 0b 5a 06 3e 7b 88 1a 3e
       -0.08482168 0.0008580811 0.13120286 0.15091126
000200 db af 36 3e f9 64 bb bd 38 ab 7d bb e6 52 b7 bd
       0.17840521 -0.091501184 -0.003870679 -0.089513585
000210 b6 bc 5f bd c2 70 29 3e 49 7f 51 bd f6 4c 22 3c
       -0.05462333 0.1654692 -0.05114678 0.009906044
000220 b0 36 36 3e 48 fa 06 3e 4d 7a d5 bd 0f 3d 2b bd
       0.17794299 0.13181412 -0.10423718 -0.041806277
000230 04 4c e5 bd 8a d3 12 be 4b 51 09 3e ce 7b 1c bc
       -0.111961395 -0.14338508 0.13409917 -0.009551002
000240 b0 f1 1f be 6a 49 d4 3d 4d 9f ce bd c2 db 08 be
       -0.1561954 0.10365565 -0.10088978 -0.13365081
000250 f0 01 d3 bd 59 f6 29 bc 10 5b 79 bc 6a 1b de 3c
       -0.10303104 -0.010373675 -0.015219465 0.027112681
000260 f6 f5 1b be e7 b9 17 3e d6 73 1a bd c8 30 3a 3d
       -0.15230545 0.1481701 -0.037708126 0.045456678
000270 5f 83 ab 3d ab 6f 10 be c3 9d e1 3c 7d c9 2c 3e
       0.083746664 -0.14105098 0.027541047 0.16873737
000280 1a 9c 3b 3e 49 4c 65 3c 7a 24 11 3e 7a 03 6e bd
       0.18321267 0.013995239 0.14174071 -0.058108784
000290 a8 13 27 be ee 36 12 be 79 c7 d0 bd 9e 66 26 be
       -0.16316092 -0.14278767 -0.101942964 -0.16250083
0002a0 f6 cb b7 3d ed 7d 05 3d d6 c2 ac bd f7 03 90 bd
       0.08974449 0.032590795 -0.084355995 -0.07032006
0002b0 05 1b 7c 3d df e7 bb bd 5b 17 74 bd fc e1 fd bc
       0.061549205 -0.09175085 -0.059592586 -0.030991547
0002c0 30 84 09 be 65 45 2e bd aa f2 45 3e e0 c9 18 3e
       -0.13429332 -0.04254665 0.1933085 0.14920759
0002d0 87 72 8e 3c fd 96 1d be 32 d0 3c 3d c3 b4 c8 bd
       0.017388595 -0.15389629 0.046096988 -0.098001026
0002e0 37 62 17 be a7 80 a0 bd 3f 1c 0f be 96 38 8a 3d
       -0.1478356 -0.078370385 -0.13975619 0.06749074
0002f0 bf 4d 03 be 19 ff b3 bc 37 24 dd 3c 5f 27 c9 bd
       -0.12822627 -0.021972226 0.026994808 -0.098219626
000300 3d ff 83 bd e0 bf 87 3d 98 0d f5 bd e2 2c 8e 3d
       -0.06445167 0.06628394 -0.119654834 0.069421545
000310 32 dd 25 bd 8d 77 17 be df 4f d7 bb 05 52 1e bd
       -0.04049415 -0.14791699 -0.0065708007 -0.03865244
000320 55 dd 80 bc ce 82 28 bd d4 ef 13 3c 62 d8 89 3d
       -0.01573054 -0.04114037 0.009029347 0.06730725
000330 0f cc 0c 3e 1b ae cd bd ee 62 71 3d 45 f0 13 3e
       0.13749717 -0.100429736 0.058932237 0.14447124
000340 d4 53 39 3c b5 09 29 3c fc 21 da 3d 77 43 20 be
       0.01131149 0.010317256 0.10651013 -0.15650736
000350 e2 e6 f9 bd e8 19 2d 3e 54 1b 9f 3b 0a 88 4c 3c
       -0.122022405 0.16904414 0.0048555527 0.012483606
000360 67 24 28 be 4e 5c 09 be c0 b8 b4 3b e3 da c0 bc
       -0.16420136 -0.13414118 0.005515188 -0.023541873
000370 a3 a3 83 3d 33 df 1c be db fb a8 3d 25 92 7b bd
       0.064276956 -0.15319519 0.082511626 -0.06141867
000380 09 00 3a bd e5 a0 19 3e 14 67 9c 3d a1 3a ee bd
       -0.04541019 0.15002783 0.07636848 -0.11632276
000390 cc 7c 77 3d 2a 16 ab 3d 49 1e 75 bd b3 5d 3b be
       0.06042175 0.08353837 -0.059843335 -0.18297462
0003a0 37 25 b6 3d 25 6e f3 3d ed 13 dd 3d e4 3a ad 3d
       0.08893817 0.11886243 0.10794816 0.08458498
0003b0 a7 62 46 3d fd 00 e9 bd 18 df e6 bd 78 ab c4 bb
       0.048433926 -0.113771416 -0.112730205 -0.006001886
0003c0 c2 f9 49 3d 42 41 7f bc 2e 26 95 bd a1 63 94 3d
       0.049310453 -0.0155795235 -0.07282673 0.07245565
0003d0 14 33 e3 3a a8 19 ff bd 5d 8a 18 3e b0 33 b8 3d
       0.0017333948 -0.124560654 0.14896531 0.089942336
0003e0 84 b8 2b 3e 2c 86 a3 bd 92 a3 fd 3d b8 65 b5 3c
       0.16769606 -0.07984576 0.12384714 0.02214323
0003f0 f6 dc 17 3e 12 4e c6 3d e9 33 10 3c 01 cd ba 3d
       0.14830384 0.096828595 0.008801439 0.09121133

network.4.bias f4 [64]
000000 4d 4b 1c 38 0c 5a 34 38 6d e1 92 37 38 82 a1 b6
       3.7263428e-05 4.2999207e-05 1.7509528e-05 -4.8133334e-06
000010 d4 1a ef b6 98 d2 c0 b5 64 c7 82 b7 cf 53 7a b7
       -7.1258783e-06 -1.4366406e-06 -1.5590056e-05 -1.4920674e-05
000020 28 f8 59 38 14 2c 2f b7 fa 91 e2 37 af 5e 33 b8
       5.1967945e-05 -1.0441076e-05 2.7009275e-05 -4.2765107e-05
000030 47 58 f8 37 64 be ee b6 11 84 03 37 8e 9f b7 37
       2.9605011e-05 -7.115117e-06 7.838958e-06 2.1889598e-05
000040 e8 2a 0a 36 53 a4 db b7 68 5a 7d b8 be cd b3 b7
       2.0588577e-06 -2.6183354e-05 -6.0404098e-05 -2.1434269e-05
000050 83 3a 9b b8 7e a9 12 38 be c9 aa 37 38 70 27 b8
       -7.4018746e-05 3.4966964e-05 2.0359523e-05 -3.9920415e-05
000060 a2 45 bc 36 5f f2 09 b7 c3 b4 b5 b7 6e f0 c2 b7
       5.610943e-06 -8.222268e-06 -2.1661055e-05 -2.3238561e-05
000070 4e 40 7b b5 17 d1 c3 37 d1 26 35 b8 3d 86 52 38
       -9.359836e-07 2.3343177e-05 -4.3189913e-05 5.019292e-05
000080 74 fc 4b b6 2e 70 80 b7 66 a6 02 36 71 dc 9c b5
       -3.0396304e-06 -1.5311027e-05 1.9468366e-06 -1.1687063e-06
000090 10 23 93 36 f0 bd 51 36 ab a3 71 b7 39 8d bd 37
       4.385023e-06 3.1253985e-06 -1.4402826e-05 2.2596318e-05
0000a0 64 d9 ea b7 d8 9f c8 37 2f 21 d1 b7 f6 90 27 37
       -2.7996204e-05 2.3916291e-05 -2.4930194e-05 9.987727e-06
0000b0 e3 da 3e b7 32 aa 09 b7 bc a5 59 b8 f1 15 89 37
       -1.1375846e-05 -8.205463e-06 -5.1891184e-05 1.634189e-05
0000c0 c0 6c 90 b8 a6 fc 26 37 3e 4b a0 36 c0 e2 1c b6
       -6.886711e-05 9.953195e-06 4.777131e-06 -2.3377797e-06
0000d0 a4 b7 cb b6 22 6b 80 b7 34 53 7d b8 40 ef f0 35
       -6.07125e-06 -1.5308677e-05 -6.039739e-05 1.7951024e-06
0000e0 b5 59 c9 37 dd 59 96 b7 e6 6b 09 37 0d bf 87 b6
       2.400284e-05 -1.792324e-05 8.190958e-06 -4.0455548e-06
0000f0 1c 20 08 b8 ba 8a 05 38 39 24 29 b8 f4 30 57 b7
       -3.245483e-05 3.183887e-05 -4.0326475e-05 -1.2826396e-05

network.5.weight f4 [64]
000000 8f f5 78 3f 03 32 7f 3f 12 4e 7e 3f 34 b9 7f 3f
       0.9724969 0.99685687 0.99337876 0.9989197
000010 66 c7 7f 3f 1c 4a 80 3f 44 dc 83 3f 4d 72 76 3f
       0.9991363 1.0022616 1.0301595 0.9626816
000020 66 30 79 3f f1 50 85 3f a0 23 78 3f 86 ef 82 3f
       0.97339475 1.0415326 0.9692936 1.0229347
000030 94 40 85 3f b6 ea 7d 3f c7 54 81 3f e4 b8 82 3f
       1.0410333 0.99186265 1.0103997 1.0212674
000040 d0 02 81 3f ef 8c 84 3f 06 a9 7a 3f 04 05 78 3f
       1.0078983 1.035551 0.9791416 0.96882653
000050 91 43 86 3f 58 26 7c 3f 7f d2 81 3f d2 4b 89 3f
       1.048937 0.9849601 1.0142363 1.0726264
000060 c1 c8 77 3f cd 52 81 3f 09 10 80 3f 17 75 80 3f
       0.967907 1.0103394 1.0004894 1.0035733
000070 04 2c 7f 3f 8d fe 84 3f d8 3b 7e 3f 15 a4 79 3f
       0.9967654 1.0390183 0.99310064 0.97515994
000080 58 1b 7b 3f 8c dc 79 3f 74 20 80 3f c6 61 7f 3f
       0.980886 0.9760215 1.0009904 0.99758565
000090 eb 5f 84 3f ac 6f 74 3f 18 28 82 3f de b4 82 3f
       1.0341772 0.954829 1.0168486 1.0211446
0000a0 de c7 7b 3f 29 0f 82 3f 0f 24 81 3f 0b 27 7b 3f
       0.9835185 1.0160877 1.0089129 0.9810645
0000b0 bd 04 76 3f c5 78 81 3f 8e 13 7f 3f 6d d9 7b 3f
       0.9610098 1.0114981 0.99639213 0.9837864
0000c0 62 df 81 3f 2f 86 81 3f 73 5e 7b 3f b8 6a 7c 3f
       1.0146296 1.0119075 0.98190993 0.9860034
0000d0 eb 7b 75 3f 01 fb 83 3f 7a 93 85 3f 63 fc 7d 3f
       0.9589221 1.0310975 1.0435631 0.99213237
0000e0 2a 43 7d 3f 87 c7 83 3f 45 a6 74 3f df db 79 3f
       0.9893061 1.0295266 0.9556621 0.9760112
0000f0 37 05 7d 3f aa 76 83 3f 40 20 81 3f d4 3b 80 3f
       0.9883608 1.0270588 1.0087967 1.0018258

network.5.bias f4 [64]
000000 2d 97 02 bd b1 9f 4e bc c4 d7 a4 3b 44 81 e6 3c
       -0.031882454 -0.012611316 0.005030604 0.02813781
000010 7f ae 26 3c 16 fe 35 3c 3f dd 9c 3c 97 da 03 bd
       0.010173439 0.011107942 0.019148467 -0.032190885
000020 c7 db 86 bc bf 15 fe 3c a3 73 b7 bc 5a d6 32 3c
       -0.01646222 0.031016229 -0.022394007 0.010915363
000030 17 6a 0a 3d ff 0f 71 bc a7 8a b3 3b ec 97 eb 3c
       0.03379258 -0.014713286 0.005479175 0.028758965
000040 15 34 2a 3b de 68 a7 3c b3 80 99 bc 69 48 c0 bc
       0.0025970985 0.020435747 -0.018738126 -0.023472028
000050 ed 72 c5 3c e0 ae 3a bc 94 ad a0 3c 08 8e 36 3d
       0.024102652 -0.0113942325 0.019614018 0.044569045
000060 f1 40 48 bc a4 9b 0b 3c 6a 3b 0f bc 7e 21 43 bc
       -0.0122225145 0.008520994 -0.008742193 -0.011909841
000070 b1 ac 08 bb 3d c1 2e 3d 45 10 c4 3c e6 07 09 bd
       -0.0020854885 0.042664755 0.02393354 -0.0334548
000080 79 6c 15 bc ac 78 7b bc 05 85 4b 3c 46 61 81 3b
       -0.0091201 -0.015348595 0.012421851 0.0039483635
000090 8a 0c 19 3d 0e 7d 93 bc dd 8d 09 3c 17 12 1c 3c
       0.037365474 -0.018003967 0.008395639 0.009525797
0000a0 40 89 c1 bc 05 37 22 3c 67 b6 e3 b9 4d 7a e8 bb
       -0.023625016 0.009900813 -0.00043432714 -0.0070946575
0000b0 ea 9c 26 bd d2 b6 bc 3a aa 1f bd bb cc 85 04 bc
       -0.04067699 0.0014397746 -0.005771597 -0.00808854
0000c0 80 fc 9c 3c fc 94 74 3c 3e 1e 34 bc 26 00 34 bc
       0.01916337 0.014928099 -0.010993538 -0.0109863635
0000d0 6e 23 2f bd 15 65 11 3d 4b 10 12 3d ad 14 54 3a
       -0.042758398 0.03549679 0.03566007 0.0008090239
0000e0 86 e0 b1 bb 88 88 04 3d 43 a4 ea bc f5 bf 71 bc
       -0.0054283766 0.03235677 -0.02864278 -0.014755239
0000f0 50 75 ef bc 34 4a 57 3c f7 82 e4 3c 0d fb 86 39
       -0.029230744 0.01314025 0.02789448 0.0002574552

network.5.running_mean f4 [64]
000000 12 b5 04 3f 5f 5b 42 be 47 3e cf 3e 70 85 3f bf
       0.5183879 -0.18980168 0.404772 -0.74812984
000010 54 8d fe 3e 51 68 6b be 38 bf 2c bf 34 66 b1 3e
       0.497172 -0.22989012 -0.67479277 0.34648287
000020 b9 e8 27 bf fd 2c 7f bf 0a c4 e2 3e 07 61 01 3f
       -0.6558948 -0.9967802 0.4429019 0.50538677
000030 ab ed 15 3f 34 4d 4b 3f 69 43 4b 3f 49 3b 02 bf
       0.5856578 0.7941468 0.79399735 -0.5087171
000040 b5 75 a9 be f8 5b b3 3e 22 1a 9f bf 7e 12 02 bf
       -0.33097616 0.35031104 -1.242985 -0.50809467
000050 c0 e5 93 be 29 e2 3b 3f d0 c9 f6 3d c4 03 ba 3c
       -0.28886223 0.7339197 0.120502114 0.022706874
000060 f4 06 c5 be fe 5c af bd f5 8d 0e 3f b0 d3 84 3d
       -0.38481867 -0.08562659 0.5568536 0.06485689
000070 2c a3 3b be cc e0 04 be 71 f1 92 3f 5a bd ac 3e
       -0.18323964 -0.12976378 1.1479932 0.33738214
000080 01 10 87 3d 9b 78 94 3d 41 0f e7 be be d2 01 3f
       0.065948494 0.07249566 -0.45128825 0.5071219
000090 c0 4f 81 be 00 f1 6f be fd 52 95 bd e0 c9 fb 3e
       -0.25256157 -0.23431778 -0.072912194 0.49177456
0000a0 57 96 0b 3f 59 f3 40 3e 42 1a 83 3e 9d ee 8e bf
       0.54526275 0.1884283 0.2560597 -1.1166569
0000b0 d0 5f c2 bd 16 e0 1b bf 8f c2 7d 3f a5 e3 5e be
       -0.09490931 -0.60888803 0.99125 -0.21766527
0000c0 4b 2a 76 bf 75 d0 92 be c9 c6 c7 3d e2 30 a7 3d
       -0.96158284 -0.28674665 0.09754712 0.081636205
0000d0 be ea 11 bf f8 ae 22 bf ce 36 78 3e 9c d2 09 3e
       -0.56998813 -0.6354823 0.24239656 0.13459247
0000e0 41 b2 89 3e 4a f8 52 3e 8d 2d 16 3f 5d 88 0c bf
       0.2689381 0.20602527 0.58663255 -0.54895574
0000f0 3a fa 21 3e cf a4 b8 3d 73 18 3d bf 56 dd 0b bf
       0.1581811 0.0901581 -0.7386543 -0.54634607

network.5.running_var f4 [64]
000000 3a 09 9c 3f 99 1a 43 3f 33 47 a8 3f d6 7d 91 3f
       1.2190316 0.7621246 1.3146728 1.1366527
000010 70 32 83 3f 1e 79 d2 3f 2e 7e 84 3f a5 88 a0 3f
       1.0249767 1.6443212 1.0351007 1.2541701
000020 48 46 52 3f 8c cf b8 3f 83 d0 90 3f e6 29 b6 3f
       0.8213849 1.4438338 1.1313633 1.4231536
000030 bb 34 c1 3f ac cd aa 3f 8a 8f 85 3f de db 9d 3f
       1.5094217 1.3344016 1.043443 1.2332723
000040 e4 c8 5c 3f 95 52 90 3f 5d f9 8b 3f 06 a5 84 3f
       0.86244035 1.1275202 1.0935475 1.0362861
000050 30 22 5a 3f 05 94 4c 3f b5 2e a8 3f c9 10 99 3f
       0.85208416 0.7991336 1.3139254 1.1958247
000060 e0 bd 9c 3f 56 65 d4 3f d4 92 b2 3f 46 23 ae 3f
       1.2245445 1.6593425 1.3951058 1.3604515
000070 c5 8f 56 3f ca e0 4e 3f 8f 26 89 3f 25 df 9f 3f
       0.83813125 0.8081175 1.0714892 1.2489973
000080 e5 5d 52 3f a7 b5 75 3f aa 39 63 3f e1 93 85 3f
       0.8217452 0.95980304 0.88759863 1.0435754
000090 0a 6a 84 3f 7f b1 a0 3f 7c 54 3a 3f 85 56 91 3f
       1.034486 1.2554168 0.7278516 1.1354529
0000a0 5b b8 94 3f 5d 28 48 3f c1 4b c6 3f f9 7d 94 3f
       1.1618761 0.7818659 1.5491868 1.1600944
0000b0 cc 02 9d 3f b5 f1 ea 3f 71 1d a3 3f 20 5e 4f 3f
       1.2266479 1.8355013 1.274336 0.81003
0000c0 0b 21 6f 3f 70 4f b9 3f 8f 27 86 3f b7 9b 5f 3f
       0.93409795 1.4477367 1.0480822 0.87346977
0000d0 be 5a 4a 3f ba 93 6d 3f 66 92 92 3f 5e 99 44 3f
       0.7904471 0.9280354 1.1450927 0.7679652
0000e0 0c 10 74 3f 81 6d a6 3f a5 88 95 3f 38 c0 74 3f
       0.95336986 1.3002168 1.1682326 0.956058
0000f0 2f 87 1f 3f a4 8c 84 3f 91 c0 7e 3f ef 5a 4c 3f
       0.6231565 1.035542 0.99512583 0.79826254

network.8.weight f4 [32, 64]
000000 07 85 ff bc 42 bb 2d 3e ec ae 01 be 9b ec b9 3d
       -0.031191362 0.16965964 -0.12664384 0.09078332
000010 8c ab 35 3e e9 62 73 be 61 04 42 3e 12 19 1f 3e
       0.17741221 -0.237682 0.18946983 0.15536907
000020 0a 26 3b 3d 13 bf 40 3e 6a d3 d1 3d 35 9a d1 bd
       0.045690574 0.18822889 0.10245402 -0.10234491
000030 aa 33 b2 bd 72 f8 0e bd d8 73 6d 3e 4a 06 6f 3b
       -0.087012604 -0.034904905 0.23188722 0.0036472254
000040 88 d4 85 be b0 42 62 3e 22 61 2c be 9e d9 42 bd
       -0.2613871 0.22095752 -0.16833928 -0.047570817
000050 d6 64 d5 bd 36 e2 60 be 39 5b d2 bd ff 3b 57 3e
       -0.104196236 -0.21961293 -0.102713056 0.2101898
000060 a4 d4 0f 3e 5b 79 d4 3d 3a da 6a 3e e9 99 35 3e
       0.1404596 0.10374709 0.2293481 0.17734493
000070 12 72 fc 3d e8 24 68 be 67 21 63 be d1 05 fa 3d
       0.12326445 -0.22670329 -0.2218071 0.12208141
000080 06 df 35 3e 9a ff cc 3b d3 0d 76 3e 21 75 82 3b
       0.17760858 0.006256056 0.24028711 0.003981248
000090 6d f0 be 3d a3 b3 26 3e 25 26 f6 bd 34 d8 67 be
       0.09323201 0.16279463 -0.12018994 -0.22641069
0000a0 10 1c 07 be e6 59 9e 3d 43 09 15 3e 8f cc e6 3d
       -0.13194299 0.077319905 0.14554314 0.11269485
0000b0 58 b5 1a 3e dc 71 a0 bd 95 62 2a 3e c6 6f fe 3d
       0.1510824 -0.07834217 0.16639169 0.12423663
0000c0 da 92 ae 3b 1b 94 03 3e 58 69 22 3e 6f ed 29 3b
       0.0053275647 0.12849467 0.15860498 0.0025928875
0000d0 ee 95 c8 bd 24 43 11 3e 05 e0 4e be d2 4c 95 3d
       -0.09794222 0.14185768 -0.20202644 0.07290043
0000e0 5d ed 04 3e 6f 79 61 3e 3a 5e 3d be 89 b2 15 3e
       0.12981172 0.2201898 -0.18492976 0.14618887
0000f0 a9 7b 65 ba 21 17 c1 3d d2 ef c6 bd 43 6f 13 3e
       -0.00087540835 0.094282396 -0.09713711 0.14397912
000100 ac bc 56 bd d3 5e e7 3d e7 2f 68 be d8 08 b0 bd
       -0.052426025 0.11297383 -0.22674523 -0.08595437
000110 64 45 4a 3e f8 cc 94 3d 2c dd 53 be cd 44 85 be
       0.19753033 0.07265657 -0.20689839 -0.26029053
000120 a6 dc ee 3d 5e 20 c1 bd ec 5b 97 bd f2 fd 29 be
       0.11663179 -0.09430002 -0.073905796 -0.16600779
000130 4c 85 02 3e 4f 49 34 3e ec 02 44 3e 33 e9 e5 3d
       0.12746161 0.1760609 0.1914174 0.1122612
000140 50 c0 eb bd b8 d6 f1 bb 01 11 99 bd cc 52 1c 3e
       -0.1151129 -0.007380333 -0.07473946 0.1526596
000150 54 46 ab 3d 6f 7b 06 3e 40 11 fd 3d 56 85 e6 3b
       0.083630234 0.13133024 0.12356806 0.007034938
000160 2c 18 f7 3d b1 20 24 3e 32 2f 43 3e 75 26 b7 bd
       0.12065157 0.16028096 0.19060972 -0.08942882
000170 60 b2 2a be c8 4b 2b 3e db be 60 3e c8 5a e6 bd
       -0.16669607 0.16728127 0.21947806 -0.11247784
000180 6a 39 4e 3e 58 96 7e 3d 2e cd 44 be e1 cf 08 3d
       0.20139089 0.062155098 -0.19218895 0.033401374
000190 38 4f fc 3c 38 31 18 bd fa c0 0c 3d ef 37 78 bc
       0.030799493 -0.037156314 0.034363724 -0.015150054
0001a0 9b a6 87 3c 9d 61 2c 3e ed b5 7f 3d 17 60 63 be
       0.016558936 0.16834112 0.062429357 -0.22204624
0001b0 8a 95 be 3c f2 70 31 be 35 53 c8 3d 80 f8 8b bd
       0.023264665 -0.17328241 0.097814955 -0.06834507
0001c0 5d 61 1e 3d 3f a8 18 3e c1 a0 2e 3e 29 ed 3f 3e
       0.03866707 0.14907931 0.1705351 0.18742813
0001d0 29 59 33 3e 95 78 c0 3d 0b b0 77 3e 2d 34 02 bc
       0.1751448 0.09397999 0.24188249 -0.00794701
0001e0 ea 18 73 be 30 9b 3d 3e b8 ec f0 bd 9f dd 4e 3e
       -0.23739973 0.1851623 -0.117639005 0.20201729
0001f0 bc 3f 4f 3e de 27 07 3c 9c 51 39 3e 78 ec b7 3c
       0.20239156 0.008249251 0.18097538 0.022451624
000200 7c ec e2 3c 0e 14 c3 bd 36 46 3d 3e 98 32 a2 3d
       0.027700655 -0.095253095 0.18483815 0.07919806
000210 76 d4 66 be e9 77 b3 bc 2c 05 d2 bd ae aa 52 be
       -0.22541985 -0.021907764 -0.10254893 -0.20572922
000220 fe 5e 86 be 27 5c 89 be 56 3d 49 be 51 04 ad 3d
       -0.26244348 -0.2682812 -0.19652304 0.08448089
000230 98 b7 87 bd a8 9f a4 3d 4e 45 96 bd a6 5f c6 3d
       -0.066268146 0.080382645 -0.073374376 0.09686212
000240 51 72 ff 3d 1b 0a 28 3e ba 7c 83 bd dd 0b 2b 3e
       0.12472976 0.16410105 -0.06420274 0.16703744
000250 fe 31 00 be 91 8c 15 be 1d 2b 13 3e 44 3c 0d 3e
       -0.1251907 -0.14604403 0.14371915 0.13792521
000260 2e ee 1c 3e ae 71 45 be bc 78 8f bc 53 cb c2 bd
       0.15325233 -0.19281647 -0.017513625 -0.09511437
000270 3c 9f 9f 3d d6 39 56 be ae d7 9d 3d b0 02 62 be
       0.077940434 -0.209205 0.07707153 -0.22071338
000280 9f 0e c0 3d 87 30 0e bc 4e 22 51 be 48 11 b8 3d
       0.09377789 -0.008678562 -0.20423242 0.08987671
000290 a0 4d 18 be 98 aa 5d be 9c 80 67 3e af 00 9d bd
       -0.14873362 -0.21647108 0.22607654 -0.07666146
0002a0 be 73 0c be 6d d8 20 be 78 f2 88 3d 53 a1 af bd
       -0.13716027 -0.1570756 0.06686872 -0.08575692
0002b0 40 a7 6f 3e 02 2c b1 3d 22 66 22 be f0 89 1d 3e
       0.23403645 0.08650972 -0.15859273 0.1538465
0002c0 f2 90 59 be ca 41 29 3e f4 73 70 3d 81 82 51 3e
       -0.21246698 0.16529003 0.05870433 0.2045994
0002d0 a6 d6 65 3c 80 52 84 be 80 87 c3 bd 9d b3 3c 3d
       0.014028227 -0.25844193 -0.09547329 0.04606973
0002e0 5e 82 ec bd 3b e2 ac 3d b8 4c 17 3e 2d c9 c0 bd
       -0.11548303 0.084415875 0.1477536 -0.09413371
0002f0 52 71 82 3e 3a 44 80 bb cd 66 3a 3e d2 5a 68 be
       0.25477082 -0.0039143832 0.18203278 -0.22690895
000300 69 27 43 be 9c f3 2a 3e 82 af 30 be 23 ea 37 3d
       -0.19058003 0.16694492 -0.17254451 0.044901025
000310 19 49 18 be f0 75 40 bc 0c 43 8f 3c a2 f7 fa 3c
       -0.14871635 -0.0117468685 0.017488025 0.030635659
000320 93 82 39 3e 0e 6c fa 3d 86 2b 81 bd 80 75 95 bc
       0.18116216 0.12227641 -0.063071296 -0.018244505
000330 76 1a 2f be 23 df 49 3e e2 87 13 be a6 d9 7c be
       -0.17099938 0.19714026 -0.14407304 -0.24692401
000340 f4 f9 d1 3d 08 1c f9 bd 3d a1 eb bd c2 9a 6c 3d
       0.10252753 -0.1216355 -0.11505363 0.057764776
000350 c6 ec 85 be cb e2 12 bd 50 48 8c bc d1 5b c7 3d
       -0.26157206 -0.035860818 -0.017124325 0.097343095
000360 d1 9b a3 3d 77 52 1d be 91 84 50 3e a2 bc 09 3d
       0.07988704 -0.15363489 0.2036307 0.03362716
000370 a3 f0 ea bd bc 2c 41 3e 13 c2 86 3e 3c 80 56 bd
       -0.11471679 0.18864721 0.26319942 -0.052368388
000380 f8 1f 79 3d a6 ad 85 bc ba 05 14 3e ed e1 33 3e
       0.060821503 -0.016318154 0.1445531 0.17566653
000390 22 e7 8d bd ac 5b 29 3e 7a 44 04 3d f2 b9 a5 3c
       -0.06928851 0.16538876 0.032291867 0.020230267
0003a0 9a 60 32 3c 3f 59 f8 bd 54 65 64 bd 62 24 2d 3e
       0.010887289 -0.12126397 -0.055760697 0.1690841
0003b0 66 12 99 bd be b3 3a 3d 37 7a 5b 3e 4d 62 99 3c
       -0.07474212 0.04558157 0.2143334 0.018723631
0003c0 39 e2 81 3c 59 d8 98 3d 03 a6 07 3e f4 13 40 be
       0.015854942 0.0746314 0.13246922 -0.18757612
0003d0 21 88 06 3e 37 33 87 be 44 0b 6b 3c 19 d9 f2 3d
       0.13137867 -0.2640626 0.014345948 0.11857814
0003e0 2c 42 19 3e 97 b6 01 be c5 b8 20 bd 44 e0 5a be
       0.14966649 -0.12667309 -0.03923871 -0.21374613
0003f0 ed 18 92 bd c8 87 2b 3e 5a 26 7b 3e 3d 4d 45 3d
       -0.071336605 0.16751015 0.24526349 0.048169363

network.8.bias f4 [32]
000000 50 bc 03 38 34 69 7f 38 4a e0 11 37 b1 7f ac 35
       3.1408214e-05 6.0894716e-05 8.694895e-06 1.2852162e-06
000010 ac 31 9f 37 73 75 9a b8 0c af a5 b7 22 a6 4a 38
       1.8977407e-05 -7.365169e-05 -1.9751045e-05 4.8315276e-05
000020 be 8b cb b7 4e 71 e1 37 84 89 b1 b7 3d 99 3f 37
       -2.4264558e-05 2.6874852e-05 -2.116408e-05 1.1420166e-05
000030 2a 40 5e 36 68 5f 67 b8 94 e2 66 37 0e 6c 2f b8
       3.3117926e-06 -5.5163546e-05 1.3761823e-05 -4.1823885e-05
000040 8d 4f 17 b7 88 62 6b 37 35 11 af 37 a8 cb 15 b7
       -9.018823e-06 1.4030033e-05 2.0869638e-05 -8.9285095e-06
000050 d7 04 7f 38 ae 79 87 b8 2d e1 43 b8 3b c6 cb b7
       6.0801245e-05 -6.459966e-05 -4.6701334e-05 -2.4291794e-05
000060 e4 56 89 b7 67 34 80 b6 bf 98 3b 37 08 24 05 b7
       -1.6372134e-05 -3.8207977e-06 1.11816325e-05 -7.935807e-06
000070 e2 bb ac 36 43 47 ef b7 1d ab 3a 37 47 01 bd b8
       5.147872e-06 -2.8524204e-05 1.1126304e-05 -9.01246e-05

network.9.weight f4 [32]
000000 ed 5c 5f 3f 4a a4 67 3f 39 a1 6d 3f 6f 52 6d 3f
       0.8725117 0.9048506 0.9282413 0.9270391
000010 8e 1b 60 3f 70 19 6a 3f b4 86 61 3f d2 d6 71 3f
       0.87542045 0.91445065 0.88096166 0.94468415
000020 3c 2e 58 3f 0b d7 75 3f de 1e 6a 3f e5 e9 62 3f
       0.8444555 0.96031255 0.9145335 0.88638145
000030 51 a4 6e 3f 9d 05 77 3f 2b 98 65 3f 8c 58 61 3f
       0.93219477 0.9649294 0.89685315 0.88025737
000040 f3 98 61 3f 00 16 63 3f d4 62 61 3f 62 a1 62 3f
       0.88124007 0.88705444 0.88041425 0.885275
000050 64 58 74 3f b7 79 6f 3f 18 d4 70 3f 80 ae 6f 3f
       0.95447373 0.935451 0.9407363 0.9362564
000060 87 14 64 3f 08 60 72 3f 9c 2d 62 3f 94 6c 61 3f
       0.8909382 0.9467778 0.88350844 0.880563
000070 b5 e6 6f 3f 1a 4d 70 3f 1f e8 5f 3f b3 8c 5c 3f
       0.93711406 0.9386765 0.87463564 0.8615219

network.9.bias f4 [32]
000000 2e cd ba bd f6 0c b1 bd f1 fd f8 bc 94 f2 f6 bc
       -0.09121166 -0.0864505 -0.030394526 -0.030144967
000010 f3 71 e2 bd 35 bb 93 bd 34 75 e7 bd bf 80 d5 bc
       -0.1105689 -0.07213441 -0.113016516 -0.026062367
000020 1e c0 f3 bd e8 1c 6a bc 4b 29 b2 bd 1b fc d3 bc
       -0.11901878 -0.014289118 -0.08699282 -0.02587705
000030 cc c2 b1 bc c1 32 03 bd 34 e9 b4 bd 47 4d d9 bd
       -0.021699332 -0.032030825 -0.088335425 -0.106104426
000040 95 c9 ca bd ca cb c0 bd 9a 57 e9 bd 07 6e de bd
       -0.0990173 -0.0941387 -0.11393662 -0.1086083
000050 3a 33 87 bc 1d 5d 7b bd 45 c8 cf bc 1a ff 6f bd
       -0.016503919 -0.061368097 -0.02536405 -0.058592893
000060 70 25 77 bd 83 f5 5a bd 40 84 af bd eb 01 b4 bd
       -0.060338438 -0.053456794 -0.085701466 -0.08789428
000070 36 8f d7 bc 15 44 a6 37 f7 8f de bd 0b af e5 bd
       -0.026313405 1.9820445e-05 -0.10867303 -0.112150274
