delta_model.pth (torch, 13765 bytes, 5 tensors)

network.0.weight f4 [64, 5]
0	0xbd171fd2	-0.03689558
1	0x3ec93f93	0.39306316
2	0xbea286a8	-0.3174336
3	0xbe56aab6	-0.20963559
4	0xbdcd445f	-0.100228064
5	0x3e3e54e2	0.18587068
6	0x3e122d13	0.14275007
7	0xbe4ca059	-0.19983043
8	0xbd8f755f	-0.07004809
9	0xbe34885d	-0.17630143
10	0x3e8ef876	0.27923936
11	0xbe8890d5	-0.26672998
12	0x3ed4c6ae	0.4155783
13	0x3d8f72b7	0.07004302
14	0xbdb8004b	-0.08984431
15	0x3ef4398f	0.47700164
16	0xbd6632cd	-0.05620079
17	0xbef7275f	-0.48272225
18	0xbee37883	-0.4442788
19	0xbcc611c8	-0.0241784
20	0xbe898258	-0.26857257
21	0xbeccb7d5	-0.39984003
22	0x3e78f4dc	0.24312156
23	0xbe5ed9c7	-0.21762763
24	0xbe178bbb	-0.14799397
25	0xbedaf847	-0.42767546
26	0xbe04fe9b	-0.1298775
27	0xbe98ff80	-0.2988243
28	0xbd13d363	-0.036090266
29	0xbe6707f4	-0.22561628
30	0x3ea0f50a	0.3143695
31	0x3ea4cfb4	0.32189715
32	0x3e9e7203	0.3094636
33	0xbf1b0a61	-0.6056271
34	0xbdb0701c	-0.08615133
35	0xbe334911	-0.17508341
36	0x3d647bf3	0.05578227
37	0x3df2e71d	0.118604876
38	0xbdb86a3a	-0.09004636
39	0x3ca99d75	0.020704964
40	0xbd398a50	-0.04529792
41	0xbeab31a1	-0.334363
42	0x3e0738aa	0.1320521
43	0xbe6b9e6f	-0.23009656
44	0xbe2d02d0	-0.16895604
45	0x3ed16255	0.40895334
46	0xbe82f555	-0.25577798
47	0xbec0f21b	-0.37684712
48	0xbebb472b	-0.36577734
49	0x3e22208e	0.15832731
50	0xbbe7e9ce	-0.0070774322
51	0xbed57e44	-0.41697896
52	0x3d004b5f	0.03132188
53	0xbddc4553	-0.1075541
54	0xbda8e44f	-0.082466714
55	0xbea2b2ab	-0.31776938
56	0x3f032b1b	0.5123765
57	0x3d740a18	0.05957994
58	0x3dc97d55	0.09838358
59	0xbca55fc5	-0.020187268
60	0xbd3a17b2	-0.045432754
61	0xbe25b3bd	-0.16181846
62	0x3e70993a	0.23495951
63	0x3dfa5819	0.122238345
64	0x3edff279	0.4373968
65	0xbd6f01e9	-0.05835143
66	0x3eda03c9	0.42581013
67	0x3eb2a325	0.34890094
68	0x3c5161b7	0.012779645
69	0xba8262b0	-0.0009947624
70	0x3f03bc12	0.5145885
71	0xbe88a0ef	-0.26685283
72	0x3eaede07	0.34153768
73	0xbe2596e7	-0.16170846
74	0x3ea4c9b0	0.32185125
75	0x3d13a2f6	0.036044084
76	0xbecc9cd5	-0.39963403
77	0x3e8b255f	0.2717695
78	0x3e5ae7fe	0.2137756
79	0x3e5fba72	0.21848467
80	0xbe35a4d9	-0.17738666
81	0x3eb01e92	0.34398323
82	0xbc864886	-0.016392004
83	0xbe42fba5	-0.19041307
84	0xbd812199	-0.06305236
85	0xbef74b98	-0.4829986
86	0xbe92c8e1	-0.28668883
87	0xbda2c4b0	-0.079476714
88	0xbdb5b897	-0.08873098
89	0xbe70b241	-0.23505498
90	0xbe6b403d	-0.22973724
91	0xbc0cbf58	-0.008590542
92	0x3f187e80	0.59568024
93	0xbe10c96e	-0.1413934
94	0xbd9bb156	-0.076021835
95	0x3e13efbf	0.14446925
96	0xbdd96744	-0.106153995
97	0xbc3ac23e	-0.01139885
98	0x3e2234f8	0.15840518
99	0x3e98955b	0.2980145
100	0xbecec9c0	-0.40388298
101	0x3f0392b8	0.5139575
102	0x3e29cee1	0.16582824
103	0xbef0e597	-0.47050163
104	0x3e67ebc0	0.22648525
105	0xbdb0bb5b	-0.08629485
106	0xbeee40f2	-0.46533924
107	0x3ed8f50d	0.4237446
108	0xbe545cc5	-0.20738514
109	0x3e32d8c0	0.17465496
110	0x3b01bfc9	0.001979815
111	0x3d87fc05	0.06639866
112	0x3e504e99	0.20342483
113	0xbd734e4d	-0.059400845
114	0xbe98b22a	-0.29823428
115	0x3c420b00	0.011843443
116	0xbe6385ec	-0.22219056
117	0xbe6aefc4	-0.22943026
118	0xbe90a408	-0.28250146
119	0x3eac4e63	0.33653554
120	0x3f0c9869	0.5492006
121	0xbe17563e	-0.14778993
122	0x3ec9a191	0.39381078
123	0x3e43074e	0.19045755
124	0x3e8b7abb	0.27242073
125	0x3da1e103	0.07904246
126	0x3d4fb940	0.050713778
127	0x3e8eaafe	0.27864832
128	0x3e484b61	0.19560005
129	0x3e9488d0	0.2901063
130	0x3eceeb4a	0.40413886
131	0xbe8c1738	-0.27361465
132	0xbea30053	-0.31836185
133	0x3dd6a7d5	0.1048123
134	0x3eac9248	0.33705354
135	0x3e46810b	0.19385163
136	0x3de40406	0.1113358
137	0xbdf758d0	-0.120774865
138	0xbf0cc858	-0.549932
139	0xbd624ce6	-0.055249117
140	0x3dc4290b	0.09578141
141	0xbcc4f83d	-0.02404415
142	0x3d581068	0.05275002
143	0x3ea5755d	0.32316104
144	0x3f033813	0.5125744
145	0xbe1be53f	-0.15224169
146	0x3e756aff	0.23966597
147	0x3f0caff4	0.54955983
148	0xbe34eecc	-0.17669219
149	0xbeaaf069	-0.33386543
150	0x3c9f6dc9	0.01946153
151	0x3e13e8ae	0.14444229
152	0x3ef802fd	0.4843978
153	0x3d87e68c	0.0663577
154	0xbeb26bb9	-0.3484781
155	0x3ecc550e	0.39908642
156	0x3cadcc21	0.0212155
157	0xbc8a336d	-0.016870225
158	0x3e2e3357	0.17011772
159	0x3dd2105a	0.10257025
160	0x3e71d634	0.23616868
161	0x3c7358d6	0.014852723
162	0x3d9804f3	0.07422819
163	0xbec0669b	-0.37578282
164	0x3eaff744	0.34368336
165	0xbf140709	-0.57823235
166	0xbe6dc17b	-0.23218338
167	0xbccbc582	-0.024874453
168	0x3e13e4d6	0.14442763
169	0xbe7941a7	-0.2434145
170	0xbee0073b	-0.43755516
171	0xbcf4d0a0	-0.029884636
172	0xbec6a7a1	-0.38799766
173	0xbe452a1c	-0.19254345
174	0x3d671679	0.056417916
175	0xbe1568db	-0.1459078
176	0xbe93023b	-0.2871264
177	0x3e9f632e	0.31130356
178	0x3ed2d15b	0.4117535
179	0x3e6833f6	0.22676072
180	0x3ec36609	0.38163784
181	0x3d19990e	0.03749948
182	0xbd2cf8ae	-0.042229347
183	0x3e5f8f0b	0.2183191
184	0x3e83b185	0.25721374
185	0xbe0f722f	-0.14008401
186	0x3e0b9e5e	0.13634631
187	0xbd373c43	-0.044735204
188	0xbe8dba46	-0.27681178
189	0x3ed8171e	0.42205137
190	0x3ebf76ac	0.37395227
191	0x3e1405e7	0.14455377
192	0xbe055464	-0.13020474
193	0xbe527fff	-0.20556639
194	0x3ea183b0	0.31545782
195	0x3ed2b0f5	0.41150633
196	0x3ebfd81b	0.37469563
197	0xbe6c92fb	-0.23102944
198	0xbee8eacb	-0.45491633
199	0xbe436116	-0.19080004
200	0xbd94e0bf	-0.072694294
201	0xbe08a971	-0.13345887
202	0x3e1f5e47	0.15563308
203	0x3e2aa8bf	0.16665934
204	0x3ec1b0ec	0.37830293
205	0xbefab7a1	-0.48968223
206	0xbe69e626	-0.22841701
207	0xbf1bcc8a	-0.60858977
208	0xbe565271	-0.20929886
209	0xbcf00717	-0.029300256
210	0xbe46174f	-0.19344829
211	0xbe1f4147	-0.15552245
212	0x3e343017	0.1759647
213	0xbe23392c	-0.15939778
214	0xbd8d3eb9	-0.06896729
215	0x3efa44cf	0.48880622
216	0xbe0880a5	-0.13330324
217	0xbc62c638	-0.013841204
218	0xbb98ae27	-0.0046594325
219	0x3f05c392	0.5225154
220	0x3d351560	0.044209838
221	0xbeb4ee2f	-0.3533797
222	0x3d9c3b51	0.07628501
223	0xbcd29159	-0.025704073
224	0x3e178971	0.14798523
225	0xbe3e6315	-0.18592484
226	0xbd8d6b45	-0.06905226
227	0x3f00b92f	0.5028257
228	0x3d998b88	0.074973166
229	0x3e51233c	0.20423597
230	0x3edf591e	0.4362268
231	0x3d3960f9	0.045258496
232	0x3dc13c1c	0.09435293
233	0xbe937e5d	-0.28807345
234	0xbf055462	-0.5208188
235	0x3ebb0b24	0.36531937
236	0x3eb466b4	0.35234606
237	0xba92d0f8	-0.0011201194
238	0x3e27c201	0.163826
239	0xbe57af8e	-0.21063063
240	0xbe04fcdd	-0.12987085
241	0xbeb7b61a	-0.3588112
242	0x3ee41507	0.44547293
243	0xbe1fdb0e	-0.15610906
244	0x3d69a5b8	0.057042807
245	0x3eb7fcd6	0.35935086
246	0xbd82046c	-0.063485
247	0x3e12a910	0.14322305
248	0x3e39f5c9	0.18160166
249	0x3efc331c	0.49257743
250	0xbefb2173	-0.49048957
251	0xbec9d296	-0.39418477
252	0x3eba7bbf	0.36422536
253	0xbeac503e	-0.3365497
254	0x3d1401a4	0.036134377
255	0x3d8d816c	0.06909451

network.0.bias f4 [64]
0	0x3e50f5ab	0.20406215
1	0xbda60df9	-0.08108134
2	0xbe93ec46	-0.288912
3	0xbde38b92	-0.11110605
4	0x3ec93e7e	0.3930549
5	0x3e716bea	0.23576322
6	0xbe48e2a6	-0.1961771
7	0xbe56efb2	-0.20989874
8	0xbc721371	-0.014775143
9	0x3eb3b2e9	0.35097435
10	0xbe13106e	-0.14361736
11	0x3e1065ec	0.1410138
12	0xbeab7ecb	-0.33495173
13	0xbd353904	-0.044243827
14	0x3ebae81d	0.36505213
15	0xbe8bc033	-0.27295074
16	0x3e879ee2	0.26488405
17	0x3ebe7f52	0.37206513
18	0xbe57f4a9	-0.21089424
19	0xbecb48be	-0.39703935
20	0xbe17da91	-0.1482947
21	0xbee30322	-0.44338328
22	0x3e1204e2	0.14259675
23	0xbf0c006a	-0.5468813
24	0x3d6dfe82	0.058104046
25	0x3dcd8bbb	0.10036417
26	0xbcd4bdbd	-0.02596938
27	0xbd41285c	-0.04715763
28	0xbedc4573	-0.43021736
29	0xbebacd24	-0.36484635
30	0x3ea93246	0.33046168
31	0x3e15be45	0.14623363
32	0x3ea26bb9	0.3172281
33	0x3e91825a	0.28419763
34	0x3e3ff715	0.18746598
35	0xbe465e38	-0.19371879
36	0x3e1d40aa	0.15356699
37	0xbd452127	-0.04812732
38	0x3e63ae48	0.22234452
39	0xbe6b9c8d	-0.23008938
40	0xbed239e6	-0.41059798
41	0xbe5f15d0	-0.21785665
42	0x3e1e4094	0.15454322
43	0xbed51cb6	-0.41623467
44	0x3dd01bf8	0.101615846
45	0xbee82a5b	-0.45344815
46	0xbd584cab	-0.05280749
47	0x3c8b0153	0.016968405
48	0x3ef64f09	0.48107174
49	0xbe69baf5	-0.22825225
50	0xbe14619c	-0.1449036
51	0xbeadf0e6	-0.33972853
52	0x3ebde2dc	0.37087142
53	0xbe798883	-0.24368481
54	0xbe0500a3	-0.12988524
55	0xbddd1b36	-0.10796206
56	0x3d29003c	0.04125999
57	0xbe1695f4	-0.1470564
58	0xbd728b34	-0.059214786
59	0x3d3cb8f1	0.04607481
60	0x3c174ddb	0.009234871
61	0x3ec7cd48	0.39023805
62	0xbea8e0c2	-0.32983977
63	0x3c854d77	0.01627229

network.3.weight f4 [32, 64]
0	0xbe14a135	-0.1451462
1	0xbc88aec9	-0.016684907
2	0xbe07f6b1	-0.13277699
3	0x3dfc8827	0.123306565
4	0xbde0f9ac	-0.10985121
5	0xbe65c99d	-0.2244019
6	0x3dda1a44	0.10649541
7	0x3d748dd3	0.059705567
8	0x3cc9f628	0.02465351
9	0x3e14300f	0.14471458
10	0x3d5e5d62	0.054288276
11	0xbda506ed	-0.080579616
12	0x3e66ace6	0.22526893
13	0xbda2ee0b	-0.07955559
14	0xbcc13434	-0.023584463
15	0xbca3d51f	-0.019999085
16	0xbe0f7f9a	-0.1401352
17	0xbde9585e	-0.11393808
18	0xbcb19ad9	-0.021680282
19	0x3e709abc	0.23496526
20	0xbdbcf095	-0.09225575
21	0x3d7220ac	0.05911319
22	0x3dffd009	0.124908514
23	0x3d35cab0	0.04438275
24	0x3e83291b	0.25617298
25	0x3de700a6	0.112794206
26	0x3d95bb1f	0.07311081
27	0x3d962961	0.07332111
28	0xbc557acb	-0.013029764
29	0xbb4cda5b	-0.003125808
30	0xba720eac	-0.00092337537
31	0x3dce095a	0.100603774
32	0x3dfa4988	0.12221056
33	0xbd589c55	-0.052883465
34	0xbe81866b	-0.25297865
35	0x3da1e4cf	0.0790497
36	0x3df7014a	0.12060793
37	0xbdca9275	-0.09891216
38	0x3c82ce9a	0.015967656
39	0x3d80b2d0	0.06284106
40	0x3e72d27f	0.2371311
41	0xbe7f177f	-0.24911307
42	0xbe5abe79	-0.21361722
43	0x3e640e8d	0.22271176
44	0x3d63d3c9	0.055621896
45	0x3c12a603	0.008950713
46	0x3e52985b	0.20565931
47	0xbc857433	-0.01629076
48	0xbd564802	-0.052314766
49	0x3e4d99a0	0.20078135
50	0xbd4d9d78	-0.050199002
51	0x3d868e62	0.06570126
52	0xbc151ffa	-0.009101862
53	0x3d2bb8d3	0.04192431
54	0x3dadb2c8	0.084813654
55	0x3e2cbadb	0.16868155
56	0x3e4813f1	0.19538857
57	0xbd113832	-0.035453983
58	0x3e2a0d4b	0.16606633
59	0xbdaa6a7c	-0.083210915
60	0xbe3809d6	-0.17972502
61	0xbdc87431	-0.09787787
62	0xbe2a4d82	-0.1663113
63	0xbd8a955e	-0.06766771
64	0xbe204bb9	-0.15653886
65	0xbcd32651	-0.025775107
66	0xbbe85622	-0.007090346
67	0xbe733084	-0.23748976
68	0x3d63dae7	0.055628683
69	0x3cd8379a	0.0263937
70	0x3c9f5c10	0.019453079
71	0x3ce2e89b	0.027698806
72	0x3db914ad	0.09037147
73	0x3ca68046	0.020324837
74	0x3e32d8ec	0.17465562
75	0xbdd48995	-0.10377804
76	0xbd35c32e	-0.04437559
77	0xbdf3a8da	-0.1189744
78	0x3d1c0270	0.038088262
79	0xbbb9c6c2	-0.0056694457
80	0xbdfd2834	-0.12361184
81	0x3d545d3a	0.05184672
82	0x3df549d8	0.11976975
83	0xbe041f56	-0.12902579
84	0xbce8323e	-0.02834427
85	0xbcb735bd	-0.022364492
86	0xbe2690a0	-0.16266108
87	0x3e2b2479	0.16713132
88	0xbde9ae23	-0.11410167
89	0x3d20995d	0.03920876
90	0xbe0eb97f	-0.13937949
91	0xbb010a53	-0.0019689992
92	0x3cf4daa7	0.029889418
93	0x3e13bb30	0.14426875
94	0x3d604684	0.05475475
95	0xbe2f9927	-0.17148267
96	0xbd2fa7d8	-0.042884678
97	0xbd305e09	-0.04305843
98	0x3e35410e	0.17700598
99	0xbd83ee30	-0.06441915
100	0xbe2d7087	-0.16937457
101	0x3d79b4bf	0.06096339
102	0xbe1665a2	-0.14687207
103	0xbcc63fdb	-0.02420037
104	0xbda9591d	-0.0826895
105	0x3dc1d2e5	0.09464053
106	0x3e4407d3	0.1914361
107	0x3c666c9c	0.01406398
108	0xbd8b7205	-0.06808857
109	0x3d7350c9	0.059403215
110	0x3da8f2f9	0.08249468
111	0x3c9747cb	0.01846685
112	0xbdd5d89e	-0.10441707
113	0x3cfe9501	0.03107691
114	0x3e69dbf3	0.2283781
115	0xbdf3ce42	-0.11904575
116	0x3d4f2d4e	0.050580315
117	0x3d83ad77	0.0642957
118	0xbd4fee0e	-0.050764136
119	0xbcac5b55	-0.021039644
120	0xbe2ccfe9	-0.16876186
121	0xbd646585	-0.05576088
122	0x3e034848	0.12820542
123	0x3d826a03	0.063678764
124	0x3de8b88e	0.11363326
125	0x3dafdf21	0.0858748
126	0x3ce2ea60	0.02769965
127	0x3d05196a	0.03249494
128	0x3d810974	0.06300631
129	0x3dd3dce4	0.10344866
130	0x3e551b70	0.20811248
131	0x3dd870a2	0.10568358
132	0x3c8f3622	0.017481867
133	0xbda02542	-0.07819606
134	0x3df1c97c	0.11806008
135	0x3cf3acd2	0.029745493
136	0x3e1044f7	0.14088808
137	0x3ba0bd1a	0.004905355
138	0xbc812c39	-0.015768157
139	0xbcd331ec	-0.02578064
140	0x3e3995f7	0.18123613
141	0x3e1165b2	0.1419895
142	0x3e1dbd7a	0.15404311
143	0x3e472ab0	0.19449878
144	0x3e77a96e	0.24185726
145	0xbe228672	-0.158716
146	0xbcd3ac13	-0.025838887
147	0x3e563350	0.20918012
148	0xbd76b2cf	-0.06022912
149	0x3c882223	0.01661784
150	0x3dbf54fe	0.09342383
151	0x3d89b1df	0.06723379
152	0x3dded3fc	0.108802766
153	0x3e12d073	0.1433733
154	0x3e33a76c	0.17544335
155	0x3cb0f77c	0.021602385
156	0x3dad03e5	0.084480084
157	0x3df2c789	0.118544646
158	0x3d3407fa	0.04395292
159	0x3e614e53	0.22002535
160	0x3d5eeea7	0.054426815
161	0xbc62eb1a	-0.013849998
162	0xbdd32a7c	-0.103108376
163	0x3c120623	0.008912596
164	0x3e1d92bb	0.15388004
165	0x3d490430	0.04907626
166	0x3e3fac41	0.18718053
167	0x3e09c359	0.13453425
168	0x3cb427b9	0.021991597
169	0xbdddd4c2	-0.10831596
170	0x3d32229e	0.043490045
171	0x3e53966f	0.20662855
172	0x3dce8726	0.10084371
173	0x3e094d76	0.13408455
174	0x3e76a8c7	0.24087821
175	0x3e395ae5	0.1810108
176	0x3c96f7b0	0.018428653
177	0x3e4a1c90	0.19737458
178	0xbd86e0ce	-0.06585847
179	0x3daa8401	0.08325959
180	0x3dfb7c65	0.12279586
181	0xbcfd67f9	-0.030933367
182	0x3e1856ae	0.14876816
183	0x3d99ce2d	0.07510028
184	0x3e2d2566	0.16908798
185	0x3e6f780c	0.23385638
186	0x3dad9e26	0.0847743
187	0xbc6acc10	-0.014330879
188	0xbe0dbb95	-0.13841088
189	0x3dbb0d65	0.09133414
190	0x3d872c97	0.06600302
191	0xbe11a31c	-0.14222378
192	0x3d0bb336	0.034106456
193	0xbe07b085	-0.1325093
194	0x3e3ac27c	0.18238252
195	0xbdfcb2e3	-0.123388074
196	0x3e370691	0.17873599
197	0x3e517369	0.20454182
198	0x3d193f80	0.037414074
199	0x3caf3458	0.021387264
200	0x3e559e57	0.20861183
201	0xbb41dd18	-0.0029581245
202	0x3e54576b	0.20736472
203	0x3d8ca522	0.06867434
204	0x3d51a454	0.051182106
205	0x3d94b8f3	0.07261839
206	0x3e130b80	0.14359856
207	0xbdc8a10b	-0.097963415
208	0x3d91313b	0.07089468
209	0x3e686e1c	0.22698253
210	0x3e290b27	0.1650816
211	0xbe2db614	-0.16963989
212	0x3deac792	0.11463846
213	0x3cf01452	0.029306564
214	0x3d8df14c	0.06930789
215	0x3e0a7151	0.1351979
216	0x3d16b499	0.036793325
217	0x3dcf25be	0.101146206
218	0xbd9c0ad8	-0.07619256
219	0xbd68c15b	-0.056825023
220	0xbe0186f9	-0.12649144
221	0x3cbca824	0.023029394
222	0x3d5a7c6b	0.05334131
223	0x3d369c16	0.04458245
224	0x3d506ff8	0.05088803
225	0x3da87d4b	0.08227023
226	0x3de14cdd	0.11000989
227	0x3e32f1b3	0.17475013
228	0x3e0422ec	0.12903947
229	0x3d65950b	0.05605034
230	0xbd1edd96	-0.03878554
231	0xbc9a93be	-0.018869277
232	0xbdc54e07	-0.09634023
233	0x3dfaacda	0.1224
234	0x3e260df9	0.16216268
235	0xbe62c137	-0.22144018
236	0x3e19f8cc	0.15036315
237	0x3e4146af	0.1887462
238	0xbdec1d8f	-0.11529075
239	0xbe22d0c6	-0.15899953
240	0x3cbee504	0.023302563
241	0xbdc14f9f	-0.09439015
242	0xb9410f78	-0.00018411677
243	0x3c1adab4	0.009451557
244	0x3d1b5771	0.037925187
245	0x3dc6ddf5	0.09710304
246	0x3e361014	0.17779571
247	0xbe08f548	-0.13374817
248	0xbda54c1c	-0.08071157
249	0x3b5cec7a	0.0033710287
250	0xbd91de20	-0.07122445
251	0x3e64f469	0.2235886
252	0x3e203c0a	0.15647903
253	0x3dde8863	0.108658575
254	0x3e1a76ae	0.15084335
255	0x3e6d777b	0.2319011

network.3.bias f4 [32]
0	0x3c6439f8	0.013929836
1	0xbdb4df9c	-0.088317126
2	0x3d55db58	0.052211136
3	0x3dc0117f	0.09378337
4	0x3e0d9637	0.13826834
5	0x3dc2b5e2	0.09507348
6	0x3e305feb	0.1722409
7	0x3d2f7381	0.042834762
8	0x3d08283a	0.033241488
9	0x3d3c210e	0.04592996
10	0xbe3fddab	-0.18736903
11	0x3dd78b36	0.10524599
12	0x3e5d4b14	0.21610671
13	0x3e25d7a4	0.16195542
14	0x3d5ef625	0.05443396
15	0xbe50bba1	-0.20384075
16	0xbdcfe4d6	-0.10151069
17	0x3ce8ac05	0.028402338
18	0x3d8df987	0.06932359
19	0xbdbee666	-0.09321289
20	0x3d72ca98	0.05927524
21	0x3d869e9e	0.065732226
22	0xbdbdd863	-0.09269788
23	0xbd755e42	-0.059904344
24	0xbe28066c	-0.164087
25	0x3d9194a4	0.07108429
26	0x3e44437d	0.1916637
27	0xbd58dc70	-0.0529446
28	0x3d5bc1b8	0.05365154
29	0x3e3eeb6f	0.18644498
30	0xbd0a22a3	-0.03372444
31	0x3c7ecc98	0.015551709

network.6.weight f4 [1, 32]
0	0xbdaea4fd	-0.08527563
1	0xbc691c8e	-0.014227999
2	0xbe357af4	-0.17722684
3	0x3e3ecb81	0.18632318
4	0x3da4bf0f	0.08044254
5	0x3e7e299e	0.24820563
6	0xbe0d7f87	-0.13818179
7	0xbe513567	-0.20430528
8	0xbe561cb6	-0.2090939
9	0xbe88c6e9	-0.26714256
10	0x3d93f0f6	0.07223694
11	0x3e54d4ef	0.20784353
12	0xbe1bcf44	-0.15215784
13	0x3dbea4d4	0.09308782
14	0x3de5c048	0.11218315
15	0x3baba995	0.0052387216
16	0x3d7091cb	0.05873279
17	0x3df5ee8a	0.12008388
18	0x3e289e6c	0.16466683
19	0xbe518db6	-0.20464215
20	0x3d5ea8ce	0.054360203
21	0x3c606a89	0.013697275
22	0xbd4cc8aa	-0.049996056
23	0xbe1bff56	-0.15234122
24	0x3ce0376b	0.027370175
25	0x3e49a59a	0.19692078
26	0x3dbab9d7	0.091174774
27	0xbd9a7e08	-0.0754357
28	0xbde0c060	-0.109741926
29	0x3e07c6d4	0.1325944
30	0xbde6de55	-0.11272875
31	0x3e53a3a6	0.20667896
